results/test4/Collector/Collector-499962.onnx (onnx, 604427 bytes, 9 tensors)

network_body._body_endoder.seq_layers.0.weight f4 [256, 68]
0.1878042 -0.065237604 0.04438332 -0.0864114 0.12367329 0.02894693 -0.11134491 0.08735689
-0.0006255917 -0.14705765 0.14042267 0.14722052 -0.0125238905 0.07917694 0.0042245253 -0.13381118
-0.14003356 0.031013658 -0.01949208 -0.0912072 -0.18256588 0.027892238 0.22587079 -0.16743806
-0.22992769 -0.15430045 -0.18084085 0.23864794 0.010762082 -0.094763525 0.032264944 -0.11300333
0.30509192 0.18227208 0.037420634 0.060840596 -0.28376377 0.14899871 -0.018062908 0.025739815
-0.15354094 -0.08896438 0.023383845 0.14236479 -0.036877755 0.2286528 0.00022519258 0.03498035
0.015368922 0.03215232 -0.11469931 -0.080453105 -0.2260305 0.27560666 0.08287632 -0.21098137
0.018738732 -0.13131835 -0.10659082 -0.118215255 -0.09123002 0.4052838 0.2395029 -0.16578455
0.047587104 -0.15236829 0.09218008 -0.14218481 0.18246827 0.07620504 0.04728619 -0.1048969
0.07998043 -0.15192984 -0.13376547 0.1655103 0.16297331 -0.06428222 -0.04590658 0.17109619
-0.18511097 0.033591762 0.04116595 -0.06552727 0.066051245 -0.025693584 0.13168386 0.048237838
-0.26060167 0.22431482 0.027229415 0.12377201 -0.055952284 -0.03505481 0.04355784 0.037640613
-0.16475892 0.15830418 0.044788104 0.2903041 -0.18179601 0.15493183 0.013002629 -0.014778807
0.05271186 -0.041331872 -0.028975785 -0.0035410328 -0.10036433 0.16953713 -0.06988594 0.0207298
0.13316448 0.0515782 -0.19913039 -0.06720238 -0.08717935 -0.013396191 -0.043854672 0.17093314
-0.059866562 -0.12865673 -0.2934731 0.0020632062 -0.22264154 0.041106936 0.09097405 -0.0904817
0.10778096 0.1860053 0.1194984 -0.081109434 -0.0048813284 0.0297513 -0.019947598 -0.32600263
-0.11429978 -0.10020092 -0.09409733 -0.06318235 -0.04303807 0.121352635 0.12872206 -0.1646681
0.070119865 -0.08816757 0.1278703 -0.27357712 -0.07150141 0.007455769 0.051921923 0.0676398
-0.040958107 0.013307204 -0.011458334 0.050127175 0.3115095 0.020274203 -0.10381407 0.0021144901
0.07290719 -0.0431592 0.0242436 -0.08940965 -0.061263755 0.025716232 -0.020107072 -0.028789682
-0.12756406 0.018973611 -0.12609828 -0.033226725 0.0026287616 -0.029099986 -0.07546301 -0.009911246
-0.055110812 0.17053044 -0.031056853 0.13381085 0.039477352 -0.044059552 -0.045204397 0.063535884
0.0017535452 -0.07416186 -0.16870941 -0.06050542 0.052203096 0.0408224 -0.09724966 0.068541236
0.10184262 -0.056518953 0.065297246 -0.12017799 -0.06898955 0.16213585 0.06385917 -0.0080779465
-0.008407275 -0.12802239 -0.074182086 -0.022000957 0.12236831 0.0004968652 -0.078348674 -0.15186791
0.11293947 0.0414778 -0.18190712 -0.089691974 0.05367697 0.08477857 0.17544502 0.02732135
0.10826007 0.099412665 0.28203645 0.048685037 -0.20473775 0.005256897 -0.14615992 0.12201298
-0.19038138 -0.25894916 -0.07817414 0.028822796 -0.12188011 0.15940943 -0.027465083 0.040501546
0.30971822 -0.0689158 -0.1738183 0.1179944 0.18328464 0.04242177 0.029093279 0.14527339
0.10421833 0.05807955 -0.086849004 -0.10529393 -0.16125175 -0.023856 0.01751215 -0.0529264
-0.023286136 0.0899247 0.013902672 -0.058892086 0.009154832 -0.2603928 0.106229685 0.17397806
00000000: bf4f 403e 4b9b 85bd 49cb 353d 76f8 b0bd
00000010: 6c48 fd3d 1d22 ed3c cd08 e4bd 2be8 b23d
00000020: c0fe 23ba 4896 16be f6ca 0f3e fac0 163e
00000030: 0131 4dbc 8527 a23d e36d 8a3b cc05 09be
00000040: f564 0fbe 5b10 fe3c dbad 9fbc d7ca babd
00000050: 8df2 3abe 437e e43c ac4a 673e e274 2bbe
00000060: 2a72 6bbe f000 1ebe 582e 39be 2060 743e
00000070: 7253 303c 6113 c2bd 3f28 043d 4a6e e7bd
00000080: 0235 9c3e 88a5 3a3e 6146 193d fd33 793d
00000090: 7c49 91be 1e93 183e aaf8 93bc 4edc d23c
000000a0: d639 1dbe f532 b6bd 7a8f bf3c 13c8 113e
000000b0: 210d 17bd f623 6a3e ac21 6c39 8e47 0f3d
000000c0: eecd 7b3c 27b2 033d 79e7 eabd 99c4 a4bd
000000d0: 8a74 67be 511c 8d3e 0fbb a93d 800b 58be
000000e0: f881 993c 5178 06be 4a4c dabd d71a f2bd
000000f0: ced6 babd 5c81 cf3e 4040 753e 6dc3 29be
00000100: b2ea 423d 6f06 1cbe e9c8 bc3d e598 11be
00000110: f6d8 3a3e 6311 9c3d 2aaf 413d 30d4 d6bd
00000120: c8cc a33d 7f93 1bbe d1f9 08be 887b 293e
00000130: 7ae2 263e 66a6 83bd 8a08 3cbd d733 2f3e
00000140: bb8d 3dbe 8497 093d a19d 283d 2933 86bd
00000150: e045 873d 5a7b d2bc 22d8 063e 0a95 453d
00000160: 956d 85be c9b2 653e 3910 df3c 2e7c fd3d
00000170: 392e 65bd a295 0fbd b569 323d 0b2d 1a3d
00000180: 90b6 28be 7e1a 223e bb73 373d bda2 943e
00000190: bc28 3abe 73a6 1e3e fb08 553c cf22 72bc
000001a0: 64e8 573d 9c4b 29bd a05e edbc ac10 68bb
000001b0: d08b cdbd 249b 2d3e 5c20 8fbd 8bd1 a93c
000001c0: 455c 083e aa43 533d d6e8 4bbe 67a1 89bd
000001d0: 168b b2bd b37b 5bbc f5a0 33bd 1909 2f3e
000001e0: a436 75bd 97be 03be 1b42 96be db36 073b
000001f0: 25fc 63be bf5f 283d 9a50 ba3d 784e b9bd
00000200: 44bc dc3d 2c78 3e3e 94bb f43d b41c a6bd
00000210: 8df3 9fbb 00b9 f33c 2569 a3bc d1e9 a6be
00000220: 0116 eabd 2436 cdbd 1ab6 c0bd bf65 81bd
00000230: b048 30bd bb87 f83d b7cf 033e c19e 28be
00000240: 019b 8f3d 3391 b4bd 6ff0 023e 4d12 8cbe
00000250: 556f 92bd 864f f43b 15ac 543d bc86 8a3d
00000260: b0c3 27bd 7506 5a3c bcbb 3bbc 2752 4d3d
00000270: 2c7e 9f3e 1616 a63c 799c d4bd 4293 0a3b
00000280: 5d50 953d b4c7 30bd 849a c63c 681c b7bd
00000290: b4ef 7abd d9aa d23c 96b7 a4bc 57d8 ebbc
000002a0: 27a0 02be 8c6e 9b3c e81f 01be bf18 08bd
000002b0: 4d47 2c3b 1863 eebc 5a8c 9abd c762 22bc
000002c0: e0bb 61bd 889f 2e3e f16a febc b605 093e
000002d0: 01b3 213d ca77 34bd 3f28 39bd 1a1f 823d
000002e0: 37d7 e53a 2ce2 97bd 29c2 2cbe 88d4 77bd
000002f0: ead2 553d 6435 273d d42a c7bd 595f 8c3d
00000300: dd92 d03d 6b80 67bd 90ba 853d e11f f6bd
00000310: 654a 8dbd f106 263e 99c8 823d 5d59 04bc
00000320: abbe 09bc 4d18 03be c7ec 97bd 5a3b b4bc
00000330: 3d9c fa3d 0f40 023a 4575 a0bd 4383 1bbe
00000340: cf4c e73d a0e4 293d dc45 3abe 6db0 b7bd
00000350: 62dc 5b3d 63a0 ad3d dca7 333e 06d1 df3c
00000360: 75b7 dd3d de98 cb3d 1567 903e f669 473d
00000370: c6a6 51be 0c42 ac3b f2aa 15be f1e1 f93d
00000380: 56f3 42be fc94 84be c319 a0bd c91d ec3c
00000390: 479c f9bd 3a3c 233e 74fe e0bc f3e4 253d
000003a0: 6393 9e3e ba23 8dbd 6dfd 31be 0ca7 f13d
000003b0: f8ae 3b3e 73c2 2d3d 0755 ee3c 8cc2 143e
000003c0: 6b70 d53d d2e4 6d3d e4dd b1bd 58a4 d7bd
000003d0: 2e1f 25be a86d c3bc a475 8f3c 5ac9 58bd
000003e0: 91c2 bebc 712a b83d 08c8 633c d438 71bd
000003f0: 26fe 153c 3552 85be f38e d93d 4e27 323e

network_body._body_endoder.seq_layers.0.bias f4 [256]
-0.007979255 -0.010534503 -0.025190648 -0.01390455 -0.0011007508 0.0009621557 0.009212677 0.008525856
-0.011405941 -0.00864732 -0.006381963 0.0027843853 0.0025033634 -0.010022063 -0.004366598 -0.0018134597
0.024756648 5.2835127e-05 0.0016320627 -0.013954219 -0.00083834917 0.02310513 -0.007618063 -0.0064172684
-0.0199819 -0.0068583605 0.003761293 -0.007672297 -0.003854199 -0.0051906765 -0.025823098 0.013848637
0.00052918127 -0.002358026 0.012006095 -0.0076221297 0.037188552 0.012441535 0.009775356 0.004720652
-0.011074786 0.016946658 -0.006377647 0.020348327 -0.004011502 -0.00287316 0.04005479 -0.0058884234
0.0002547676 -0.0010384085 0.0048255003 -0.008835913 0.021843491 -0.005062579 0.004161622 -0.024937524
-0.008263333 0.02720618 -0.015855098 0.0060708476 -0.0015995535 -0.002062992 -0.019040128 -0.0019643647
0.019450417 -0.001218946 0.00042219184 0.0005653403 -0.006924298 -0.0081454255 0.015845355 -0.010738116
-0.007821276 0.019244043 0.010876201 -0.005725543 0.00382454 -0.013913652 -0.003972781 -0.008629534
-0.007224894 -0.015376189 -0.0019338857 0.00038536254 0.0088821305 0.016970228 0.008336874 0.001984732
-0.0040139733 -0.020603498 -0.004296748 -0.0038303689 -0.02195172 -0.0053839013 -0.0001858917 -0.0018260953
-0.017935012 -0.00063415745 0.015858823 -0.019188536 0.030917356 0.004740548 -0.008807067 0.016167594
0.027063133 -0.00717972 -0.013668695 -0.009050799 -0.00078697095 0.005825755 -0.019000547 -0.0073345494
-0.03275917 0.004343944 -0.01105368 -0.0010751946 -0.0052017923 -0.001574457 0.038995538 -0.008882275
-0.0053093545 0.0005367212 0.0006300938 0.0028871694 -0.010215032 0.029579546 0.010193728 -0.010253815
-0.0092996415 0.003722412 0.0086067915 -0.00599532 -0.0011750669 -0.011678051 -0.00981554 -0.0018336492
0.016374106 -0.012543446 -0.011521735 0.0070365467 0.013964025 0.01595858 -0.014870405 -0.014236875
-0.011839165 -0.004338145 0.020101743 -0.012497039 -0.017647913 -0.0016666219 -0.01507879 0.00793042
-0.0062874453 0.022111887 -0.015575364 0.025068445 -0.01255446 0.00413488 -0.007057401 -0.021591375
0.036101013 -0.014558056 0.004962156 -0.017304195 -0.026550699 -0.015055192 -0.00242521 -0.0045143967
0.029393194 0.009070599 -0.007410709 0.017603574 -0.009558288 0.01123517 -0.017251438 0.008700422
0.015544327 -0.0018045311 -0.0008879792 -0.0017603529 -0.00418258 0.004440096 0.0023726597 -0.0016867846
-0.009913997 -0.007106718 0.011794404 -0.011314063 0.00789074 -0.0025966964 0.0018581321 0.0014321695
-0.00012160945 0.020425744 -0.015839124 -0.0010199178 0.022645533 0.024392663 -0.0018200972 0.008456054
-0.009123533 -0.007884127 -0.0073917843 0.011973356 0.01883512 -0.004855327 0.00869284 0.007169077
-0.008268965 -0.012097365 0.010420645 -0.019694304 0.011294726 0.011971302 0.01747418 -0.009014168
0.0018024935 -0.0022073144 0.028885087 0.018054591 0.0068806605 -0.0066486024 -0.0021466587 0.019263115
0.04768259 -0.0062001576 0.008190234 -0.004353898 -0.007885256 0.008979653 -0.015184265 -0.0029701944
-0.0011205275 0.0063578403 0.0015620493 0.0005049624 -0.0055141826 -0.0087131485 -0.008053857 0.006970815
0.01015987 0.0032681867 -0.014839695 -0.0052985125 0.0038057629 -0.0019308265 0.025545899 0.026878273
0.006952894 0.0028068107 -0.0040054535 -0.0024357028 -0.006301416 -0.0065932847 -0.0052568456 0.005679475
00000000: 6cbb 02bc e898 2cbc 9e5c cebc e9cf 63bc
00000010: 1147 90ba 2d39 7c3a c5f0 163c 08b0 0b3c
00000020: fcdf 3abc 7dad 0dbc c91f d1bb 3c7a 363b
00000030: 780f 243b 9433 24bc ae15 8fbb 9cb1 edba
00000040: 74ce ca3c 499b 5d38 f0ea d53a 3da0 64bc
00000050: a9c4 5bba f846 bd3c f2a0 f9bb f347 d2bb
00000060: 15b1 a3bc 19bc e0bb 0680 763b e467 fbbb
00000070: bb96 7cbb 8d16 aabb f68a d3bc 65e5 623c
00000080: c1b8 0a3a 1d89 1abb 36b5 443c 0fc3 f9bb
00000090: 0653 183d 94d7 4b3c d128 203c b3af 9a3b
000000a0: 0573 35bc b8d3 8a3c 95fb d0bb 89b1 a63c
000000b0: eb72 83bb a04b 3cbb 7e10 243d adf3 c0bb
000000c0: 5492 8539 351b 88ba 3b1f 9e3b 81c4 10bc
000000d0: 1ff1 b23c fee3 a5bb 375e 883b c749 ccbc
000000e0: ee62 07bc 7fdf de3c 8de2 81bc f6ed c63b
000000f0: 1ca8 d1ba 4333 07bb 0bfa 9bbc 92bc 00bb
00000100: 7b56 9f3c 0ac5 9fba a159 dd39 5833 143a
00000110: 39e5 e2bb 6474 05bc 1ece 813c ecee 2fbc
00000120: cf24 00bc afa5 9d3c 1832 323c 569d bbbb
00000130: 22a5 7a3b 16f6 63bc 1a2e 82bb e462 0dbc
00000140: cebe ecbb 69ec 7bbc 707a fdba 7c0a ca39
00000150: 5b86 113c 2605 8b3c 6297 083c 4712 023b
00000160: a687 83bb abc8 a8bc bccb 8cbb ed06 7bbb
00000170: 18d4 b3bc 706b b0bb eceb 42b9 9759 efba
00000180: 72ec 92bc 963d 26ba 5dea 813c 4731 9dbc
00000190: 6546 fd3c 9956 9b3b 844b 10bc e771 843c
000001a0: 81b3 dd3c db43 ebbb aaf2 5fbc cd49 14bc
000001b0: ba4c 4eba fae5 be3b 09a7 9bbc a956 f0bb
000001c0: 7b2e 06bd a557 8e3b 7f1a 35bc 8bed 8cba
000001d0: cc73 aabb 035e ceba c9b9 1f3d f686 11bc
000001e0: 18fa adbb c0b2 0c3a e12c 253a aa36 3d3b
000001f0: f35c 27bc ce50 f23c 9803 273c 9eff 27bc
00000200: 865d 18bc b6f3 733b 8003 0d3c 6474 c4bb
00000210: b404 9aba 4c55 3fbc 5cd1 20bc 0f57 f0ba
00000220: fd22 863c 0783 4dbc a9c5 3cbc d592 e63b
00000230: 5ec9 643c 91bb 823c 00a3 73bc c841 69bc
00000240: 0ff9 41bc ff26 8ebb 69ac a43c 61c0 4cbc
00000250: 5b92 90bc 8d72 daba 070d 77bc 98ee 013c
00000260: ea06 cebb fd23 b53c d02f 7fbc 575c cd3c
00000270: 39b1 4dbc e37d 873b c541 e7bb 65e0 b0bc
00000280: a8de 133d ea84 6ebc 9599 a23b 87c1 8dbc
00000290: da80 d9bc 0daa 76bc 46f0 1ebb 81ed 93bb
000002a0: ffc9 f03c da9c 143c 88d5 f2bb 5f35 903c
000002b0: 5e9a 1cbc b813 383c e352 8dbc 378c 0e3c
000002c0: a2ad 7e3c 0486 ecba 46c7 68ba a4bb e6ba
000002d0: 060e 89bb 3a7e 913b a07e 1b3b 1917 ddba
000002e0: 516e 22bc 79df e8bb 513d 413c 9f5e 39bc
000002f0: 2a48 013c 562d 2abb 918c f33a a2b7 bb3a
00000300: 9408 ffb8 e453 a73c 0dc1 81bc c3ae 85ba
00000310: 2083 b93c 1fd3 c73c 5490 eeba 438b 0a3c
00000320: df7a 15bc 6d2c 01bc c836 f2bb e52b 443c
00000330: 1c4c 9a3c 6f19 9fbb 6a6c 0e3c 94ea ea3b
00000340: 8e7a 07bc 0734 46bc 5abb 2a3c f355 a1bc
00000350: 840d 393c 4823 443c 0326 8f3c 29b0 13bc
00000360: a541 ec3a 97a8 10bb 6ba0 ec3c 39e7 933c
00000370: 2a77 e13b 85dc d9bb f5ae 0cbb aecd 9d3c
00000380: d24e 433d b12a cbbb 5530 063c 25ab 8ebb
00000390: 2931 01bc 651f 133c 6cc7 78bc 98a7 42bb
000003a0: aade 92ba 6e55 d03b adbd cc3a 745f 043a
000003b0: 51b0 b4bb 98c1 0ebc 53f4 03bc 6f6b e43b
000003c0: 9575 263c 132f 563b 3122 73bc 259f adbb
000003d0: 1b6a 793b c913 fdba a245 d13c d32f dc3c
000003e0: 1ad5 e33b 78f2 373b 2e40 83bb 50a0 1fbb
000003f0: 1c7c cebb 7b0c d8bb 9e41 acbb e41a ba3b

network_body._body_endoder.seq_layers.2.weight f4 [256, 256]
0.04824907 -0.030867169 -0.096523054 0.03335332 -0.048256326 -0.10538632 0.016625905 0.10708722
0.1298131 0.060298856 -0.07061558 0.12415449 -0.08243972 0.11321392 -0.10208379 0.09165574
0.041182272 -0.06847926 0.038267218 -0.0020536557 -0.06597893 0.03831043 0.010017707 -0.026121637
-0.017505728 -0.08033963 -0.073660016 0.045564543 0.062390342 -0.0513725 0.04262597 0.15149947
-0.016881675 -0.0052932273 0.002513379 0.1671597 -0.058527987 -0.017638126 -0.038007375 -0.059513696
-0.038280074 -0.023044104 0.054782975 -0.07032025 -0.005550246 0.046849348 0.0044467743 -0.04828481
-0.050288595 0.05395992 -0.04267433 0.020893017 0.026900169 -0.020750133 0.042040028 -0.08307698
0.008983336 -0.09714711 -0.071092635 -0.017913895 -0.09432247 -0.018934177 0.0023960916 0.00075471494
-0.042864952 0.078573875 -0.04179708 0.021376086 0.09081241 0.02960493 -0.026703935 -0.002810625
0.05831343 0.016415304 -0.05073217 -0.118683726 0.027475784 0.015743 0.031445272 0.011013079
0.0106112175 0.010158801 0.0517876 -0.051940322 -0.035969533 0.0027614888 -0.03831688 0.01215582
-0.11641741 -0.05193082 0.052424826 -0.03573762 0.028928874 0.0059239455 -0.040554825 -0.024534725
-0.08931244 0.12381073 -0.06163147 -0.04663161 0.06212001 -0.079939626 0.008302906 0.15037397
0.059395414 0.09789542 0.009983578 0.014601805 -0.028504658 -0.016265722 -0.036955822 0.02549227
0.07029423 0.040164545 -0.026135096 0.01787466 0.081490405 -0.045285676 -0.06590674 0.08915457
-0.05120331 -0.0590695 -0.045694485 -0.0010015566 -0.037018146 -0.04713795 -0.03714632 -0.1272514
-0.015927628 0.007050209 0.11216916 0.0704002 0.09570843 -0.13692297 0.030018415 -0.09621498
-0.12912469 -0.048795987 0.06743805 0.0037426476 0.00075248606 -0.10225051 -0.041809816 0.042884845
-0.009275884 0.04601231 0.024911031 0.0026480963 -0.03008466 -0.016353576 -0.058499712 0.03523687
-0.06620772 0.01942554 0.025205111 -0.032036882 -0.09216124 -0.031694323 -0.00864399 -0.0033017967
-0.011743554 -0.1067112 -0.044484545 -0.041961946 0.029692935 -0.027547989 -0.0060746707 0.013958074
0.008805894 0.016261853 -0.1512063 -0.04877402 -0.060808796 0.06580369 0.06010137 0.040587526
0.00033140168 0.07112916 -0.0035022637 -0.05573181 -0.0058703325 0.097614355 -0.05574369 0.017525204
0.044285584 0.012959856 0.0014977844 -0.008577673 0.0076873233 0.071913674 -0.033510283 -0.051592287
-0.026518522 0.11273284 0.0003481194 -0.08840646 0.0022555601 -0.116778925 -0.07696011 0.047574744
-0.030051406 0.035644986 -0.09356666 -0.017200075 -0.020095885 0.024300026 -0.08046521 0.007516756
0.08412665 -0.018568521 -0.025470117 -0.069901206 -0.08478584 0.055856638 0.0018574571 -0.066541865
0.08298766 -0.02078297 -0.031658646 0.076101676 0.070096456 0.027257532 0.061261997 0.072553314
-0.014482011 -0.0229019 -0.0741001 -0.03855297 0.056602612 -0.0044061225 -0.031984687 -0.05580983
0.028263876 0.10914668 -0.095038705 0.032444585 -0.055211823 0.078294955 0.04693583 -0.042742155
-0.00054814806 -0.0010223436 -0.059584007 -0.105829686 -0.035613444 0.04230829 0.0053371396 -0.01822004
0.004237238 0.07621007 -0.09973787 -0.033148002 0.066134445 0.025222426 0.013484238 -0.08188654
00000000: d1a0 453d 25dd fcbc e1ad c5bd 7e9d 083d
00000010: 6da8 45bd c8d4 d7bd 0d33 883c 8b50 db3d
00000020: baed 043e effb 763d e79e 90bd b644 fe3d
00000030: 28d6 a8bd b3dc e73d 4e11 d1bd 01b6 bb3d
00000040: beae 283d db3e 8cbd 16be 1c3d a096 06bb
00000050: f61f 87bd 66eb 1c3d 4f21 243c 0bfd d5bc
00000060: 2c68 8fbc 1b89 a4bd 10db 96bd e3a1 3a3d
00000070: 048d 7f3d f86b 52bd 9298 2e3d ad22 1b3e
00000080: 704b 8abc cf72 adbb 81b7 243b ea2b 2b3e
00000090: 0bbb 6fbd d57d 90bc 9fad 1bbd a2c4 73bd
000000a0: 91cb 1cbd fdc6 bcbc 1d64 603d 1004 90bd
000000b0: d7de b5bb 1ae5 3f3d 3fb6 913b 4bc6 45bd
000000c0: 6afb 4dbd 1405 5d3d 47cb 2ebd d527 ab3c
000000d0: be5d dc3c 2ffc a9bc 2a32 2c3d 4424 aabd
000000e0: d82e 133c 10f5 c6bd 0499 91bd 29c0 92bc
000000f0: 242c c1bd d91b 9bbc bf07 1d3b 10d8 453a
00000100: 2993 2fbd 57eb a03d 6a33 2bbd e71c af3c
00000110: dbfb b93d 0a86 f23c 36c2 dabc 7632 38bb
00000120: 10da 6e3d 6379 863c 89cc 4fbd 7410 f3bd
00000130: e514 e13c 77f7 803c c2cc 003d 3470 343c
00000140: acda 2d3c 1a71 263c 3c1f 543d 60bf 54bd
00000150: ca54 13bd 18fa 343b 29f2 1cbd 3429 473c
00000160: 406c eebd 69b5 54bd 6abb 563d 9c61 12bd
00000170: 3ffc ec3c a81d c23b d11c 26bd 0cfd c8bc
00000180: 71e9 b6bd 7b90 fd3d 4871 7cbd c900 3fbd
00000190: 8d71 7e3d 63b7 a3bd e908 083c a2fb 193e
000001a0: 9b48 733d 657d c83d 2992 233c 693c 6f3c
000001b0: 9a82 e9bc b13f 85bc fd5e 17bd 2ad5 d03c
000001c0: 6cf6 8f3d 9483 243d 4519 d6bc e16d 923c
000001d0: 71e4 a63d 797d 39bd 1dfa 86bd ac96 b63d
000001e0: 90ba 51bd dcf2 71bd 242a 3bbd aa46 83ba
000001f0: 57a0 17bd b913 41bd bd26 18bd 314e 02be
00000200: a87a 82bc 7105 e73b f2b8 e53d fb2d 903d
00000210: c802 c43d 8935 0cbe 2ee9 f53c 5c0c c5bd
00000220: 4339 04be 4dde 47bd f61c 8a3d 3547 753b
00000230: 7c42 453a b768 d1bd c540 2bbd 05a8 2f3d
00000240: e1f9 17bc 6777 3c3d 3812 cc3c af8b 2d3b
00000250: 1b74 f6bc eff7 85bc 659d 6fbd 8954 103d
00000260: ea97 87bd 4f22 9f3c f37a ce3c 1b39 03bd
00000270: 08bf bcbd e8d1 01bd 869f 0dbc f562 58bb
00000280: 0968 40bc 678b dabd 6d35 36bd 4ae0 2bbd
00000290: 993e f33c 52ac e1bc 080e c7bb 68b0 643c
000002a0: 9946 103c 9437 853c d3d5 1abe 44c7 47bd
000002b0: a512 79bd 16c4 863d db2c 763d 1b3f 263d
000002c0: fbbf ad39 2aac 913d 3c86 65bb 0a47 64bd
000002d0: eb5b c0bb 09ea c73d 7f53 64bd 0491 8f3c
000002e0: cd64 353d 9355 543c 4e51 c43a 5e89 0cbc
000002f0: f1e5 fb3b 7a47 933d 1442 09bd 6f52 53bd
00000300: 5f3d d9bc 7ae0 e63d cc83 b639 720e b5bd
00000310: 05d2 133b ca29 efbd 439d 9dbd bcdd 423d
00000320: 5e2e f6bc 7a00 123d e19f bfbd 2ce7 8cbc
00000330: 20a0 a4bc d910 c73c f2ca a4bd 1f4f f63b
00000340: 984a ac3d 031d 98bc b5a6 d0bc 5d28 8fbd
00000350: 33a4 adbd eec9 643d eb75 f33a 1a47 88bd
00000360: 6ff5 a93d 0c41 aabc 7fac 01bd 32db 9b3d
00000370: bb8e 8f3d 304b df3c dced 7a3d d596 943d
00000380: f545 6dbc c49c bbbc cbc1 97bd b8e9 1dbd
00000390: 24d8 673d 3c61 90bb 6002 03bd d998 64bd
000003a0: a589 e73c 4b88 df3d a7a3 c2bd 9de4 043d
000003b0: cb25 62bd 1b59 a03d c93f 403d 6612 2fbd
000003c0: 98b1 0fba 2900 86ba 5c0e 74bd 3cbd d8bd
000003d0: 67df 11bd 754b 2d3d 2ce3 ae3b 3142 95bc
000003e0: 87d8 8a3b 0614 9c3d 5e43 ccbd 33c6 07bd
000003f0: 7f71 873d 439f ce3c feec 5c3c 21b4 a7bd

network_body._body_endoder.seq_layers.2.bias f4 [256]
-1.897608e-06 -0.001931096 -0.0034886862 0.0008976407 -0.0035129895 0.0036177584 -0.0012238194 0.0045736083
0.00796913 -0.0020299794 0.0037575706 0.0014093885 0.005606672 0.0076174024 -0.0003296681 -0.006695922
0.0004961255 -0.0020610492 -0.0066373833 -0.0017996795 0.012035285 -0.0024642053 -0.008101989 0.0077579715
-0.0064029396 -0.0075885844 0.015673283 -0.0020386903 0.0053514875 -0.007345286 -0.0018111703 0.0017189342
0.0145381065 0.0055212234 0.007908802 0.0010348419 -0.0006408487 -0.004780232 -0.0032718242 0.012590731
0.02135163 0.017363798 -0.001084355 0.019214425 0.03062912 0.00016784333 -0.00414532 -0.012702715
0.013109682 -0.0013567432 0.012494571 0.00079787965 0.006347519 -0.0004161087 0.003162615 -0.001514453
-2.6846108e-05 -0.002197604 0.0082524475 0.013139041 0.004733824 0.009100909 -0.008667904 0.016014209
-0.0019145773 0.013074216 -0.010167042 -0.003023593 -0.005020189 -0.00093190104 -0.0060612424 -0.010393491
-0.0010428793 -0.00022144774 0.0020702826 0.0014795784 0.0041964953 0.0122986175 -0.008741252 -0.012535588
0.00038683866 -0.0046821614 -0.003746438 0.014261525 -0.0019982618 0.0053370143 -0.000429087 -0.0011859635
-0.0052169133 -0.007415562 -0.014618794 -0.00012134443 -0.00071495946 -0.0018057112 0.00012717063 -0.014965311
0.013650523 0.0012958861 -0.011383284 -0.006616566 -0.010557144 -0.0030549737 -0.0069286195 -0.002755461
-0.00043658563 -0.00432185 -0.008400363 -0.007225423 -0.0025069637 0.0051408634 0.019642552 0.0031885698
0.003106252 -0.0064833206 0.00035071926 -0.0048023667 0.004086316 0.012380123 0.0018700487 -0.001420216
-0.0023125124 0.009863267 0.00047939512 0.009075951 0.003434501 0.00028608768 -0.0028880497 -0.003710706
-0.0021337625 -0.0059332373 0.004578011 -0.0025139563 0.0012994478 -0.0026154867 -0.00414135 0.0015249365
-0.008913926 -0.0063905083 -0.0174862 0.0023970685 0.02392796 -0.0015729015 0.000779453 0.008075088
-0.008149314 -0.009155587 0.00013449028 0.013450905 -0.011005439 0.0012396477 0.0030699703 0.0019436001
-0.023947002 0.004002024 0.0012922204 0.01333823 0.0080111595 -0.0004851408 0.0066807023 0.00057095167
0.00847886 0.009403798 -0.015977642 0.0041263616 -0.0006948243 0.0160571 -0.0030068879 0.00048448032
-0.0043807533 -0.0065846345 0.0006868207 0.000120867655 0.0023127752 -0.007657623 0.0030386352 -0.004808215
0.0022060364 -0.003283462 0.024025021 -0.00817216 0.006537798 -0.0056236107 0.005851319 -0.008978331
-0.008834351 0.0115699135 -0.010674678 0.002210025 0.0074308375 0.009858986 0.0015002185 0.0078100413
-0.007571905 0.009047917 -0.012992022 -4.922386e-06 0.0061722514 0.0109512955 0.0009877436 0.0013464029
0.013656308 0.033538993 0.0044843536 0.0060313856 -0.0049802717 0.0075282617 0.00039281062 -0.000567685
-0.013461232 0.01129132 0.0036689218 0.0001008006 -0.005439015 -0.0068728114 -0.004405333 -0.001310923
-0.0047501433 0.005976875 -0.009944499 0.028035864 -0.013909409 0.012946743 -0.0015555616 0.004734571
0.009583849 -0.008245656 0.011319063 0.019395411 0.0132923005 0.0028658684 0.0003696946 -0.0026765335
0.014160613 -0.015321658 0.003017102 -0.007129688 -0.005136877 -0.0016454277 -0.006996544 0.030280365
0.00062502135 0.021079885 -0.0042291037 0.006687028 -0.0144453095 0.0024403958 0.0029040726 -0.010480644
-0.014626317 -0.0054675513 0.0011943683 0.0011086495 0.009799759 0.0037145666 0.0029734694 0.008140982
00000000: 50b1 feb5 d41c fdba 71a2 64bb a64f 6b3a
00000010: 2f3a 66bb ea17 6d3b 9168 a0ba 35de 953b
00000020: f490 023c 6709 05bb 9341 763b 3bbb b83a
00000030: 2cb8 b73b 679b f93b 4ed7 acb9 7769 dbbb
00000040: 6b0e 023a ab12 07bb 687e d9bb 39e3 ebba
00000050: a52f 453c 817e 21bb 34be 04bc 9536 fe3b
00000060: c0cf d1bb a9a9 f8bb 4265 803c 8c9b 05bb
00000070: 885b af3b bab0 f0bb ca64 edba dc4d e13a
00000080: 3d31 6e3c 61eb b43b eb93 013c 88a3 873a
00000090: a1fe 27ba 7ea3 9cbb 1a6c 56bb 5a49 4e3c
000000a0: 9de9 ae3c 863e 8e3c eb20 8eba 9267 9d3c
000000b0: ece9 fa3c 1aff 2f39 77d5 87bb 0c1f 50bc
000000c0: fec9 563c bfd4 b1ba 07b6 4c3c cc28 513a
000000d0: d9fe cf3b 2a29 dab9 e043 4f3b 9c80 c6ba
000000e0: 9433 e1b7 ad05 10bb 4635 073c 2245 573c
000000f0: 321e 9b3b fb1b 153c d303 0ebc 3b30 833c
00000100: 8ef2 faba 3d35 563c aa93 26bc 7927 46bb
00000110: 6680 a4bb d24a 74ba 639d c6bb 7649 2abc
00000120: 39b1 88ba 6d34 68b9 94ad 073b 6aee c13a
00000130: c182 893b 2480 493c 7837 0fbc 1162 4dbc
00000140: 9bd0 ca39 d16c 99bb cd86 75bb 2ca9 693c
00000150: 45f5 02bb 1fe2 ae3b 15f7 e0b9 5572 9bba
00000160: a4f2 aabb 3efe f2bb ab83 6fbc 4b7a feb8
00000170: 1e6c 3bba 9dad ecba 1b59 0539 1031 75bc
00000180: 71a6 5f3c b9da a93a f480 3abc c7cf d8bb
00000190: dff7 2cbc f435 48bb 7909 e3bb f794 34bb
000001a0: 88e5 e4b9 4e9e 8dbb ada1 09bc 3ec3 ecbb
000001b0: df4b 24bb b074 a83b 6be9 a03c 53f7 503b
000001c0: 4392 4b3b 0972 d4bb bee0 b739 2c5d 9dbb
000001d0: 81e6 853b 00d6 4a3c 6c1c f53a 8b26 baba
000001e0: 858d 17bb 8a99 213c 5357 fb39 4cb3 143c
000001f0: 5d15 613b 0afe 9539 6f45 3dbb 512f 73bb
00000200: 98d6 0bbb 9a6b c2bb 2403 963b 30c1 24bb
00000210: 3c52 aa3a 9668 2bbb 29b4 87bb 61e0 c73a
00000220: b70b 12bc 7867 d1bb 383f 8fbc 2318 1d3b
00000230: 9204 c43c d129 ceba 3554 4c3a 604d 043c
00000240: b384 05bc 5101 16bc f605 0d39 2f61 5c3c
00000250: 2850 34bc ad7b a23a 8e31 493b 66c0 fe3a
00000260: 812c c4bc 6923 833b b95f a93a 9788 5a3c
00000270: 3d41 033c 7f5a feb9 cbe9 da3b ebab 153a
00000280: ebea 0a3c 6312 1a3c 8be3 82bc 6e36 873b
00000290: df24 36ba 2e8a 833c 350f 45bb d901 fe39
000002a0: 6c8c 8fbb ebc3 d7bb c20b 343a 547a fd38
000002b0: ee91 173b ccec fabb d723 473b 3b8e 9dbb
000002c0: 2693 103b 5a2f 57bb 1fd0 c43c 86e4 05bc
000002d0: 063b d63b 4446 b8bb 6cbc bf3b da19 13bc
000002e0: f4bd 10bc bc8f 3d3c d8e4 2ebc 11d6 103b
000002f0: 627e f33b 9687 213c fba2 c43a 60eb ff3b
00000300: be1d f8bb b73d 143c 7ddc 54bc f92a a5b6
00000310: 9940 ca3b 106d 333c 2d77 813a c979 b03a
00000320: b5be 5f3c 2f60 093d 7cf1 923b eea2 c53b
00000330: 8c31 a3bb a3af f63b 26f2 cd39 b2d0 14ba
00000340: 808c 5cbc 3bff 383c 4b72 703b e964 d338
00000350: c439 b2bb 5235 e1bb 9d5a 90bb 47d3 abba
00000360: 17a7 9bbb a9d9 c33b 40ee 22bc 78ab e53c
00000370: 4ae4 63bc 931e 543c fce3 cbba 7624 9b3b
00000380: 9405 1d3c ca18 07bc 9773 393c 20e3 9e3c
00000390: f3c7 593c 4bd1 3b3b 92d3 c139 c868 2fbb
000003a0: ea01 683c b107 7bbc 92ba 453b 28a0 e9bb
000003b0: 3f53 a8bb 64ab d7ba 4443 e5bb 870e f83c
000003c0: 79d8 233a b9af ac3c 4b94 8abb db1e db3b
000003d0: 05ac 6cbc 0cef 1f3b 4152 3e3b 02b7 2bbc
000003e0: 38a3 6fbc 2529 b3bb 5a8c 9c3a 1b50 913a
000003f0: 2b8f 203c 1670 733b 8ade 423b c161 053c

network_body._body_endoder.seq_layers.4.weight f4 [256, 256]
-0.045533024 0.020047298 -0.046587136 0.011386943 0.0062274844 0.15966785 0.014221068 0.034202904
-0.027568968 0.05151955 0.056954265 0.002315022 -0.110368416 -0.11429477 0.057062056 -0.11237967
-0.012232873 0.044648167 -0.076469555 -0.03226225 0.021003863 -0.022783065 0.096201 -0.1473281
-0.024209172 0.030981343 -0.020591471 -0.011751227 0.07609186 -0.027138332 0.057295363 -0.05258072
-0.03879849 0.05271754 -0.04021436 0.022084279 0.03728856 -0.014686552 0.119763404 0.014064393
0.033340033 0.041902713 -0.11766638 0.14219591 0.06438581 0.13200687 -0.06795695 0.031272374
-0.06599769 0.032777928 -0.057832506 0.07672496 0.06703238 -0.02150319 0.11911142 0.0103020705
0.035627056 0.018119073 -0.009683817 -0.019990796 -0.027166177 0.041299883 0.069189936 0.13051791
-0.090179875 0.10610678 -0.04293004 0.065746106 0.050031252 0.07698598 -0.033208206 -0.03341011
-0.08044358 -0.08261884 -0.12850691 -0.06843212 -0.034760486 0.011288311 -0.07289274 -0.06905232
0.05498959 0.0305249 -0.07128346 0.009822901 0.014288411 -0.051410437 0.05073639 0.060350988
0.091260985 0.047533438 0.011714403 -0.0050801937 0.08209376 0.0737067 -0.015813738 0.008933322
0.027650787 -0.06196876 0.00065668405 0.003929706 -0.10849313 -0.007264888 -0.0075641028 -0.06480284
0.0010102193 0.039016113 0.040219363 -0.17723748 -0.066401005 0.017127959 0.009593223 -0.060105566
0.10912283 -0.080674194 -0.0023530256 -0.07010361 0.0096166795 0.0543753 0.04857925 -0.036182385
-0.010272491 -0.013969193 -0.0054527344 -0.031064834 -0.06781209 0.15106119 -0.014187064 -0.10601451
-0.07338714 -0.052854914 -0.13727626 -0.0124669345 -0.002029358 0.08050936 -0.037652254 0.10375531
-0.024130471 -0.0550998 -0.09291533 -0.023291202 0.0102535635 0.0067307334 0.069672145 0.0021986372
-0.008529794 0.00033855566 -0.002770156 -0.05445267 -0.11098179 0.0048476183 0.04610383 0.12365904
0.111944504 0.014524262 0.06102487 0.022918897 0.008469563 0.022765191 0.020217372 0.0779039
0.06441402 -0.121446975 -0.039146878 -0.010356448 -0.08522325 -0.021123992 0.0019393489 0.035267055
0.027310181 -0.005912036 -0.046303373 0.0050538443 -0.050518714 0.0055194623 0.0011982949 -0.063637555
0.059704877 0.009479962 0.060693134 0.029889526 -0.019704985 0.0021941715 0.06337469 -0.0900836
0.08257412 -0.03978582 0.011235765 0.012595177 -0.07009308 0.12348655 0.07159521 0.05319946
-0.0021853233 0.045356154 0.10393022 -0.10124381 -0.107837096 -0.045455746 -0.0008142156 0.06717449
0.0020968074 -0.030087452 0.033574678 0.050136466 -0.05044877 0.08659005 0.040537957 -0.104086086
-0.11853442 -0.0057820026 -0.10234322 -0.064851664 -0.18787482 0.018587193 0.053330556 -0.10875675
0.008130818 -0.0149311805 0.020237517 0.040110864 -0.045531947 -0.0740084 0.024827044 0.07242333
0.020019146 0.007583194 0.02269042 -0.05831942 0.033278123 0.026593264 0.16246583 0.060246024
0.066447124 -0.12739642 0.030451471 -0.011362501 -0.022203272 0.02150474 0.034087073 0.03397118
0.19065192 -0.032909892 -0.044125274 -0.0061284346 -0.031234683 0.054979563 -0.030620357 -0.07014222
0.035520535 -0.013211232 0.013031159 -0.04278969 0.02322499 -0.040399507 0.027344529 0.0018594404
00000000: d680 3abd 3b3a a43c 27d2 3ebd 4d90 3a3c
00000010: ed0f cc3b f87f 233e 7bff 683c 5818 0c3d
00000020: 51d8 e1bc 2a06 533d e048 693d a0b7 173b
00000030: d608 e2bd 6013 eabd e7b9 693d 5027 e6bd
00000040: 636c 48bc ffe0 363d 129c 9cbd 6c25 04bd
00000050: 4b10 ac3c 8da3 babc 0805 c53d 2ddd 16be
00000060: 5052 c6bc 96cc fd3c 72af a8bc 3888 40bc
00000070: 0dd6 9b3d 3551 debc 8bae 6a3d e25e 57bd
00000080: 2aeb 1ebd 59ee 573d d0b7 24bd 17ea b43c
00000090: e4bb 183d dd9f 70bc 8446 f53d 576e 663c
000000a0: 8f8f 083d 2ea2 2b3d 12fb f0bd ce9b 113e
000000b0: b5dc 833d cf2c 073e 032d 8bbd 7617 003d
000000c0: cc29 87bd 2642 063d c7e1 6cbd fa21 9d3d
000000d0: 4648 893d 7527 b0bc b0f0 f33d 04ca 283c
000000e0: aded 113d 736e 943c dfa8 1ebc bdc3 a3bc
000000f0: 9a8b debc 112a 293d 74b3 8d3d 7da6 053e
00000100: 3ab0 b8bd 834e d93d 69d7 2fbd e5a5 863d
00000110: 92ed 4c3d d3aa 9d3d 5405 08bd 0ad9 08bd
00000120: 9bbf a4bd 1134 a9bd 5197 03be 2426 8cbd
00000130: 0361 0ebd 9cf2 383c ca48 95bd 4e6b 8dbd
00000140: c43c 613d 5b0f fa3c 10fd 91bd 3cf0 203c
00000150: f019 6a3c c093 52bd f6d0 4f3d 9932 773d
00000160: 0ae7 ba3d 6cb2 423d c4ed 3f3c c177 a6bb
00000170: c620 a83d 8af3 963d d08b 81bc 115d 123c
00000180: e783 e23c f4d2 7dbd 5225 2c3a c3c4 803b
00000190: a531 debd 4c0e eebb 4bdc f7bb 5ab7 84bd
000001a0: 5669 843a 5ccf 1f3d 0fbd 243d be7d 35be
000001b0: 40fd 87bd ef4f 8c3c e52c 1d3c 4131 76bd
000001c0: ca7b df3d 8338 a5bd 3835 1abb 7b92 8fbd
000001d0: 478f 1d3c a2b8 5e3d 09fb 463d fb33 14bd
000001e0: f34d 28bc 0bdf 64bc daac b2bb ae7b febc
000001f0: 11e1 8abd c9af 1a3e dc70 68bc 231e d9bd
00000200: ff4b 96bd 657e 58bd 2692 0cbe 1d42 4cbc
00000210: fafe 04bb 17e2 a43d 4039 1abd aa7d d43d
00000220: 44ad c5bc 54b0 61bd 644a bebd 31cd bebc
00000230: 90fe 273c 7c8d dc3b 45b0 8e3d 0317 103b
00000240: 8dc0 0bbc 2c80 b139 818b 35bb c309 5fbd
00000250: 6c4a e3bd c5d8 9e3b 5fd7 3c3d f340 fd3d
00000260: 2943 e53d 2cf7 6d3c 37f5 793d 69c0 bb3c
00000270: ecc3 0a3c 117e ba3c e79e a53c 148c 9f3d
00000280: 7feb 833d 31b9 f8bd 7a58 20bd 17ae 29bc
00000290: 8789 aebd 390c adbc c031 fe3a 3074 103d
000002a0: 9ab9 df3c c1b9 c1bb 9ba8 3dbd b89a a53b
000002b0: b6ec 4ebd 9bdc b43b 1b10 9d3a 6854 82bd
000002c0: 1a8d 743d d851 1b3c 5d99 783d e1da f43c
000002d0: 596c a1bc 17cc 0f3b 97ca 813d c07d b8bd
000002e0: 9f1c a93d 75f6 22bd 3716 383c 005c 4e3c
000002f0: f68c 8fbd 84e6 fc3d 82a0 923d ade7 593d
00000300: a437 0fbb 60c7 393d 5ed9 d43d ea58 cfbd
00000310: b2d9 dcbd ce2f 3abd 1571 55ba c792 893d
00000320: 976a 093b f679 f6bc 9a85 093d e55b 4d3d
00000330: 5fa3 4ebd 2056 b13d 210b 263d 162b d5bd
00000340: 2dc2 f2bd f476 bdbb 5299 d1bd f3d0 84bd
00000350: 4262 40be 2b44 983c 2471 5a3d dcbb debd
00000360: 1f37 053c e9a1 74bc 26c9 a53c 4a4b 243d
00000370: b57f 3abd b791 97bd 1662 cb3c af52 943d
00000380: 31ff a33c 717c f83b 42e1 b93c 58e0 6ebd
00000390: a44e 083d 1eda d93c 715d 263e 89c4 763d
000003a0: 6e15 883d 3574 02be 5d75 f93c c929 3abc
000003b0: a3e3 b5bc b52a b03c e39e 0b3d 5d25 0b3d
000003c0: 423a 433e 86cc 06bd b4bc 34bd 09d1 c8bb
000003d0: e1df ffbc 4032 613d 8bd7 fabc b9a6 8fbd
000003e0: fb7d 113d ec73 58bc a480 553c 3e44 2fbd
000003f0: 5642 be3c f479 25bd a201 e03c 77b8 f33a

network_body._body_endoder.seq_layers.4.bias f4 [256]
0.01622092 0.00034165935 0.017952135 -0.025364371 -0.0054015047 -0.007888522 -0.006028237 -0.008449544
0.019612748 -0.0039328723 -0.00061256817 -0.0061121956 -0.019758116 0.0031322935 0.013112236 -0.012108793
0.0036055758 0.0025814157 -0.015400912 -0.0028360367 0.0016111886 0.0030375866 0.0055142175 -0.009817502
0.0077974605 -0.0019804272 0.0082145035 0.017030586 0.0042409454 0.007351029 -0.008485373 0.015643379
-0.004108615 -0.0030013483 0.0011012632 0.015144961 0.0034443324 -0.007112034 0.03155425 -0.0067780763
-0.0034668238 -0.0034007428 -0.009138958 -0.024684966 -0.008891999 0.0039157257 -0.011633216 -0.018077735
-0.010546944 -0.0027030155 0.001093419 -0.0012001755 0.004006381 -0.0066628344 -0.011453408 -0.00020624699
-0.0015625175 -0.011096474 -0.007633854 -0.0027365414 0.020810245 0.0069191037 -0.0015417878 -0.0023718467
-0.011295507 -0.00079478323 0.012543238 0.0032774531 -0.002710727 0.007384644 -0.0007852108 -0.0024469467
0.0024150582 0.011848168 -0.001296642 0.0015731202 0.01378644 0.014785952 -0.0039734836 -0.00032771335
0.011529293 -0.0018703543 -0.0043734377 0.005815822 -0.012512812 0.0018313873 -0.010165998 -0.011717773
0.003676211 0.0023351246 -0.006394363 0.015586011 -0.0016501128 -0.0050950735 -0.0056654187 0.0024277063
0.0001299212 0.0027378486 0.0045208745 0.0010440784 0.0033253122 -0.005189389 0.013224312 -0.0063320636
-0.008853512 0.002044741 -0.02157358 -0.001997067 0.02286254 0.0029978994 -0.009486997 -0.0067944666
0.0056865397 0.013383136 -0.0031394246 0.0008195775 0.015988525 -0.00045489002 -4.146877e-05 -0.02078801
-0.00026518723 0.02308973 0.0029243228 0.019710809 0.0009294666 -0.0022223927 0.0024747986 -0.0136269275
0.00076390494 -0.011237002 0.015984144 -0.012557449 -0.016652845 -0.0027855227 -0.0067363093 -0.020095047
0.0022702112 -0.011588391 -0.0014574104 -0.005586343 -0.00087250624 0.0010327826 0.000107250315 -0.0026275541
-0.0058818874 -0.030088212 0.0030338166 0.0025308956 -0.0008012788 -0.0059381314 -0.0048100865 0.0011472356
0.0051651257 -0.007490341 -0.0057825274 0.0011139145 0.0044901343 0.0056194826 0.0018901873 0.0093617495
0.0015739123 0.0014104604 0.009217505 -0.0029036312 -0.0015057499 0.0011488744 -0.003138663 0.009285227
-0.00514023 0.014373331 -0.0070459917 -0.010311036 -0.009689637 0.01792917 -0.0017903093 0.0010823546
0.0026136418 -0.0011885096 -0.0017201818 -0.0028938684 -0.0004115707 0.012387776 -0.0018548531 -0.014896957
-0.0012516554 0.0052148835 0.008909858 -0.0037258633 -0.0069320146 0.004020686 0.0018779646 -0.0051649995
-0.003766192 -0.0071816263 0.0069085136 -0.0020595365 0.01314865 0.0075752116 0.012910133 -0.0049134884
-0.008089987 0.012275799 0.00019365872 0.0071039763 0.018515762 0.0047414773 0.021039112 -0.0011634198
-0.002007331 -0.0063422713 -0.0011494565 -0.008600123 -0.0044512884 0.004614298 0.0131269805 -0.009355425
0.0013506776 -0.0057733194 -0.0035698202 -0.0036690491 -0.009744863 0.0040183947 -0.0016545461 0.008056504
0.013596332 -0.005532351 -0.011795466 -0.0009378503 -0.0057287198 -0.005595855 0.0018242266 0.015375423
-0.015150129 0.0019366584 0.0130639225 -0.01869131 0.009814445 0.004031178 -0.010967291 -0.0087008765
0.003375365 0.006568677 0.0023263895 -0.010186663 -0.0013249113 0.0030997577 0.00019350005 0.004760431
0.0017452996 -0.008055704 -0.00066045753 0.005139829 0.0077977204 -0.012298431 -0.0071729724 0.0037442872
00000000: bce1 843c be20 b339 5b10 933c f1c8 cfbc
00000010: 1bff b0bb dc3e 01bc 8488 c5bb f56f 0abc
00000020: eaaa a03c 53df 80bb c194 20ba d048 c8bb
00000030: c6db a1bc 2a47 4d3b b4d4 563c f563 46bc
00000040: 864b 6c3b f82c 293b 1b54 7cbc cddc 39bb
00000050: 852e d33a 3f12 473b 9cb0 b43b 97d9 20bc
00000060: d781 ff3b 0eca 01bb 2096 063c ba83 8b3c
00000070: a1f7 8a3b e7e0 f03b 3c06 0bbc 8b26 803c
00000080: 90a1 86bb 45b2 44bb 4358 903a 9222 783c
00000090: 4fba 613b 110c e9bb 073f 013d a01a debb
000000a0: a733 63bb ffde 5ebb 91bb 15bc 2038 cabc
000000b0: bfaf 11bc 7d4f 803b 3f99 3ebc c217 94bc
000000c0: 17cd 2cbc 1325 31bb 0e51 8f3a 354f 9dba
000000d0: f647 833b e853 dabb 13a7 3bbc 0144 58b9
000000e0: 63cd ccba fccd 35bc 6925 fabb 8c57 33bb
000000f0: 3f7a aa3c a6b9 e23b d015 caba fc70 1bbb
00000100: ca10 39bc 0059 50ba 2782 4d3c 8aca 563b
00000110: 74a6 31bb e2fa f13b 9bd6 4dba f45c 20bb
00000120: f445 1e3b d21e 423c 16f4 a9ba 2831 ce3a
00000130: 85e0 613c c740 723c ff33 82bb f1d0 abb9
00000140: 5ce5 3c3c ad26 f5ba 0e4f 8fbb a792 be3b
00000150: 8a02 4dbc 290b f03a 498f 26bc e7fb 3fbc
00000160: 96ec 703b e408 193b ce87 d1bb 785c 7f3c
00000170: 9948 d8ba 93f4 a6bb faa4 b9bb 271a 1f3b
00000180: 753b 0839 7a6d 333b d823 943b 75d9 883a
00000190: 7bed 593b c00b aabb c9aa 583c 337d cfbb
000001a0: 520e 11bc 1001 063b 14bb b0bc 39e1 02bb
000001b0: 394a bb3c 6878 443b 596f 1bbc 1ea4 debb
000001c0: 2756 ba3b f144 5b3c cebe 4dbb ead8 563a
000001d0: 5efa 823c 4e7e eeb9 c1ee 2db8 9e4b aabc
000001e0: d408 8bb9 ac26 bd3c ffa5 3f3b 9078 a13c
000001f0: 73a7 733a 90a5 11bb 3b30 223b 7a43 5fbc
00000200: cb40 483a 671b 38bc 2ef1 823c c2bd 4dbc
00000210: 8c6b 88bc 518d 36bb 42bc dcbb 5e9e a4bc
00000220: d3c7 143b 3cdd 3dbc 9406 bfba a40d b7bb
00000230: e7b8 64ba 6f5e 873a 93eb e038 0b33 2cbb
00000240: d9bc c0bb 8e7b f6bc ffd2 463b 62dd 253b
00000250: e90c 52ba a894 c2bb ee9d 9dbb d75e 963a
00000260: 3740 a93b 8971 f5bb 5b7b bdbb c500 923a
00000270: fa21 933b a323 b83b 29c0 f73a 0662 193c
00000280: bc4b ce3a 33df b83a 0505 173c d94a 3ebb
00000290: 955c c5ba d495 963a 07b2 4dbb 1121 183c
000002a0: 606f a8bb 1f7e 6b3c 10e2 e6bb 9fef 28bc
000002b0: 49c1 1ebc 32e0 923c d0a8 eaba cbdd 8d3a
000002c0: a249 2b3b c4c7 9bba b977 e1ba 0ea7 3dbb
000002d0: 16c8 d7b9 19f6 4a3c 8b1e f3ba 5e12 74bc
000002e0: 960e a4ba 9de1 aa3b a7fa 113c 9d2d 74bb
000002f0: f425 e3bb f5bf 833b 0926 f63a 283f a9bb
00000300: 37d2 76bb d953 ebbb d060 e23b 4af9 06bb
00000310: 6f6d 573c 7b39 f83b 0685 533c 5401 a1bb
00000320: dd8b 04bc 6f20 493c de10 4b39 79c8 e83b
00000330: 5eae 973c 655e 9b3b 375a ac3c e47d 98ba
00000340: 6d8d 03bb d4d2 cfbb 5ca9 96ba 88e7 0cbc
00000350: 1ddc 91bb 8a33 973b 8c12 573c 7f47 19bc
00000360: 3809 b13a 1d2e bdbb a5f3 69bb 6e74 70bb
00000370: eba8 1fbc bdac 833b 5bdd d8ba 6dff 033c
00000380: 26c3 5e3c b948 b5bb c541 41bc 11da 75ba
00000390: fcb7 bbbb 6f5d b7bb e31a ef3a 33e9 7b3c
000003a0: 3f38 78bc 79d7 fd3a 100a 563c 851e 99bc
000003b0: c4cc 203c f917 843b 27b0 33bc 1f8e 0ebc
000003c0: 3a35 5d3b 0e3e d73b 5776 183b f6e5 26bc
000003d0: a5a8 adba 4e25 4b3b 46e6 4a39 64fd 9b3b
000003e0: 89c2 e43a 12fc 03bc 8e22 2dba 036c a83b
000003f0: 0584 ff3b 5c7f 49bc 410b ebbb b762 753b

action_model._continuous_distribution.log_sigma f4 [1, 2]
-0.11144696 -0.12858647
00000000: 4e3e e4bd 2cac 03be

action_model._continuous_distribution.mu.weight f4 [2, 256]
-0.016138392 -0.011279472 0.0378692 -0.019914947 0.010744207 -0.013940953 7.2305e-05 -0.002425923
0.020921612 -0.0030565613 0.00467638 0.0107146595 -0.0038847795 -0.010002256 0.004723679 0.0046708165
0.007321991 -0.010067399 -0.011933231 -0.05160218 -0.021224745 0.0065136165 -0.020326635 -0.00094935164
0.022950523 -0.008919222 0.008598062 -0.03126233 -0.023254842 0.019091368 0.0039483025 0.019817201
0.0020565202 -0.016203074 -0.012277892 0.022315701 -0.004681681 -0.0046916218 0.010360417 0.0015633194
-0.026468871 0.00030777717 0.0040384983 -0.031325676 -0.00012253212 -0.015461522 -0.011114196 -0.02143761
-0.0051446795 0.0071871085 0.01354493 -0.004017849 0.018257057 -0.0040864088 0.0067377784 0.0075144726
-0.026657743 -0.005811714 -0.011088845 0.0030466935 -0.0036200644 -0.012842348 -0.008207729 0.0052846386
-0.029288927 -0.0012378517 0.037706375 -0.0187882 -0.009760291 -0.024432313 -0.009912069 -0.004445247
-0.018854603 -0.025554372 -0.022591127 0.018964926 -0.02988982 -0.005746119 0.0018637747 -0.0057663186
0.04244638 0.004852329 -0.0039384332 0.004260895 -0.0006593216 -0.006307441 -0.003461578 0.0065137483
0.017284548 0.014410805 -0.0020928863 0.037055437 -0.00032439543 0.026344951 0.0058426764 -0.04672735
-0.03264571 -0.0073088333 0.0014672523 -0.006397654 -0.008896822 -0.003868188 -0.022970673 -0.0026874952
-0.002337663 0.00038790205 -0.0039879824 0.034464605 0.010978468 -0.03520185 0.0011094117 -0.0055773864
0.02047114 0.0070306505 -0.014154659 -0.026032742 0.0443783 -0.0042163488 0.006968074 -0.012893113
0.0039107413 0.014863333 0.006906003 -0.006993673 0.004558792 0.023492262 0.01058295 -0.0017224731
-0.0037771685 -0.0071407487 0.036801897 -0.0069545116 -0.0021938758 0.005320948 0.01030527 -0.016006032
-0.019329876 -0.009690934 0.011229896 -0.0010614359 0.021461934 -0.0065943347 0.026829183 -0.011574027
-0.0035568157 -0.010824789 0.023031246 0.00446546 -0.026215767 -0.024917226 0.0011259664 0.000356737
0.009379145 -0.013762616 -0.0016131817 -0.0007573776 0.0053509576 0.009985254 -0.008516985 -0.00047201707
0.0014477149 -0.00667532 -0.017299322 -0.004632107 -0.008369662 0.0010959145 -0.0020487867 0.013989805
0.01651839 0.027243901 -0.011555741 -0.011346066 0.0070965737 0.015987094 -0.0043248036 0.02071192
0.011803348 0.008803978 0.014110588 0.015255094 0.0097704185 0.0010555643 -0.009627616 0.007165549
-0.0052421493 -0.007928482 0.042307638 -0.004925372 -0.006827932 0.005751979 -0.016272672 0.014897065
0.008404417 -0.015158838 -0.0033383758 -0.001978236 0.020282965 0.0066820434 0.020363493 -0.0035403227
-0.00023222556 0.016232856 0.001719994 0.0055571 0.028379962 -0.009753084 0.016672814 -0.0016167992
-0.0130834 0.016494758 0.013967014 0.0018117173 -0.010128007 0.0045200433 -0.010225524 -0.00757026
-0.010089476 0.0046793707 -0.00035141848 -0.0001666625 -0.0033267497 -0.021593986 -0.0074450294 0.00666435
0.02983332 0.003119512 -0.001616457 -0.004887229 0.008172298 -0.028961461 -0.001781324 0.012335119
-0.017912116 -0.020620953 0.021919351 -0.012889567 -0.02319581 -0.015733944 0.0014319449 0.02584542
-0.008799352 -0.014060403 0.00829707 0.0018434726 0.009496126 0.0020338034 0.005894275 0.010009774
0.017788535 -0.013032932 0.019120414 0.008651743 0.018982053 -0.0007937723 -0.0077101653 -0.037186913
00000000: a934 84bc 89cd 38bc bc1c 1b3d ac24 a3bc
00000010: 7808 303c 9868 64bc 74a2 9738 3cfc 1ebb
00000020: cd63 ab3c 9750 48bb 523c 993b 8a8c 2f3c
00000030: c997 7ebb 81e0 23bc 17c9 9a3b a60d 993b
00000040: 50ed ef3b bbf1 24bc 9983 43bc cf5c 53bd
00000050: 84df adbc 2d70 d53b 0b84 a6bc e9dd 78ba
00000060: bc02 bc3c ee21 12bc e3de 0c3c ee0c 00bd
00000070: f080 bebc 8065 9c3c c360 813b af57 a23c
00000080: afc6 063b 4fbc 84bc 3629 49bc 6bcf b63c
00000090: c968 99bb 2dbc 99bb bdbe 293c 4be8 cc3a
000000a0: 3fd5 d8bc 275d a139 6155 843b 5a4f 00bd
000000b0: f77b 00b9 5352 7dbc 5118 36bc ed9d afbc
000000c0: b394 a8bb d681 eb3b 8eeb 5d3c 29a8 83bb
000000d0: d38f 953c 48e7 85bb 95c8 dc3b f73b f63b
000000e0: 5761 dabc 3170 bebb fdad 35bc 09ab 473b
000000f0: 9a3e 6dbb b668 52bc b679 06bc c32a ad3b
00000100: 55ef efbc 693f a2ba 0072 1a3d b6e9 99bc
00000110: a1e9 1fbc 4626 c8bc 3b66 22bc 6fa9 91bb
00000120: f874 9abc 6757 d1bc 0711 b9bc 555c 9b3c
00000130: 7fdb f4bc f149 bcbb e749 f43a 63f3 bcbb
00000140: 41dc 2d3d 4900 9f3b f90d 81bb fa9e 8b3b
00000150: 53d6 2cba a6ae cebb a4db 62bb 4871 d53b
00000160: 5398 8d3c 4c1b 6c3c ce28 09bb 71c7 173d
00000170: 9e13 aab9 5ed1 d73c ec73 bf3b 2e65 3fbd
00000180: 82b7 05bd f07e efbb d150 c03a 69a3 d1bb
00000190: fac3 11bc 6d81 7dbb fe2c bcbc b020 30bb
000001a0: 7a33 19bb 555f cb39 9fad 82bb c22a 0d3d
000001b0: 08df 333c d12f 10bd ae69 913a 82c2 b6bb
000001c0: 18b3 a73c 5f61 e63b f1e8 67bc 9e42 d5bc
000001d0: 05c6 353d 4c29 8abb 7154 e43b a33d 53bc
000001e0: ad25 803b 5685 733c c14b e23b 2e2b e5bb
000001f0: eb61 953b d872 c03c 1c64 2d3c 9bc4 e1ba
00000200: 5f8a 77bb f1fc e9bb 96bd 163d ace2 e3bb
00000210: 21c7 0fbb 595b ae3b 6fd7 283c 151f 83bc
00000220: b059 9ebc b9c6 1ebc 99fd 373c e11f 8bba
00000230: f0d0 af3c 4a15 d8bb e0c8 db3c fda0 3dbc
00000240: 7719 69bb 755a 31bc 06ac bc3c fe52 923b
00000250: 73c2 d6bc 361f ccbc 2a95 933a 6e08 bb39
00000260: fcaa 193c 987c 61bc 6571 d3ba c08a 46ba
00000270: 1657 af3b 3199 233c d38a 0bbc 0f79 f7b9
00000280: 40c1 bd3a a5bc dabb 4fb7 8dbc eec8 97bb
00000290: e820 09bc caa4 8f3a f044 06bb 7f35 653c
000002a0: 9351 873c 9a2e df3c 4a54 3dbc dae4 39bc
000002b0: 608a e83b 5ef7 823c 15b7 8dbb 0bac a93c
000002c0: d462 413c 8f3e 103c 1830 673c 80f0 793c
000002d0: 1b14 203c dc5a 8a3a 26bd 1dbc fbcc ea3b
000002e0: 56c6 abbb 77e6 01bc c64a 2d3d 0465 a1bb
000002f0: d8bc dfbb 197b bc3b 444e 85bc d212 743c
00000300: aeb2 093c c65c 78bc a7c8 5abb 4ba5 01bb
00000310: 7628 a63c 0bf5 da3b 57d1 a63c c204 68bb
00000320: 9381 73b9 c4fa 843c 6c71 e13a 5518 b63b
00000330: 187d e83c 66cb 1fbc 6d95 883c c7ea d3ba
00000340: c25b 56bc 0420 873c e7d5 643c 2577 ed3a
00000350: f1ef 25bc df1c 943b f588 27bc f20f f8bb
00000360: 544e 25bc 6855 993b 973e b8b9 20c2 2eb9
00000370: 9905 5abb dfe5 b0bc 6ff5 f3bb 9f60 da3b
00000380: 0265 f43c ba70 4c3b 4cdf d3ba 0c25 a0bb
00000390: 1ae5 053c 9640 edbc 517b e9ba 3d19 4a3c
000003a0: 6ebc 92bc 46ed a8bc 3690 b33c c32e 53bc
000003b0: 2405 bebc 79e4 80bc 19b0 bb3a c6b9 d33c
000003c0: 282b 10bc 9b5d 66bc 6ff0 073c ada0 f13a
000003d0: a495 1b3c 8f49 053b c324 c13b 0900 243c
000003e0: 43b9 913c 1488 55bc 6aa2 9c3c 0ac0 0d3c
000003f0: 4080 9b3c 2815 50ba 8ea5 fcbb 4e51 18bd

action_model._continuous_distribution.mu.bias f4 [2]
0.0010870924 0.007680162
00000000: c57c 8e3a dea9 fb3b
