results/test4/Collector/Collector-999985.onnx (onnx, 604427 bytes, 9 tensors)

network_body._body_endoder.seq_layers.0.weight f4 [256, 68]
00000000: 6e71 573e c75c 94bd afeb 563d 76f8 b0bd
00000010: af97 0b3e 44d9 ed3c 1763 e8bd b759 c23d
00000020: c0fe 23ba deb0 0bbe 75a6 153e 04a2 0f3e
00000030: 46b6 8f3b 8527 a23d 3947 ab3c bbcf 0abe
00000040: 6fc0 1dbe 9e4f 373d dbad 9fbc 67b6 9abd
00000050: 1e5f 49be b763 e13c ddfe 763e e274 2bbe
00000060: 2005 5cbe aa38 2bbe 208f 40be b05a 803e
00000070: 7253 303c 32f7 a5bd 59ac 493c 0f2b e5bd
00000080: 4113 a43e 88a5 3a3e 365e 473d 02ac 6a3d
00000090: fe44 97be d659 223e aaf8 93bc d535 213d
000000a0: ba49 28be f937 b7bd 79f6 133d 13c8 113e
000000b0: 2b3f cfbc 0cb9 693e 0757 afba d39e 233d
000000c0: eecd 7b3c 6891 3a3d 9bb4 16be 51d4 9dbd
000000d0: e67f 57be 511c 8d3e 4f0b c23d 93cf 57be
000000e0: 59f6 7b3c 706e 01be 4a4c dabd 9c8d d6bd
000000f0: b05c d8bd 59a7 d83e 9d20 6e3e 6dc3 29be
00000100: fafb 513d dec7 16be 49d7 c43d 3b48 12be
00000110: 4f7d 3d3e 4223 a53d 628b 2f3d 30d4 d6bd
00000120: dd82 a33d 760d 0cbe 561c 0ebe cae5 2a3e
00000130: 7ae2 263e eb06 84bd 3afe 80bd 1b6e 383e
00000140: ad7f 43be 8497 093d c864 263d a724 71bd
00000150: 4bed 663d e8f9 a1bc 22d8 063e 2592 4a3d
00000160: 5509 8fbe aae1 703e 971a 973c 2e7c fd3d
00000170: d13c 63bd 2f40 d0bc f902 063d 486c 2c3d
00000180: 90b6 28be 38ca 223e d3ee ce3c 9089 9a3e
00000190: afc3 43be 73a6 1e3e 7d5b 433c 6ee1 a2bb
000001a0: f476 243d 32f8 19bd a05e edbc 2b12 63bb
000001b0: 57fa d0bd 890a 343e f808 9dbd 8bd1 a93c
000001c0: 58be 0a3e 7b16 773d ec50 55be 0ce0 85bd
000001d0: 168b b2bd 84c4 5bbc 381b 32bd 5608 333e
000001e0: 0b9a 81bd 97be 03be 280a 95be effc 793c
000001f0: d898 6ebe 9aa6 2b3d 9a50 ba3d 9c42 babd
00000200: 57a6 c33d 3fbd 493e 79af ea3d b41c a6bd
00000210: 9b4a b6bb bafe f23c 9200 9dbc eca9 a5be
00000220: 752d efbd 76da b7bd 22cf dabd bf65 81bd
00000230: 4cb7 47bd bb9c e23d 9b65 093e 43f9 29be
00000240: 019b 8f3d 2926 bcbd bce0 f33d 8eb0 82be
00000250: c60c c6bd 864f f43b 1b0e 2e3d 35bb 823d
00000260: 5bb6 17bd 52cf 553c bcbb 3bbc ec0b 553d
00000270: 7fdf 9a3e 285b 1f3d f00e 06be 4293 0a3b
00000280: f4f9 843d 2935 43bd 761e cf3c 6b37 b2bd
00000290: b4ef 7abd 31f4 eb3c 6c10 0cbd 7552 38bc
000002a0: 87e1 17be 8c6e 9b3c 41b2 0abe f43f 0ebd
000002b0: 98bf 2a3b f838 e0bc 5a8c 9abd 68bb cdbb
000002c0: 0ecf 69bd 370a 3b3e 116c 3dbd b605 093e
000002d0: 6d4f 113d 6fb5 43bd 6201 28bd 1c1f 833d
000002e0: 37d7 e53a 121d 8dbd 4eec 3fbe 9d3d 54bd
000002f0: 8d83 503d 6435 273d 4fce cdbd 709e 9d3d
00000300: 0801 cf3d 0f58 6abd 90ba 853d 1049 eebd
00000310: 5c04 b5bd 799c 2f3e c804 813d 5d59 04bc
00000320: 00d0 53bc 3455 ffbd 2bbd 95bd b48e acbc
00000330: 3804 0f3e 380d 81bc 87f1 87bd 4383 1bbe
00000340: bbc3 fe3d dcb1 4f3d 9613 46be db77 a9bd
00000350: 62dc 5b3d 94b2 be3d 56a8 313e 626a 4a3c
00000360: 9c03 023e de98 cb3d 83d5 963e 60d2 3b3d
00000370: abc0 61be 8269 823c f2aa 15be 8d0e 033e
00000380: 893f 4cbe 91f4 8bbe 4658 68bd c91d ec3c
00000390: ac4c dfbd 11b9 223e c0da 18bd 5cd0 3a3d
000003a0: 6393 9e3e 3ca9 87bd 76b7 30be 64b0 d83d
000003b0: 9c85 4b3e 73c2 2d3d 912d 223d de33 153e
000003c0: 28fc b93d 87d6 813d e4dd b1bd 44d6 d0bd
000003d0: 53d5 26be 589a 0bbd 9618 f23c 5ac9 58bd
000003e0: c510 6cbc 4353 c63d 71d3 0c3b 2172 68bd
000003f0: 26fe 153c 926c 84be 4ae5 cf3d b6dd 323e
0.21039364 -0.072442584 0.05247086 -0.0864114 0.13632081 0.029034264 -0.11347025 0.09489768
-0.0006255917 -0.13641688 0.1461428 0.14026648 0.0043857424 0.07917694 0.020907985 -0.13555805
-0.15405439 0.044753663 -0.01949208 -0.07554322 -0.1966519 0.027513368 0.2412066 -0.16743806
-0.2148633 -0.16720834 -0.18804598 0.2506919 0.010762082 -0.081037894 0.012309157 -0.111898534
0.3204594 0.18227208 0.04867383 0.057292946 -0.29544824 0.15854582 -0.018062908 0.03935798
-0.16434374 -0.08946223 0.036123727 0.14236479 -0.025298676 0.22824496 -0.0013377377 0.03994639
0.015368922 0.045548826 -0.14717333 -0.07706512 -0.21044883 0.27560666 0.09474813 -0.21075277
0.015378558 -0.12639785 -0.10659082 -0.104762286 -0.10564554 0.42315176 0.23254628 -0.16578455
0.051265694 -0.14724681 0.09611375 -0.14285366 0.18504833 0.080633655 0.042857535 -0.1048969
0.079839446 -0.1367701 -0.13877997 0.1668922 0.16297331 -0.06446632 -0.0629849 0.18010752
-0.19091673 0.033591762 0.040623456 -0.058872845 0.056378644 -0.019772485 0.13168386 0.04945578
-0.27936807 0.23523584 0.018445296 0.12377201 -0.05547792 -0.02542123 0.03271768 0.042095453
-0.16475892 0.15897453 0.025260365 0.30183077 -0.19117616 0.15493183 0.011923668 -0.004970721
0.040152505 -0.037590213 -0.028975785 -0.003464828 -0.102039985 0.17582144 -0.07667726 0.0207298
0.13549173 0.060324173 -0.2083165 -0.06536874 -0.08717935 -0.013413552 -0.04348299 0.17483649
-0.063282095 -0.12865673 -0.2910931 0.015258058 -0.23300493 0.04190693 0.09097405 -0.09094736
0.09553211 0.19701098 0.1145925 -0.081109434 -0.005563093 0.029662479 -0.019165311 -0.32356203
-0.11678592 -0.08977215 -0.10684039 -0.06318235 -0.04875879 0.1106505 0.13417666 -0.16598992
0.070119865 -0.09186966 0.11908099 -0.25525326 -0.09670405 0.007455769 0.04249392 0.06383363
-0.037039142 0.013049917 -0.011458334 0.052013323 0.3024864 0.038905293 -0.13091636 0.0021144901
0.06492987 -0.04765812 0.02528308 -0.087019764 -0.061263755 0.028802963 -0.03419535 -0.011250128
-0.14832126 0.018973611 -0.13544561 -0.03472896 0.002605414 -0.027370915 -0.07546301 -0.006278444
-0.05708223 0.18265615 -0.04624564 0.13381085 0.035476137 -0.04778045 -0.041016944 0.06402418
0.0017535452 -0.0689031 -0.18742487 -0.05181657 0.050906707 0.0408224 -0.10049116 0.07696235
0.101076186 -0.057212885 0.065297246 -0.11635029 -0.08838722 0.17149533 0.0629974 -0.0080779465
-0.012928009 -0.12467423 -0.073114716 -0.02106414 0.13966453 -0.015753374 -0.066378646 -0.15186791
0.124396764 0.05070673 -0.19343409 -0.08274814 0.05367697 0.09311405 0.17349371 0.012354465
0.1269669 0.099412665 0.29459772 0.045854926 -0.22046153 0.01591945 -0.14615992 0.1279852
-0.19946112 -0.27335027 -0.05672481 0.028822796 -0.10903296 0.1589091 -0.03731799 0.045608863
0.30971822 -0.06624076 -0.17257485 0.10580519 0.19875187 0.04242177 0.039594237 0.14570567
0.09081298 0.06339746 -0.086849004 -0.10197118 -0.16292314 -0.03408274 0.02955274 -0.0529264
-0.014408295 0.0968385 0.0021488334 -0.056749467 0.009154832 -0.25864083 0.10151155 0.17467389

network_body._body_endoder.seq_layers.0.bias f4 [256]
00000000: 5590 84bb cac7 1fbc b59d c5bc b3ba 69bc
00000010: 1a72 5639 98e6 a5bb dfef ef3b 755c bf3b
00000020: 673a 41bc 6225 3dbc 160c d2bb 39c0 933b
00000030: 0539 243c 2530 27bc 04d9 a8bb b705 cbb9
00000040: a3a5 0e3d d279 663b b446 9fb9 d4cd 6bbc
00000050: 92dc 3abb c367 d73c 34ae c5bb ecda a8bb
00000060: 4e75 b8bc b7d1 e0bb 0e1b 283b c11e 32bc
00000070: 2243 f5ba 60a2 ea3a a3fd bcbc 45d3 9c3c
00000080: f65e 433b dd7e 1bba 1434 133c 92bc 40bb
00000090: ad93 3f3d fe27 453c a52b 2f3c cd95 de3b
000000a0: c1b0 68bc 75ee 5b3c c57f c3bb 0117 a63c
000000b0: cdca 5cbb ffc7 17ba 4c06 1e3d 7bb7 07bc
000000c0: f1ae 7fbb 04fc c23a 2f76 103c 8bc1 2dbc
000000d0: 6850 d23c 623c 35bc 093a 053c 2dc6 18bd
000000e0: 6f99 1cbc 3286 c63c 1f44 85bc e39b c63b
000000f0: 2b1c 90ba c36a 70bb e449 91bc 6c8c 84ba
00000100: cc6b 8c3c 066d 0fba 4e10 92ba 969b 4c3b
00000110: 193c e6bb b98b 13bc fba6 9e3c a567 8abc
00000120: 6aef 4cbb 1ffe da3c e846 813c 8e8d 17bb
00000130: fa3e 2b3b 2fb8 cebc 8f7f 30bb bf11 38bc
00000140: 52d4 acbb 9aa2 91bc b523 aabb 6209 e1b9
00000150: 237f 563c 3c82 963c b4e8 193c 8a60 203a
00000160: a886 91bb fb3d aebc 3557 b3bb 08b2 05bc
00000170: cec5 cabc bc19 7bbb d8e0 903a dce1 d939
00000180: f53d 8cbc 5348 d5ba 93d8 6c3c 3f70 f5bc
00000190: b63e ff3c b861 9e3b 559a c7bb 8679 853c
000001a0: a152 c23c 3cd0 b4bb fcdb 40bc 8580 fcbb
000001b0: 0af2 d23a fc62 d03b f53c cbbc e241 52bc
000001c0: ee8c 21bd 2af6 953b ee13 36bc 72b1 37ba
000001d0: bc30 c6bb 2235 8fbb 06cc 3a3d d3c8 23bc
000001e0: 02da 7abc 6cb7 b6bb a50e 4a3b d180 afba
000001f0: 239f 23bc 3dc0 093d 56be 4e3c 7423 26bc
00000200: 464a dbbb 6169 3e3b 4fb4 ad3b e3da c0bb
00000210: f9cc 5fbb c08a 45bc 2620 1abc e6b8 173b
00000220: 356b 723c 1509 8bbc fbe7 0ebc 18d9 173c
00000230: 29c1 603c fd2d b93c 922f 84bc a4a3 09bc
00000240: 553e 1fbc fc5c 79bb 66e3 103d fec5 29bc
00000250: c15d 63ba 8696 84bb 4d06 68bc a587 163c
00000260: 2164 22bc 899d f13c 87f4 8abc f962 fc3c
00000270: ea12 8fbc 5c87 123b be2c cebb a705 8bbc
00000280: e00d 1a3d 775f 76bc 74f4 e53b 6e38 95bc
00000290: b9bd e5bc f5b8 b8bc 70ca 8fba 52fb 96bb
000002a0: 6f40 f13c 6ce4 493c 7a57 e4bb 8e17 ce3c
000002b0: 3507 aebb 4fde 333c 03b6 9bbc 8044 b33c
000002c0: 76e8 8d3c dc8d a5bb b8a4 baba b93f a2b9
000002d0: 33ea c9bb 8ca2 8a3b 9149 e83b d0ad 28bb
000002e0: ad05 6bbc a88e 14bc 42ab 953c a4ed 43bc
000002f0: 81bf d93b 614f 21bb 868a bb3b 6b79 283a
00000300: 7c80 04ba ed94 e83c 15f4 85bc dc19 adba
00000310: cd65 d03c cdee d93c bbac 42bb 4bea 073c
00000320: 7022 07bc f1b7 17bc 83ce 48bc bea9 1a3c
00000330: 525a 913c 8716 82bb 05f9 fe3b 50b7 ae3b
00000340: 2a94 eebb 8b74 4fbc 1288 173c 3421 99bc
00000350: df2d 7c3c 1d45 a93c f9e3 8e3c 45bb 07bc
00000360: 5c0c 943a 75c2 073a 84ce 213d a310 b23c
00000370: 877b a23b 2f91 ccbb d474 03bb 98b2 bf3c
00000380: a750 493d 0b4f 87bb 6bf9 f33b 4cf6 8abb
00000390: f0f8 08bc cd2e 4c3c 3854 50bc eaac b8bb
000003a0: 925a 453c dbef 6f3b 53da fe3a 4586 9fb9
000003b0: 87c0 3abc d03f 84bc d753 03bc a1f7 e13b
000003c0: fdca 483c 353a a53b 043a 8fbc 19e5 1439
000003d0: 15e9 bd3a 7c3b 35bb b43e 303d ac19 fd3c
000003e0: e8cd 8c3c 9404 8f3b 7f26 b7bb 178b 8cbb
000003f0: 3b94 2ebc 8892 a4bc 34af ac3a 7056 e73b
-0.004045526 -0.009752223 -0.024123052 -0.014265704 0.00020451137 -0.0050628893 0.007322296 0.005839879
-0.011793709 -0.011544557 -0.006410132 0.0045089987 0.01002336 -0.01020435 -0.0051528234 -0.00038723435
0.034825932 0.0035167825 -0.0003037952 -0.014392335 -0.0028512818 0.026294595 -0.0060327295 -0.0051530506
-0.022516873 -0.0068609375 0.0025650891 -0.01087159 -0.0018712024 0.0017901175 -0.023070162 0.01914371
0.002981124 -0.0005931685 0.008984584 -0.0029409272 0.046771694 0.012033461 0.010691558 0.00679276
-0.014202298 0.013423552 -0.005966159 0.020274641 -0.0033690215 -0.00057899946 0.038580224 -0.008283491
-0.0039014185 0.0014876132 0.00881724 -0.010605226 0.025673106 -0.01106176 0.008131512 -0.03729837
-0.009558066 0.024233911 -0.016267834 0.0060610636 -0.0010994723 -0.0036684729 -0.01773543 -0.001011265
0.017141245 -0.0005471263 -0.0011143775 0.0031220666 -0.007026207 -0.00900548 0.019366732 -0.016895125
-0.0031270632 0.026732503 0.015780881 -0.0023125145 0.0026130066 -0.02523431 -0.00269315 -0.0112347
-0.005274334 -0.01777773 -0.005192245 -0.00042922335 0.013091835 0.018372647 0.00939386 0.0006117901
-0.004441101 -0.021269789 -0.0054730424 -0.008160122 -0.024752524 -0.00383149 0.0011053337 0.00041557744
-0.017119387 -0.0016272165 0.014455932 -0.02996075 0.031157833 0.0048334263 -0.006091396 0.016293298
0.023721041 -0.0055179875 -0.011771198 -0.0077057504 0.0016093862 0.006359456 -0.02480934 -0.0128330905
-0.03944104 0.004576464 -0.01111315 -0.00070073374 -0.00604829 -0.0043703476 0.04560473 -0.009996611
-0.015310766 -0.005576065 0.0030831483 -0.0013389831 -0.009986672 0.0336306 0.012618622 -0.010140289
-0.0066922037 0.002905451 0.0053010355 -0.0058854683 -0.0034149273 -0.012057006 -0.009407079 0.002315098
0.014796068 -0.016972104 -0.008722301 0.009268068 0.013717928 0.022604937 -0.016135965 -0.008400831
-0.009719451 -0.0038049808 0.035373114 -0.010362146 -0.0008673333 -0.004046264 -0.0141616585 0.009187614
-0.009911568 0.029494064 -0.016962303 0.030808913 -0.017465074 0.0022358513 -0.006291955 -0.016970469
0.03761089 -0.015037409 0.0070176665 -0.018215384 -0.028044568 -0.022549132 -0.0010970365 -0.0046075964
0.02944967 0.012322526 -0.006968436 0.025157716 -0.0053109177 0.0109782955 -0.019007688 0.02188325
0.01732276 -0.0050523113 -0.0014239764 -0.00030946525 -0.006161952 0.004230803 0.007088848 -0.0025738366
-0.014344615 -0.009067215 0.018270139 -0.011958513 0.0066451435 -0.0024613964 0.0057233004 0.0006426784
-0.0005054546 0.028391326 -0.016351739 -0.0013206559 0.025439167 0.026603127 -0.0029705006 0.008295606
-0.008247957 -0.009260164 -0.0122562675 0.009439884 0.017743263 -0.0039699706 0.0077811503 0.005331911
-0.007280846 -0.012662063 0.00924875 -0.01869259 0.015391796 0.020662839 0.01744269 -0.008284395
0.0011295187 0.00051788177 0.03950359 0.021736449 0.0049585733 -0.006242893 -0.0020058649 0.02340059
0.04914918 -0.0041292957 0.0074455044 -0.0042407867 -0.008360133 0.01246233 -0.012715392 -0.0056358473
0.012045519 0.003661147 0.0019443728 -0.00030426882 -0.011398441 -0.01614371 -0.008015594 0.0068959747
0.012255427 0.005042339 -0.017483719 0.00014199725 0.001448902 -0.0027653864 0.04302855 0.03089603
0.017188028 0.0043645594 -0.005589306 -0.0042890417 -0.010655458 -0.020089403 0.0013174773 0.0070598647

network_body._body_endoder.seq_layers.2.weight f4 [256, 256]
00000000: b980 3e3d 6125 0bbd 77c8 b2bd d6f6 013d
00000010: d0a2 5ebd 0d37 d4bd 95e5 a63c 4243 eb3d
00000020: 2da3 013e 8544 663d fc97 99bd 7cda 043e
00000030: 9819 b8bd 87e8 e13d 654f d7bd 764f b03d
00000040: 86ec 333d a096 7bbd cd31 183d ad23 3d3c
00000050: 3794 8dbd f28a 103d 8f38 093c be51 e0bc
00000060: cfd6 b0bc 4e5f aebd 56b9 99bd 4423 2c3d
00000070: 74b6 713d 501b 3fbd 805b 173d 8c2a 1c3e
00000080: 7cad a0bc 480a 1dbc 1488 3d3c 063e 253e
00000090: 4af1 4fbd db7f afbc 8048 20bd 7238 82bd
000000a0: 11bc 22bd 39dd a5bc 1851 4a3d bd6e 73bd
000000b0: 4225 05bb ae2b 2a3d c569 923c 5c88 56bd
000000c0: ee9c 3abd 93a4 543d 5c32 5ebd 9ff3 733c
000000d0: db20 053d ce12 a1bc cb6d 3a3d 436c a9bd
000000e0: 3e8e 343c d7e2 c6bd f3bf 9cbd 01a1 13bc
000000f0: a5b5 b3bd 4858 b3bc 91f6 0a3b 1285 b7bb
00000100: 3dcc 3cbd 351b a43d 456b 33bd 4ea0 9b3c
00000110: c52e a53d c8bd d73c 20f0 c1bc 0790 7fbb
00000120: 209d 793d ffc8 913c b076 3fbd 7eca f0bd
00000130: 21f1 ff3c 61cf a53c b5f7 d43c c3b0 063c
00000140: 7ba6 883b b988 0a3c eefc 3b3d 77d4 3fbd
00000150: bf81 58bd d1d5 f73b 9313 21bd ef16 cc3b
00000160: d668 fabd e468 3fbd e8f2 6d3d 9b11 27bd
00000170: 6f50 d13c 38ef 0b3b 0a58 e9bc 4672 e6bc
00000180: e5e6 bdbd e75e ef3d 9533 69bd e353 4fbd
00000190: 3cda 8b3d 6691 9ebd d812 b73b b625 213e
000001a0: 222a 793d 74f1 c53d 15b8 df3b 1119 523c
000001b0: dafd febc 55e9 71bc 93fe 0fbd 9c10 aa3c
000001c0: c0ba a43d fc84 133d 1a18 fcbc ca47 323c
000001d0: f3a3 a03d ce39 59bd c51a 88bd e688 ac3d
000001e0: fe66 36bd 9557 5bbd c2a1 43bd 5c8d 64bb
000001f0: 0b7e 2fbd cff9 30bd 0fb4 25bd 8d72 08be
00000200: 3a4e b8bc 389b a53b 0684 ee3d e718 843d
00000210: 70de bc3d 3063 10be 8020 d93c e896 c9bd
00000220: e26d 02be 25d4 57bd af37 953d f3ce 7e3c
00000230: 0b37 a1bc 0a7f ccbd 9530 34bd 56dd 393d
00000240: 7055 3fbc c615 563d 1b94 ae3c f7d2 02bb
00000250: 446d 19bd 2995 b0bc 2628 81bd c348 433d
00000260: 92aa 94bd b6c1 aa3c 3f93 ac3c 48fc 13bd
00000270: 2631 c0bd 96af f2bc a46e 6fbc 9a36 95bb
00000280: 958a 72bc 519b e5bd 8065 6cbd a9ad 15bd
00000290: 0ee4 e23c 660f c3bc 31bf 4ebc 0897 9e3c
000002a0: 7d3f 543c be58 673c ae9f 1ebe 8e03 2fbd
000002b0: fb98 89bd 2056 823d 3602 6a3d 2073 273d
000002c0: 85b0 0dbb c231 903d 869f d5bb 9dfc 47bd
000002d0: 6f08 a3bb 6d9b cb3d 36ba 57bd 0612 643c
000002e0: 5a08 363d 0f5a 033c 541b aa3b 0863 8cbb
000002f0: 36da 523b a7ff 8f3d b6ac 24bd fb5f 68bd
00000300: 96e6 ecbc 4002 e93d 929d 78bb 86de bfbd
00000310: bc37 f53a 1d51 05be cf42 8ebd 04fa 463d
00000320: 3839 08bd 47de fa3c fa1a b2bd b56a 87bc
00000330: 2236 afbc e2ce 9e3c bca2 b1bd a1b5 963c
00000340: 711b 933d 7b6b aebc db1a ffbc f5e6 6ebd
00000350: d77a a3bd fee5 653d 5073 c2ba 9e62 8dbd
00000360: 49a4 a83d db4d e2bc 6f37 e9bc 2897 a23d
00000370: 4078 893d 01c9 b43c 0826 793d 280a 983d
00000380: e1d3 b7bc e9d6 fabc b621 a5bd 11a4 23bd
00000390: 2434 5e3d 977b fabb 596d 0abd 5240 48bd
000003a0: f093 e83c 722f f13d 759a c9bd 9c5d 023d
000003b0: 2fcc 68bd 5e17 963d ddc8 2d3d 8e77 35bd
000003c0: 9282 32bb fa4e 6d3a f104 7dbd 3f39 e9bd
000003d0: ffd9 1ebd 94e6 1c3d e44b 61bb 7379 92bc
000003e0: 5c96 993b 40e3 943d 9631 d5bd 66cd 1bbd
000003f0: 15c5 8d3d 4a77 ed3c 9ffb d43b 7ab8 b5bd
0.04650948 -0.033971194 -0.08729642 0.03172954 -0.05435449 -0.103620626 0.020373145 0.11487438
0.12659903 0.05621769 -0.07499692 0.1297397 -0.089892566 0.11030679 -0.1051319 0.08608906
0.04392674 -0.061422944 0.03715687 0.01154415 -0.06913035 0.03528876 0.008375301 -0.027382728
-0.021586804 -0.08514272 -0.07506053 0.04202582 0.05901189 -0.046656907 0.036952496 0.15250605
-0.019613974 -0.009584971 0.011568088 0.16136941 -0.05076722 -0.02142327 -0.03913164 -0.06358422
-0.039730135 -0.020247089 0.049393743 -0.05943178 -0.0020316397 0.041545562 0.0178727 -0.052376136
-0.045559816 0.051914763 -0.054247245 0.014889627 0.032502037 -0.019662287 0.045514863 -0.082726024
0.011020241 -0.09711235 -0.07653799 -0.009010554 -0.0877488 -0.021892682 0.0021204094 -0.00560058
-0.046093214 0.08013002 -0.043803472 0.018997338 0.08065561 0.026335612 -0.02367407 -0.003899576
0.06094086 0.017796038 -0.04674405 -0.11757372 0.031242909 0.020240488 0.025997022 0.008220854
0.0041702366 0.008455449 0.04589551 -0.04683348 -0.05285811 0.0075633307 -0.039325308 0.00622832
-0.12227027 -0.04673089 0.05809298 -0.040788274 0.025551049 0.0021352302 -0.028484363 -0.028130662
-0.09272555 0.11688023 -0.056933958 -0.05061711 0.06828734 -0.07742576 0.005586963 0.15737042
0.060831197 0.09665194 0.006827364 0.012823359 -0.031126905 -0.014765103 -0.03515489 0.020759873
0.08043432 0.036015496 -0.030773211 0.010881374 0.07843771 -0.053033642 -0.06645731 0.08424549
-0.044531815 -0.05355032 -0.047761686 -0.0034874296 -0.042844813 -0.043206986 -0.04045492 -0.13324948
-0.022498239 0.005053904 0.11646275 0.06450062 0.09222114 -0.14100337 0.026504755 -0.09843236
-0.1273723 -0.05269255 0.072860114 0.01555227 -0.019679567 -0.09985168 -0.043991644 0.045377098
-0.011678085 0.05226686 0.021310857 -0.001996217 -0.03745772 -0.0215555 -0.06306486 0.047676813
-0.07259096 0.020844322 0.021066306 -0.036129266 -0.09384374 -0.029624742 -0.014613781 -0.004553628
-0.014803548 -0.11211265 -0.057713985 -0.03654257 0.027696636 -0.023811053 -0.012618826 0.019359127
0.01295459 0.014120279 -0.154906 -0.042728 -0.06718632 0.06364083 0.057131015 0.040881276
-0.0021620106 0.070407405 -0.006519261 -0.048824895 -0.0049753706 0.099417545 -0.05266782 0.013920313
0.04444156 0.008017077 0.005191246 -0.0042842664 0.003217352 0.07031184 -0.040203772 -0.05673216
-0.028918546 0.11377382 -0.0037935716 -0.09368615 0.0018708627 -0.13019224 -0.069463365 0.048578277
-0.033257693 0.030623568 -0.086965516 -0.016530374 -0.021388117 0.019385759 -0.08673617 0.018397154
0.071829684 -0.021291485 -0.031140735 -0.058325727 -0.07982414 0.05612754 -0.0014835391 -0.06903575
0.0823446 -0.027625015 -0.028468816 0.07938987 0.06712389 0.022068502 0.060827285 0.07423812
-0.022439899 -0.030620055 -0.080630705 -0.039951388 0.054248944 -0.0076441276 -0.03379569 -0.048889466
0.028390855 0.117766276 -0.098439135 0.031827554 -0.05683535 0.07328676 0.042427886 -0.04430347
-0.002723847 0.0009052601 -0.06177229 -0.11387872 -0.038782116 0.038305834 -0.003437751 -0.017880177
0.0046871137 0.07269907 -0.104098484 -0.03803768 0.06922356 0.028987546 0.006499722 -0.08873077

network_body._body_endoder.seq_layers.2.bias f4 [256]
00000000: 2598 c2bb 36e1 a9bb edd4 bf38 6588 90ba
00000010: d274 c3bb 9e82 223c 10a8 bab9 c648 a73b
00000020: 29f1 173c f765 82bb 107f 943b 93ae 1839
00000030: 4e6f 89b8 40dd bf3c ba1e 9f3a 2185 0d3b
00000040: d02b 5d3b d966 a6ba a793 5abb 48b6 3fba
00000050: e97e cd3c 252b 8fba d092 1bbc ebd5 093c
00000060: 90f3 de36 57c9 2abc 303a 9e3c 7fb5 15bb
00000070: c8b2 973a 14e3 acbc 7255 ee3a ef0a 7b39
00000080: 333e 933c b2cb c2bb 592e 043c 837e c63a
00000090: f526 19bc 8fa6 1abc 54f2 acbb f2dd 62ba
000000a0: 6511 323d 53a5 683c e884 563a da21 d83c
000000b0: ab64 3b3d 5eec cc3a 444f 7cbb 53b0 96bc
000000c0: 9ec3 5a3c 921b 3f3b 25bf 4e3c 6e49 a73a
000000d0: 0308 d63b 931a 133b 655a 673b a2f4 c5ba
000000e0: de61 e0ba 3c74 97b9 407f 013c 7d6b 543c
000000f0: 4ab6 d33b 0670 623c bf14 cfbb 0da9 f63c
00000100: 26ff eebb ef55 983c e50c 4fbc 3011 1dbb
00000110: 9bd0 86bb 2406 ad3b ea9d c8bb ccf8 32bc
00000120: 9dfe 14ba bb23 1a3b 8e51 a83b 0e6c 1ebc
00000130: 8e92 f73b 55f1 4a3c 5847 b2bc 7072 98bc
00000140: 8e0c cd39 f393 b4bb b0a0 62bb 28fb 133c
00000150: c293 17bc 24a0 233c 1544 20ba cc45 3439
00000160: 9f90 93ba b3c9 f0bb 39a1 bebc 4efb 8cbc
00000170: e182 06bc 2264 6b3b 7df8 d039 bcd6 a3bc
00000180: 5579 a83c 0a79 60b9 333c 4fbc 941b 0cbc
00000190: a9ed 42bc 5ac6 8b3b fb75 80bb 2c41 12bb
000001a0: 7356 f1b9 300d a6bb 4e88 e3bb ae9b c2bb
000001b0: 64d9 39bb a75f 023c b3e2 c63c b645 533b
000001c0: 9d4c bf3b 879b a1bb 024d 053b 41fe 8bbb
000001d0: ac30 9b3b 03bd bc3c fc94 e63a 3727 a9b9
000001e0: 4a9a f3ba 818c 4e3c 9482 913b 7f5b b53a
000001f0: 9d6d 053a e66b b13b bc67 ee3a 76f1 fcba
00000200: 5820 dbba f3ef f9bb 47f9 56bb 78fe 74bb
00000210: 4f79 5d3b afda 25ba 654f 96bb da03 c23c
00000220: 1941 e4bb 2b11 e3bb 891d 68bc e263 7d3b
00000230: 6226 2a3d e4c6 6ebb fcea 203b 12b6 6c3c
00000240: d5be 28bc 6bba 21bc d952 bdba 5af3 27bb
00000250: 7891 8ebc 3636 c23a 8a4b 7c3c 7ea3 1c3c
00000260: fdc0 cdbc 2393 db3b 142a d73b 156d 843c
00000270: f2f6 1c3c 067f b1ba fb35 c33b 084b 323a
00000280: 96fb ab3c 784d 423c 8613 6bbc 5682 e23b
00000290: 81d4 67b9 5733 ae3c 18c8 363a 72d3 743c
000002a0: 5dcc 143a 618f 16bc be0a 0dbb 459d 38ba
000002b0: d436 283b 1153 83bb 06cf f93b de06 51bc
000002c0: b80c b43b 73dc 143c 030b e23c c480 36bc
000002d0: 09a2 3e3c 3602 9cbb 852f 90bb 254c 27bc
000002e0: fdb3 ecbb 32c6 9b3b beea 30bc 9947 4139
000002f0: 5c75 1a3c 6d55 323c 6d89 073a f301 363c
00000300: de71 70bb c33a 3f3c 3d41 80bc 8841 38bb
00000310: e047 c73b 06e7 973c 829b 883b 198e 8d3a
00000320: f575 c93b 4855 303d 5ca3 1b3c 77fa 243b
00000330: 19f0 0dbb a49d 8c3c fa6c 213c 70e9 65ba
00000340: 343b b9bb 09b7 593c 860a 3cbc 5d14 093b
00000350: 0a97 a4bb 130f c7bb 2ee3 51ba ca2d 533a
00000360: a7ba d4ba 70b0 433c 1fc3 14bc a8e4 f63c
00000370: 90f6 14bc 5b0b d43c 0aab c33b c82d a43b
00000380: 52f4 9c3c 5899 5bbc b734 a63c 37bc e93c
00000390: 6803 743c f8ce 933b edf1 b23b 9c30 beba
000003a0: d831 8c3c 2de8 99bc 9af6 fb3b 0ea4 debb
000003b0: 9a58 713a 286b 383c 65bd 8dbb 80fe 093d
000003c0: 9dd0 223b 9b64 cb3c 2717 6bbb ed66 d33b
000003d0: 5c4e 3cbc f6a7 453b c013 b73b f39e b0bc
000003e0: d1a0 59bc 8077 afb9 0439 d4bb cda3 d0bb
000003f0: 4756 053d 44d0 d5ba 0539 7c3b 0bd4 5f3c
-0.005938547 -0.005184318 9.14725e-05 -0.0011026977 -0.005964854 0.009918837 -0.000356019 0.005105111
0.009273806 -0.0039794403 0.0045317486 0.00014560884 -6.553401e-05 0.02342093 0.0012139895 0.0021594244
0.0033748038 -0.0012695446 -0.0033352168 -0.0007313234 0.02508493 -0.0010922892 -0.009495452 0.008412818
6.64447e-06 -0.01042398 0.019314855 -0.0022843776 0.0011573667 -0.021104373 0.0018183424 0.00023941298
0.017973995 -0.0059446925 0.008067691 0.0015143905 -0.009347667 -0.009439125 -0.005277911 -0.0008654288
0.04347362 0.014199573 0.0008183257 0.02638333 0.0457503 0.0015634408 -0.0038499394 -0.018394625
0.013352303 0.002916072 0.012618815 0.0012762973 0.006531717 0.002244626 0.0035301682 -0.0015102813
-0.001711901 -0.00028887566 0.007903874 0.01296508 0.0064609395 0.013820654 -0.006319612 0.030109907
-0.0072935997 0.018595664 -0.012637352 -0.0023966543 -0.004114223 0.005280273 -0.0061223404 -0.010923576
-0.0005683692 0.0023519832 0.005136675 -0.009669317 0.0075553125 0.01238664 -0.021762535 -0.018609256
0.0003911 -0.005510801 -0.003458064 0.009032048 -0.009251537 0.009986911 -0.00061136606 0.00017192139
-0.001125831 -0.007348263 -0.023270236 -0.017209675 -0.008209915 0.0035917838 0.0003985799 -0.019999854
0.020565668 -0.00021407395 -0.01264863 -0.008551497 -0.011897483 0.0042655887 -0.0039203144 -0.0022316677
-0.00046031512 -0.00506749 -0.006943739 -0.0059389686 -0.0028358335 0.007957376 0.02427802 0.0032237596
0.0058379904 -0.0049318704 0.002034009 -0.004272253 0.0047360267 0.023039347 0.0017592008 -0.0003226341
-0.001858541 0.012606741 0.004440615 0.0013836472 0.0005089881 0.005414474 0.0018188874 -0.0019298035
-0.0016718013 -0.007627481 -0.003280239 -0.003738312 0.003379423 -0.0006326837 -0.0045871013 0.023683477
-0.006965768 -0.006929537 -0.014167198 0.003866427 0.04154051 -0.0036434466 0.0024554124 0.014447706
-0.010299404 -0.009871106 -0.0014444246 -0.0025627227 -0.01740335 0.0014817182 0.015398869 0.009560464
-0.025116438 0.0067008897 0.0065662954 0.016165296 0.009580361 -0.0013541884 0.0059573627 0.00068013417
0.020993989 0.01185929 -0.0143479165 0.00691251 -0.0002210904 0.021264715 0.00069725653 0.014942991
0.00056762045 -0.009189458 -0.0021521295 -0.0007042478 0.0025667446 -0.004007705 0.007623556 -0.012757985
0.0054946803 0.009085762 0.027593141 -0.011139099 0.011635312 -0.0047610058 -0.004400196 -0.010211025
-0.0072236047 0.0047538513 -0.010798154 0.00018432587 0.009427395 0.010884625 0.00051703193 0.011108863
-0.0036688964 0.011671725 -0.015656108 -0.0028115232 0.006081566 0.018542778 0.0041689286 0.0010799795
0.006148095 0.04305008 0.009499397 0.0025173703 -0.0021658002 0.017165013 0.009852642 -0.00087704416
-0.0056528095 0.013288268 -0.011477118 0.0020916678 -0.005022888 -0.006074795 -0.00080065697 0.00080558343
-0.0016229943 0.011943921 -0.009079724 0.030138329 -0.009091988 0.025884321 0.005971317 0.0050103404
0.01915947 -0.013403259 0.020288808 0.02853213 0.01489339 0.0045107566 0.0054609687 -0.0014510336
0.017113611 -0.018787468 0.0076893093 -0.006794459 0.0009206623 0.011256017 -0.004325556 0.033689976
0.0024843581 0.024828246 -0.0035871954 0.0064514787 -0.011493292 0.0030159927 0.005587071 -0.021560168
-0.0132829705 -0.00033467636 -0.0064765234 -0.006367183 0.032552984 -0.0016312678 0.0038486135 0.013661395

network_body._body_endoder.seq_layers.4.weight f4 [256, 256]
00000000: 264d 87bd 0208 703c ea16 4abd ad91 d4ba
00000010: 6ade 003c 4db8 203e 3e4c 453c 6874 f33c
00000020: ab18 ddbc 3ecf 4b3d 152f 1d3d bce6 88bb
00000030: 9edc fbbd 1840 e0bd 5d8e 643d 632e cfbd
00000040: 11cd 82bc d9fd 2e3d 27da 9cbd 907f 10bd
00000050: 7626 f63c d6fe c7bc ee37 c83d 09c3 1dbe
00000060: 824a c7bc 8411 d53c 3258 bbbc 1f5a a4bc
00000070: 1c4a a63d 8740 0ebd d485 583d 596a 6bbd
00000080: e9e4 2bbd 8631 3a3d 5875 32bd ab97 c33c
00000090: b919 003d 62d9 f2bc 96fc e93d 22f9 b53b
000000a0: 82b7 203d 11ef 173d f7e5 0cbe 7494 153e
000000b0: 8380 8a3d 2f43 0a3e 60e5 93bd 9742 8d3c
000000c0: 7041 9bbd 131f 113d 88be 83bd 457b 973d
000000d0: 4ad7 8e3d 72c5 97bc 1518 ef3d 8a70 843c
000000e0: 6951 da3c 05ef 9d3c 20ba e2ba f720 6dbc
000000f0: 1d1f 83bc 6e03 313d 567e 6e3d 0ee2 0f3e
00000100: 3694 d2bd fd4e d83d e1bd 2dbd c75d 5b3d
00000110: 0e7e 493d c497 9d3d 06ea 59bd a401 17bd
00000120: aecd aabd 09f4 a9bd 40bb 10be 2abf a6bd
00000130: f053 20bd 47b8 8a3c ccbd aebd eef2 acbd
00000140: 5da9 4e3d f770 e93c cee8 95bd fe56 9b3b
00000150: a7e5 6d3a de4e 6cbd 83f6 3d3d bf4a 443d
00000160: 1d95 b73d a350 343d a344 c0bb 3e92 41bc
00000170: 3398 853d 1748 983d 0134 93bc 77a3 f23b
00000180: a69f c93c 398f 9dbd 9067 113b 68b2 26ba
00000190: 9b13 e1bd bec2 07bc d689 0fbc 2884 82bd
000001a0: 310b 1abc 8772 033d 596c 253d ad73 3abe
000001b0: 68f1 88bd 1723 983c 0d0a 223c b69d 6fbd
000001c0: e32c dd3d c960 a2bd b23d 7fbb 72fe 8dbd
000001d0: ee86 053c bafa 703d 8593 4d3d 3a9b 09bd
000001e0: 5b2e 5abc 79f8 86bc 3a15 f1bb c744 2bbd
000001f0: 3478 9ebd 29de 163e 55cf 5dbc 85d6 e6bd
00000200: 6950 9cbd 3e2c 80bd c6c6 11be 2cdf a3bc
00000210: 822e debb fbf2 9f3d ffe1 31bd f1da d93d
00000220: dc0c 0abd 769e 6bbd 7a1b a3bd b3fb c8bc
00000230: 1808 733c ca0f 6c3b b9d2 903d 4b41 263b
00000240: 7a17 14bc d4c4 9cba 9799 07bc ad0b 6bbd
00000250: bcc6 debd 6b3b 163b 1725 303d ce38 023e
00000260: 7163 e73d 2237 523c bea0 6a3d fa28 cf3c
00000270: 52e2 e43b 8b9b 6f3c b2d5 793c 55a8 9a3d
00000280: 9024 913d f1bb f9bd d316 26bd 2ac4 2dbc
00000290: 3778 b2bd 7f41 bbbc 49d2 c1bb 1cf5 213d
000002a0: 59b4 d53c 3efc 08bc 2c4f 75bd b552 bc3b
000002b0: dff8 73bd 0bf7 bb3b 2c8f 6eb6 29de 9fbd
000002c0: a947 713d 894a 383c 29f1 463d 0ace fa3c
000002d0: 799a a3bc 0853 a63b b203 4e3d 00e3 c3bd
000002e0: 7625 ab3d f7aa 2fbd 1cde f03b ad6c 273c
000002f0: 1196 a6bd 18f5 003e d03b 923d 7cf9 573d
00000300: 37e0 cfbb 5334 353d c109 bf3d d156 d5bd
00000310: af34 00be 4c84 33bd 2fcd adbb c00b 823d
00000320: 939e 933b 0157 fdbc 76d1 d73c bce7 433d
00000330: ab2e 55bd ca84 b53d 974f 373d 6a9c dabd
00000340: 3be2 f2bd fcf6 28bb c638 d9bd b854 92bd
00000350: 8985 45be 47db 8d3c 7000 503d 04f9 ecbd
00000360: e68a 27bb 369a e6bc d871 a63c be70 3d3d
00000370: 0f6d 49bd c970 93bd c205 be3c 0b86 843d
00000380: 6017 013d 5c3e ddbb d84b fa3c 0601 5ebd
00000390: 5f7e 873c 0e9d 6a3c ce51 223e a67e 7a3d
000003a0: 4322 903d a429 04be 367b b63c 139d 4abc
000003b0: 4c49 99bc b084 ef3c d3bb d73c 8757 153d
000003c0: e7de 3f3e fcf3 56bc 2d7c 39bd 5567 c9bb
000003d0: c1a5 09bd ab14 653d b43d 04bd 5683 a1bd
000003e0: 2faa 2d3d 330f 20bc 83aa 98bb fd26 57bd
000003f0: fe99 2d3d f8a7 f7bc ef75 053d 06a4 de3b
-0.06606512 0.014650347 -0.04933826 -0.0016217731 0.007865528 0.15695305 0.012042103 0.029718593
-0.026989302 0.04975819 0.03837498 -0.0041778963 -0.12297939 -0.10949725 0.05579983 -0.101162694
-0.015966924 0.042722557 -0.07658797 -0.035277903 0.030047636 -0.024413507 0.09776293 -0.15406431
-0.02432752 0.026009329 -0.022869203 -0.020062504 0.08119604 -0.034729507 0.052862003 -0.057474468
-0.041966353 0.045457385 -0.04356894 0.023876032 0.03127453 -0.029644672 0.1142513 0.0055533806
0.039237507 0.037093226 -0.137596 0.14607412 0.06762793 0.13502191 -0.07221484 0.017243667
-0.075808406 0.035430025 -0.06432825 0.07396559 0.06974657 -0.018526766 0.11674515 0.016166944
0.026650148 0.019279012 -0.0017297901 -0.014473191 -0.016006047 0.04321616 0.058225952 0.14051077
-0.10282175 0.10561941 -0.04241741 0.05355623 0.04919248 0.076949626 -0.053201698 -0.0368668
-0.083400115 -0.08298499 -0.1413393 -0.081419304 -0.03914255 0.016933573 -0.08532295 -0.08444773
0.050454486 0.028496249 -0.073197946 0.004740595 0.00090750534 -0.0576924 0.04637767 0.047922846
0.08963988 0.044022214 -0.005867557 -0.011814652 0.0652317 0.07435625 -0.017969133 0.0074047404
0.02461226 -0.07693333 0.0022186972 -0.0006358982 -0.109900676 -0.008286176 -0.00876089 -0.06372863
-0.009402082 0.032091644 0.04038653 -0.1820819 -0.066866696 0.01857142 0.009890092 -0.058500014
0.10799577 -0.079286166 -0.0038946685 -0.06933297 0.0081498455 0.05883286 0.050189514 -0.0335953
-0.013316716 -0.016475903 -0.0073572667 -0.041813638 -0.07737771 0.14733185 -0.013538201 -0.11271385
-0.076325245 -0.062584385 -0.14235982 -0.020003878 -0.0067804465 0.07810017 -0.043428417 0.10637463
-0.03370367 -0.057524167 -0.07964225 -0.024534082 0.014833473 0.0036020153 0.07071442 0.0025368507
-0.0090388 -0.0011960515 -0.008276365 -0.05738418 -0.10877749 0.00229236 0.04300412 0.12716982
0.11298264 0.0128305275 0.057282202 0.025288094 0.0069849873 0.014624487 0.015248703 0.07551638
0.07087052 -0.1219405 -0.04054911 -0.010605851 -0.087143354 -0.02285838 -0.0059149605 0.039540395
0.026086973 -0.0083609205 -0.059889957 0.005747164 -0.059563514 0.005736237 -3.55481e-06 -0.078060456
0.05890623 0.011248239 0.048569832 0.030615825 -0.01997112 0.005075816 0.050296493 -0.09564781
0.083567545 -0.042887654 0.0073506963 0.010218781 -0.08134092 0.12593496 0.071403146 0.05272816
-0.006343867 0.044239353 0.09328032 -0.104169495 -0.12520097 -0.04382734 -0.005304001 0.063498974
0.0045049875 -0.030925276 0.026344996 0.04782842 -0.05204646 0.08863218 0.044753637 -0.10674365
-0.11859556 -0.002578198 -0.10606532 -0.07145065 -0.19289221 0.017316474 0.050781667 -0.115709335
-0.0025564968 -0.028149705 0.020317957 0.046250097 -0.049176272 -0.071992464 0.023196105 0.06470879
0.031516433 -0.0067518186 0.030553743 -0.054200195 0.01653975 0.014319671 0.15851519 0.061155938
0.07037785 -0.1290651 0.022275548 -0.012366551 -0.018711708 0.029238075 0.026334679 0.036460426
0.18737374 -0.013119694 -0.04528444 -0.0061463513 -0.03360534 0.055927914 -0.032285407 -0.078863785
0.042398628 -0.009769249 -0.0046589985 -0.052527416 0.042383187 -0.03023146 0.032583173 0.0067944555

network_body._body_endoder.seq_layers.4.bias f4 [256]
00000000: 56ac bd3c c2b3 923a 5325 793c c4a8 0abd
00000010: 8521 79bb 9458 6dbc 1ab7 34bc d7fb 25bc
00000020: 28e9 c03c 2896 65ba 00ec 1fba 5eb5 26bc
00000030: 660d c0bc 435d 1b3c 005d 8f3c 4fde 8abc
00000040: 8dd9 b03b 987d 263c 3f57 c9bc e1b4 73bb
00000050: 8454 613b f360 a93c f382 023c 87f0 43bc
00000060: 1ab5 533c 7521 97bb a45c 253c aa91 993c
00000070: 31f5 e33b e470 953b 4103 36bc c0ee 743c
00000080: 4fc0 84bb 603d 3cbc b3f8 943a 2407 d43c
00000090: de59 d63b 0f0a 9fbc b236 193d 44eb 07bc
000000a0: 3b29 4abb f822 f338 f82d 4abc 3acb 07bd
000000b0: 88f8 dfbb ad08 ea3b ed57 2fbc 0c6a fabc
000000c0: fe1a 51bc bc60 7ebc bdd8 d83a 40bf 0fbc
000000d0: b77e a63b 77fa 073a eb04 85bc 530a 9d3a
000000e0: bf99 a1ba 7b34 b0bc fdbd e2bb d506 58bc
000000f0: f2d6 ff3c 5b16 323c 0f1e 9d3a 5a2e 75ba
00000100: 80b8 c9bc 0104 53bc c596 9d3c 017a c03b
00000110: 4075 34ba 4d61 433c ec6c 593b 40e4 28b9
00000120: c062 ab3b 6a20 393c 4a25 2bba 80d5 ef3a
00000130: d975 9a3c f8dc 053d 434a 73bb 6269 9c39
00000140: 4765 403c bffe 57bc 3af1 85bb 22c0 073c
00000150: b3a4 e2bb 793a 1e3c 8bda 31bc d267 a8bc
00000160: 104c ff3b cf59 263b 69fa bcbb 5441 9f3c
00000170: 59d7 23bb a88c 1abc 6f13 68bc 6af5 f73b
00000180: 996f 3d3a 70ca c83b 5582 a93c 4975 913b
00000190: 2ec3 1a3c bf91 86bb 0c62 7d3c b462 15bc
000001a0: 9b81 28bc fd23 953b aa05 febc 93d4 85ba
000001b0: 4c16 053d 2018 e7ba 4070 3abc 326e 93bb
000001c0: e2ba 183c bb6a a33c 2f8d 15bb 8519 0e3b
000001d0: 55c5 af3c 10fc 1339 9019 09bc 75ab 89bc
000001e0: 3b29 54ba e607 d13c c0c7 e83b 6d34 eb3c
000001f0: 3f15 c9bb af10 f239 d6d2 633b 0716 69bc
00000200: dcd2 573b 19a9 92bc 2bb4 993c 5b76 8cbc
00000210: 6408 b5bc 908e a5bb 2c7a 4fbc 3157 d0bc
00000220: e047 953b 8a28 64bc dea9 f7bb f394 d3bb
00000230: 0627 673a 7d57 613b 40d5 993a 1436 163a
00000240: 0b9c aabb 6c90 1abd 32ae 773b 06ce 873b
00000250: ab84 503a 8812 08bc ca13 1ebc 252c 023c
00000260: 5aa8 d63b d399 4ebc 7a4b a9bb b37f 413b
00000270: 7c3f 8cb9 79cc ff3b b054 7c3b d2e1 733c
00000280: b7d1 493b 43a1 af3b 926b 033c 17ef a9bb
00000290: 014d 49bb c520 f63a 8641 403a 1827 f53b
000002a0: 2842 2fbc c072 7e3c 0bdd eebb c665 60bc
000002b0: 55f4 77bc cdc1 b23c 240d 833b 6bf8 c83a
000002c0: 3af3 563b dff5 8f38 cb72 27bb a2a1 14bb
000002d0: 7d67 6d3a dcaf 7a3c 4e6f 09bc 16f3 7fbc
000002e0: 5ada ba39 f8ea ff3b f26c 923b 7849 16b9
000002f0: 32de d2bb d0d0 0d3c 3160 153b eeb1 94bb
00000300: 793a 93bb b8cb cabb 21ac c43c e620 ce3a
00000310: 2bda 603c 1aab 6fbb 47af 993c bf96 e6bb
00000320: d9a5 8abc de4d 673c 24c7 873a bdbc e13b
00000330: f1e7 683c 65ac f43b 6c30 893c 8f40 413a
00000340: 5a1b 2cbb 38a2 19bc b23d d3b9 969e 3bbc
00000350: d435 4fbb 4694 853b fd96 bd3b 5ae2 25bc
00000360: 93f3 633b de54 66bc 8443 59bc 0563 11bc
00000370: 6c05 2fbc 0561 d53b 790f e43a 4928 353c
00000380: 9169 8f3c 9787 6abb 50e9 1ebc 71eb ce39
00000390: 4257 e1bb 2316 36bc 09d0 0a3b 0096 063c
000003a0: e37d b2bc 7ce2 4e3b bdb8 473c 8796 dbbc
000003b0: 4141 d13b 9fe1 b13b 84eb 73bc f192 1cbc
000003c0: 1e9b f43b 33bc 233c 5ed1 5a3b e07d 1abc
000003d0: 265f 27bb b2d1 ed3b d606 523a cc17 d53b
000003e0: acd9 573b 9b52 a3bc e1b2 77ba 6ff6 e33b
000003f0: 8e22 6a3c cda5 8bbc 3a81 f7bb 561e 0dbc
0.023153465 0.0011192488 0.015206653 -0.033852354 -0.0038014364 -0.014486451 -0.011029983 -0.010130844
0.023548678 -0.0008758032 -0.00061005354 -0.010175077 -0.023443889 0.009482685 0.0175004 -0.016951708
0.005397028 0.01016178 -0.024577735 -0.003718667 0.003438265 0.020676112 0.007965791 -0.011959202
0.012921596 -0.0046121427 0.010092888 0.018746216 0.0069567193 0.0045605768 -0.011109174 0.014949501
-0.0040512453 -0.011489242 0.0011365622 0.025882311 0.0065414747 -0.019413976 0.037405677 -0.008295838
-0.003084733 0.000115936564 -0.012340061 -0.033152796 -0.006835047 0.0071421475 -0.0107021155 -0.030568145
-0.012762783 -0.015525993 0.0016544085 -0.008773625 0.0050810236 0.00051871635 -0.016237697 0.0011981226
-0.0012329145 -0.0215094 -0.006919621 -0.013185223 0.031230424 0.010869588 0.0011987108 -0.0009352915
-0.02462411 -0.012879373 0.019236932 0.005873919 -0.00068839267 0.011925054 0.0033176495 -0.00016106758
0.005230278 0.011299232 -0.0006528689 0.0018297881 0.018855022 0.032681435 -0.003712312 0.00029833155
0.011742896 -0.013183295 -0.0040875943 0.008285554 -0.0069166063 0.009657496 -0.010855327 -0.020557318
0.00779105 0.002538312 -0.005767156 0.01944033 -0.0025000183 -0.009432949 -0.01416479 0.0075670974
0.0007226407 0.006127648 0.02069203 0.0044390303 0.0094459485 -0.0041067298 0.015465271 -0.009117771
-0.010284807 0.0045514093 -0.03100856 -0.0010210447 0.032491967 -0.0017631091 -0.011379302 -0.0044992203
0.0093219 0.019948354 -0.0022819748 0.0021682691 0.0214564 0.00014112913 -0.008367911 -0.01680539
-0.0008093302 0.025516462 0.00710389 0.028711522 -0.006136566 0.00046170267 0.003476312 -0.014226443
0.0032932078 -0.017902898 0.018762669 -0.01714628 -0.022098728 -0.005052395 -0.012663405 -0.025432201
0.0045556873 -0.013925681 -0.0075580915 -0.006456965 0.00088177656 0.0034384422 0.0011736527 0.0005730104
-0.00520659 -0.037735388 0.0037793037 0.004144433 0.00079543394 -0.008305199 -0.009648273 0.007945095
0.006550831 -0.012609917 -0.005166468 0.0029525578 -0.0002675018 0.0078063575 0.0038502626 0.014885383
0.0030795166 0.0053598 0.008021252 -0.0051859724 -0.0030716064 0.0018778077 0.00073339825 0.007481467
-0.010696925 0.015530288 -0.007289534 -0.01369614 -0.015133937 0.021820927 0.003999369 0.0015332823
0.0032798783 6.8645684e-05 -0.00255506 -0.0022679348 0.00090562535 0.015300717 -0.0083883535 -0.015621921
0.0003563937 0.007809993 0.0044685537 -0.00014332484 -0.006435179 0.008655742 0.002279293 -0.0045378124
-0.0044930545 -0.006188836 0.024007859 0.0015726357 0.01372389 -0.003657049 0.018760337 -0.0070370133
-0.016924785 0.014117686 0.0010359031 0.0068889544 0.014215455 0.00746684 0.016746722 0.00073719857
-0.002626142 -0.009377055 -0.00040291023 -0.011451384 -0.0031617777 0.0040765135 0.0057858215 -0.010124767
0.0034782633 -0.01405832 -0.013260726 -0.008873706 -0.010682445 0.00651181 0.0017399631 0.011056968
0.017506393 -0.0035786384 -0.009699181 0.000394668 -0.006876857 -0.011113676 0.0021181128 0.008214474
-0.021788543 0.00315681 0.012190041 -0.026805175 0.0063859527 0.0054285075 -0.014887694 -0.009556518
0.0074647805 0.009993601 0.0033388953 -0.009429425 -0.002553889 0.0072576636 0.0008011883 0.006503081
0.003293614 -0.01993685 -0.0009448957 0.0069568674 0.014290465 -0.017046833 -0.007553247 -0.00861319

action_model._continuous_distribution.log_sigma f4 [1, 2]
00000000: 45f6 02be a346 26be
-0.12789257 -0.16237883

action_model._continuous_distribution.mu.weight f4 [2, 256]
00000000: 8423 3abc 53b2 4fbc 613b 2e3d 6d67 93bc
00000010: 2d32 5c3c f5ed f2bb 49bf 2c3b a108 7fbb
00000020: 7871 af3c d7e2 dcbb 878f 2c3c 331d 453c
00000030: f59f 56ba 1319 49bc cbc3 083b 1ef5 273b
00000040: e9ef fd3b d8ea 29bc f953 9fbb 130a 69bd
00000050: d233 b5bc 4426 af3b be62 03bd 7c44 1eba
00000060: a114 f33c b91b 86bb 994d 103c 234d 13bd
00000070: e768 c5bc 785c cc3c 0af2 cb3b f8a7 cc3c
00000080: f8f4 a13a 4a8b f4bb 92ba 89bc 7550 b53c
00000090: 26a5 acbb 55ee 433a 10f0 8d3b d23a d53a
000000a0: eb72 e7bc 9b18 e53b 454c ac3b 64d5 e9bc
000000b0: e4c9 72ba 9134 94bc 008e 0ebc 8eae 68bc
000000c0: 2faa 5dba 32a8 483c c0e6 623c dc59 e2ba
000000d0: 5075 a13c a366 b33b 9255 5b3c 0f92 db3b
000000e0: 39c7 e3bc 0354 2abb a8f0 11bc 56c5 373c
000000f0: 33be fa3a bcd8 b5bc 3239 08bc b424 0c3c
00000100: 4632 d5bc 381c e33b bf16 273d 8c44 9fbc
00000110: 9415 1fbc ef05 09bd d9be 92bc 1348 aebb
00000120: 2dee a2bc 6903 f9bc 3ab3 c5bc b6d3 bd3c
00000130: f16a 03bd ba7a 19bc 9670 b83a 63b2 fdbb
00000140: 67cc 413d 85c1 363c cac4 61bb 64f7 a03b
00000150: 64dd b639 8a01 33bc 8116 06bb ba8f 613c
00000160: a8b8 ab3c 93b6 ae3c 4812 16bb 9a20 173d
00000170: 7373 873a f526 0c3d 8e14 4c3c 5c01 68bd
00000180: 19fc 0fbd 6960 00bc 0eeb 513b 3871 afbb
00000190: b225 51bc 7faa 84bb 78e9 e4bc 5645 a53b
000001a0: cecc 56bb e4a0 043a d3a5 95bb 7422 193d
000001b0: c4c6 e53b 5812 0ebd 8b12 a2b9 d255 73bb
000001c0: 7e1e f23c 786f dd3b 8265 87bc d7e6 dabc
000001d0: 58a1 3e3d 326b a8bb ef13 443c 531c 17bc
000001e0: eabd 803b 33e8 cd3c db8a fc3b 756e dfb9
000001f0: 296a 2f3c 4fe6 e93c 8b4d 4d3c 9695 65bb
00000200: f1bd 62bb 48a6 2bba b31d 1e3d 19ba bcbb
00000210: 37bc fc3b 1dd3 d03b 0ec0 4d3c e115 33bc
00000220: 0bc7 a8bc 9cef b9bb 8d04 7f3c 36b1 58bb
00000230: e3a2 bb3c c7af 07bc d5d5 f43c 3b79 20bc
00000240: a5c0 95bb 02a3 9cbb 52b7 da3c 7acc 9c3b
00000250: 5199 e4bc 7dc5 c0bc 2923 2e3b 38f2 43bb
00000260: db96 823c 499a f5bb 7af4 36bb 5810 89ba
00000270: af14 0e3c 663f 8e3c bb54 d7bb 2482 b2ba
00000280: 7214 913a c1d3 0dbc fcf0 85bc fc8e a7bb
00000290: 0011 83bb eb01 d83a 97f7 efba ad8e a03c
000002a0: ba92 953c 8aac e93c 6812 58bc c918 1dbc
000002b0: 077d fc3b d856 7b3c bbec c4bb b19b bc3c
000002c0: 790f 5e3c c9d3 2c3c d0d8 783c 73c6 973c
000002d0: afcb 593c 3271 83bb d5f9 f9ba ec75 0c3c
000002e0: 98fa 94bb ebb8 4dbc da48 463d 05a4 cbbb
000002f0: 948a 0dbc 74bb 1f3c 0d97 9bbc 13e2 883c
00000300: 55ec 073c bf81 72bc bc4d 34bb 678c 83ba
00000310: da5e d93c 17ea 463c fa82 cd3c b27b 30bb
00000320: e4ab 6d3a 175d b03c d9da f93a a391 173c
00000330: ea7f 133d 3499 0abc 1f1f aa3c 8a17 27bb
00000340: f4e6 49bc f8b2 b33c e0bd 893c 4e30 973a
00000350: 7da8 26bc b51c d63b 9108 36bb c948 bbbb
00000360: 699b 2fbc 0379 033c bdfa 853b 5fe6 d73a
00000370: f7d2 b9bb 2787 b4bc 14b6 d4bb 1819 153c
00000380: fd10 0d3d 2865 e73a e7db 483b e574 f9bb
00000390: a5a4 443c 3c2f dcbc c9ab 7fba 1f7f a03c
000003a0: b0d8 83bc e886 b6bc 229f e53c 4b8b 04bc
000003b0: bf04 a7bc 7182 9ebc a884 cc3b 0d9c e33c
000003c0: fb21 5bbc a7a0 89bc 2347 083c 914a 4d3b
000003d0: f639 2d3c e60d 3f3b daa8 aa3b f271 4f3c
000003e0: 2fe2 a83c 3eaf 20bc 1c2f 9e3c 500d 0d3c
000003f0: f5c0 b53c b6c0 a63a 773f 02bc cb49 07bd
-0.011361007 -0.012676793 0.042537097 -0.017993653 0.013439697 -0.0074136206 0.0026359132 -0.0038915055
0.02141641 -0.0067409086 0.010532266 0.012030887 -0.00081872876 -0.012274045 0.0020868655 0.002562828
0.007749547 -0.0103709325 -0.0048623052 -0.056894373 -0.022119436 0.005345138 -0.03207659 -0.00060374266
0.029672923 -0.0040926603 0.008807563 -0.035962235 -0.024097873 0.024946436 0.0062239217 0.024982437
0.0012356332 -0.0074628936 -0.016812596 0.022133091 -0.0052687107 0.0007474174 0.004331596 0.001626814
-0.02825304 0.0069914586 0.0052581155 -0.028544135 -0.00092616514 -0.018091472 -0.008700848 -0.014201773
-0.000845584 0.012247132 0.01384896 -0.0017269212 0.01970926 0.0054748817 0.013387101 0.006700761
-0.027804958 -0.0025990016 -0.008907475 0.011216482 0.001913017 -0.022198074 -0.008314418 0.008553673
-0.026024949 0.006930854 0.040793177 -0.019441865 -0.0097097345 -0.033452924 -0.017913269 -0.0053186505
-0.019888962 -0.030397134 -0.024133313 0.02317224 -0.03208441 -0.009367639 0.0014071639 -0.0077422126
0.047314074 0.011154537 -0.003444957 0.0049123038 0.00034878694 -0.01092566 -0.002046019 0.013767177
0.020962074 0.021327293 -0.002289908 0.036896326 0.0010334089 0.03421684 0.0124560725 -0.05664192
-0.03515253 -0.007835486 0.0032030973 -0.005354073 -0.012765335 -0.004048645 -0.027943358 0.005043666
-0.0032775882 0.0005059375 -0.004566887 0.037386373 0.00701222 -0.034685463 -0.00030912863 -0.003713001
0.029555555 0.006757673 -0.016527895 -0.026721401 0.04654059 -0.005139732 0.011967643 -0.009223062
0.0039288895 0.025135135 0.0077069825 -0.0004261617 0.010706463 0.028552203 0.012530695 -0.0035031787
-0.0034598077 -0.000654791 0.038602542 -0.0057594893 0.0077128666 0.006372823 0.012557996 -0.010930509
-0.020602724 -0.0056743156 0.01556505 -0.003306461 0.022904819 -0.008281655 0.02988712 -0.009794529
-0.004570084 -0.0047801742 0.026698742 0.0047851177 -0.027905138 -0.02353167 0.002657125 -0.0029899012
0.015941074 -0.007495199 -0.0027916715 -0.0010457141 0.008671924 0.017364215 -0.00657138 -0.0013619107
0.0011068715 -0.008656443 -0.016350262 -0.0051134806 -0.0039998293 0.0016480064 -0.001830804 0.019599283
0.018258441 0.028524656 -0.013187982 -0.009588429 0.007705334 0.015340529 -0.006009666 0.023023458
0.013553494 0.01054854 0.015188411 0.018527245 0.013293191 -0.0040112967 -0.0019071648 0.008573037
-0.0045464747 -0.012556295 0.04840932 -0.006214621 -0.008638997 0.009749282 -0.018992925 0.016709363
0.008296092 -0.014801442 -0.0027512154 -0.001003635 0.026534487 0.012140772 0.025086869 -0.0026929197
0.0009066446 0.021528764 0.0019062414 0.009251031 0.03601066 -0.008459378 0.020766793 -0.0025496208
-0.01232313 0.021935925 0.016814172 0.0011534782 -0.010172007 0.006534184 -0.0027776102 -0.005715464
-0.010718205 0.008024457 0.004088728 0.0016471854 -0.005670901 -0.022037102 -0.006491432 0.009100221
0.03444003 0.0017654048 0.003064865 -0.007612812 0.012002145 -0.026877992 -0.0009753076 0.019591866
-0.016094536 -0.022281125 0.028029982 -0.008089851 -0.020388005 -0.019349309 0.0062414 0.027784372
-0.013374801 -0.016800238 0.008317742 0.0031324963 0.010572901 0.0029152571 0.005208117 0.012661444
0.020615665 -0.009807406 0.019309573 0.008609131 0.022186736 0.0012722227 -0.0079497015 -0.03302936

action_model._continuous_distribution.mu.bias f4 [2]
00000000: d8f2 c939 3b37 363c
0.0003851864 0.011121566
