results/test1/Collector/Collector-50038.onnx (onnx, 307813 bytes, 13 tensors)

network_body._body_endoder.seq_layers.0.weight f4 [128, 68]
0	0x3e20acbb	0.15690891
1	0xbef62a4e	-0.4807915
2	0x3e7ee3fb	0.24891655
3	0xbe1a571e	-0.15072295
4	0x3cc68c70	0.024236888
5	0xbe39bd7b	-0.18138687
6	0xbe4ad306	-0.19807062
7	0xbe6066db	-0.21914236
8	0xbe42ce45	-0.19023998
9	0xbd15065f	-0.03638303
10	0xbc9563bb	-0.018236032
11	0x3d9daed8	0.076993644
12	0xbd028e50	-0.031874
13	0x3dd14025	0.10217313
14	0x3b710501	0.0036776664
15	0x3d7ec769	0.06220189
16	0xbe8ea5ce	-0.27860874
17	0x3d263482	0.04057742
18	0xbdd2fa1e	-0.10301612
19	0x3e628639	0.22121514
20	0x3c7c1a5d	0.015387145
21	0x3e049a49	0.1294948
22	0x3ce3e478	0.027818903
23	0x3e5a6a33	0.21329574
24	0xbc79c642	-0.015245022
25	0xbdcddb05	-0.1005154
26	0xbe0caa2f	-0.13736795
27	0x3e0e2351	0.1388066
28	0x3cfee679	0.031115757
29	0x3e884e3f	0.26622197
30	0xbdd5f10a	-0.10446365
31	0xbe800873	-0.25006446
32	0xbdd8f913	-0.10594382
33	0x3e85afed	0.26110783
34	0x3b017fed	0.0019760088
35	0x3e1480be	0.14502236
36	0xbc9d01d3	-0.019165909
37	0x3d202247	0.03909519
38	0x3e207b92	0.15672138
39	0xbc3c23c3	-0.011483136
40	0x3d8fbbbb	0.070182286
41	0xbd094086	-0.0335088
42	0xbd600b52	-0.054698296
43	0x3d9736d0	0.073835015
44	0xbd45f2e9	-0.04832736
45	0x3cafb2c2	0.021447543
46	0xbd72fb9e	-0.059321992
47	0x3d8e4b78	0.06947988
48	0x3dd269e6	0.10274105
49	0x3eb93db7	0.36179897
50	0xbea72472	-0.32644993
51	0xbe166a17	-0.14688908
52	0xbd7ed74a	-0.062217034
53	0x3e63c77d	0.22244067
54	0x3ce6c2e6	0.028169107
55	0xbe3c4bac	-0.18388242
56	0xbe3ca3cd	-0.1842186
57	0x3d44c49f	0.048039075
58	0xbe920610	-0.2852025
59	0x3cafa19b	0.021439364
60	0x3e80949a	0.25113374
61	0xbddb491e	-0.10707305
62	0x3e06a4b8	0.13148773
63	0xbd90ad47	-0.070643
64	0xbe0a4fdc	-0.13507026
65	0xbdba867c	-0.09107682
66	0xbe131756	-0.1436437
67	0x3d7ddc41	0.06197763
68	0x3e64251d	0.22279783
69	0x3ceb8177	0.028748257
70	0x3df81b06	0.12114529
71	0x3be4b3ee	0.006979457
72	0xbdb633ab	-0.08896574
73	0xbd0d5bd2	-0.034511395
74	0x3c15694a	0.009119341
75	0x3df434c5	0.119241275
76	0x3e4dc354	0.20094043
77	0xbd823b5c	-0.06358978
78	0x3d4431fd	0.047899235
79	0xbd8e2087	-0.06939798
80	0x3baa1a25	0.005191105
81	0xbd92a7ac	-0.07160887
82	0xbcfb3e8a	-0.03066947
83	0x3dc3a076	0.0955209
84	0xbc3bf027	-0.011470831
85	0x3d28f839	0.04125235
86	0x3dcff1c6	0.101535365
87	0x3d83aab8	0.064290464
88	0x3dcd533d	0.10025642
89	0xbe13e26e	-0.14441845
90	0xbe585430	-0.21125865
91	0xbe2ffb8e	-0.17185804
92	0x3e98e8fb	0.2986525
93	0x3e2c4570	0.16823363
94	0xbe300b86	-0.17191896
95	0xbda85ed4	-0.08221212
96	0x3bb6cc27	0.005578536
97	0xba9291ab	-0.0011182328
98	0x3dceef05	0.10104183
99	0xbe5612e0	-0.20905638
100	0xbe5518f1	-0.20810296
101	0xbd5ef7e5	-0.05443563
102	0xbe0aa57d	-0.13539691
103	0xbea32437	-0.31863567
104	0xbdb34a23	-0.08754375
105	0x3e8d95ea	0.27653438
106	0x3d1884d1	0.03723604
107	0xbe11f23a	-0.14252558
108	0x3daf27e6	0.08552532
109	0x3ded3f38	0.11584324
110	0xbe22196a	-0.15830007
111	0x3d3cfb44	0.046138063
112	0xbd9f8432	-0.07788886
113	0xbe07a95a	-0.13248196
114	0xbea4592b	-0.3209928
115	0xbd3e03b1	-0.04639024
116	0x3c1341b9	0.0089878375
117	0x3d8c2504	0.06842998
118	0x3d8959dc	0.067065924
119	0x3d90f012	0.0707704
120	0xbe35f757	-0.17770134
121	0xbdfe0d66	-0.12404899
122	0x38a51d33	7.873252e-05
123	0x3d3f45c2	0.046697386
124	0xbd468770	-0.048469007
125	0x3d89ee09	0.06734855
126	0xbd6349ac	-0.05549018
127	0xbdfbe04a	-0.12298639
128	0x3d9ba38f	0.07599556
129	0x3da59730	0.08085477
130	0x3df6e0c3	0.12054589
131	0x3df043fa	0.117317155
132	0x3e72e145	0.23718746
133	0x3aac0395	0.0013123626
134	0x3de7e7d4	0.113235146
135	0x3e8158f3	0.25263175
136	0x3e745e71	0.23864152
137	0xbe1de851	-0.15420653
138	0xbdf39f9e	-0.11895679
139	0xbd7e9b80	-0.062160015
140	0xbe7fe15d	-0.24988313
141	0x3cd85a19	0.02641015
142	0xbcf4cf5a	-0.02988403
143	0xbdcbf820	-0.099594355
144	0xbe418780	-0.18899345
145	0x3cbdfc2b	0.023191532
146	0xbdaff3ed	-0.08591447
147	0x3db799e0	0.08964896
148	0xbc852e76	-0.016257506
149	0x3e4ac709	0.19802488
150	0x3e23f8cb	0.16012876
151	0xbe467657	-0.1938108
152	0xbd095fec	-0.033538744
153	0xbe039ea2	-0.12853482
154	0xbd9f125d	-0.077671744
155	0x3d9a4259	0.07532186
156	0xbccb546b	-0.024820527
157	0xbda8175e	-0.08207582
158	0xbe2e4459	-0.1701826
159	0xbd542748	-0.051795274
160	0x3cc4e64f	0.024035601
161	0xbe48fc83	-0.19627576
162	0x3e2b0f32	0.16705015
163	0x3d7d059b	0.061772924
164	0xbc092f48	-0.008373089
165	0xbd04f67c	-0.03246163
166	0x3da34f66	0.079741284
167	0xbd654271	-0.055971567
168	0x3d8980c5	0.06714014
169	0xbcc5c3f5	-0.024141291
170	0xbe13ef9a	-0.1444687
171	0xbe6e36a2	-0.23263028
172	0x3e3aaef9	0.1823081
173	0x3e96db70	0.29464293
174	0x3e1a01aa	0.15039697
175	0xbc47fc05	-0.012206082
176	0x3ea26a79	0.31721857
177	0x3e218593	0.15773611
178	0xbdbe3a56	-0.092884704
179	0xbd9dd4a7	-0.07706576
180	0xbe1ec06a	-0.15503088
181	0xbe7fd526	-0.24983653
182	0xbda95a3f	-0.08269166
183	0xbdbb5301	-0.09146691
184	0xbc3da158	-0.011574112
185	0xbe44cf34	-0.19219667
186	0x3dc06ad0	0.09395373
187	0xbd024561	-0.031804446
188	0xbd2dc760	-0.042426467
189	0x3e034133	0.1281784
190	0x3d64acb6	0.055828772
191	0xbd9c19a5	-0.07622079
192	0xbe71cbb8	-0.23612869
193	0x3e3f91c7	0.18707953
194	0xba5155af	-0.0007985485
195	0xbe7ffa14	-0.24997741
196	0x3c4f36f8	0.012647383
197	0xbd818575	-0.06324283
198	0xbda7ce1b	-0.081936084
199	0xbd73e6c1	-0.059546236
200	0xbd89d0b6	-0.067292616
201	0x3dee6ea8	0.116422
202	0xbcd47d58	-0.025938675
203	0x3d9c7314	0.07639137
204	0xbd650f93	-0.055923056
205	0xbc45b9d9	-0.012068235
206	0x3d9aa490	0.07550919
207	0x3d107c84	0.035274997
208	0x3dc538ec	0.096299976
209	0xbddd8563	-0.10816457
210	0x3d7c0199	0.06152496
211	0x3d64077b	0.055671196
212	0x3e5c4968	0.21512377
213	0x3ccd646f	0.025072305
214	0xbd9ceb04	-0.07662013
215	0xbd05334f	-0.032519635
216	0x3db14d7e	0.086573586
217	0x3bfee911	0.0077792485
218	0x3e178538	0.14796913
219	0x3dcec8d1	0.100968964
220	0xbd0fdc62	-0.035122283
221	0xbe562d2e	-0.20915672
222	0xbda86fb4	-0.08224431
223	0x3e2be326	0.16785869
224	0xbe30741e	-0.17231795
225	0xbbaea3da	-0.005329591
226	0xbd81083f	-0.06300401
227	0xbe10d178	-0.14142406
228	0xbde427f6	-0.111404344
229	0xbc925311	-0.017861875
230	0x3e0d663c	0.1380853
231	0x3de2669f	0.1105473
232	0xbc29a5d6	-0.01035448
233	0x3d3b008b	0.045654815
234	0x3e5576c1	0.20846082
235	0xbc9915b0	-0.0186871
236	0x3db140c0	0.08654928
237	0xbe2b338e	-0.16718885
238	0x3cc6f15a	0.024285007
239	0xbe691eea	-0.22765699
240	0xbdb063ee	-0.0861281
241	0xbd88f9b7	-0.06688254
242	0x3ae25cff	0.0017270147
243	0x3dc473cb	0.09592398
244	0x3d461445	0.048359174
245	0x3e04be12	0.12963131
246	0xbd90a753	-0.070631646
247	0x3e00f6f5	0.12594207
248	0x3e47b888	0.19503987
249	0xbca73067	-0.020408822
250	0xbe0bc5cb	-0.13649671
251	0x3e2735ea	0.1632916
252	0xbd8c484a	-0.068497255
253	0x3de33646	0.11094336
254	0xbdb2fe8f	-0.087399594
255	0x3ccd29e6	0.025044393

network_body._body_endoder.seq_layers.0.bias f4 [128]
0	0x3cae9cf0	0.021315068
1	0x3ceac1b6	0.028656822
2	0x3bdbba31	0.0067055454
3	0xbb555682	-0.0032552783
4	0x3cd2a4b9	0.025713312
5	0x3bdb9260	0.006700799
6	0x3b23740a	0.002494099
7	0x3d0baba0	0.03409922
8	0xbd2682ab	-0.04065196
9	0xba91a730	-0.0011112448
10	0x3b6f0034	0.0036468627
11	0x3cc406ff	0.023929117
12	0x39f3f071	0.00046527715
13	0xbb3dfd73	-0.0028990179
14	0x3bdb7434	0.006697202
15	0xbb7168bb	-0.0036836106
16	0x3cfe3f3e	0.031036016
17	0xbb7f896a	-0.0038991817
18	0x3c751add	0.014960018
19	0xbbd3c686	-0.006462875
20	0xbc50eec1	-0.012752236
21	0xbbe2138e	-0.0068993038
22	0xbc16f225	-0.009213005
23	0x3b285ee6	0.002569133
24	0xbb1c5d36	-0.002385927
25	0xbd126c83	-0.035748016
26	0xbcc7d4b1	-0.024393411
27	0xbcc4dbd0	-0.024030596
28	0xbbac479c	-0.00525756
29	0x3bcf02da	0.0063174786
30	0xbbf230bc	-0.0073910635
31	0x3c3f32cb	0.011669825
32	0x3d46451a	0.048405744
33	0x3cbbda41	0.02293122
34	0xbc191cae	-0.009345217
35	0x3d2a3c05	0.041561145
36	0x3c9381b5	0.018006185
37	0x3c7a9d01	0.015296222
38	0xbc465b45	-0.012106721
39	0x3c795007	0.015216834
40	0xbc45c319	-0.012070441
41	0xbb9fa06d	-0.004871419
42	0x3b26f95d	0.0025478222
43	0xbca93e2c	-0.020659529
44	0xbd4e77f5	-0.05040737
45	0x3cc08be0	0.023504198
46	0xbc571fb4	-0.013130117
47	0x3b7f83a8	0.0038988385
48	0x3c42b425	0.01188377
49	0x3c2d8bdb	0.010592426
50	0x3d518c4a	0.05115918
51	0x39af85b1	0.0003347821
52	0xbd141e7f	-0.036161896
53	0x3bd3d6be	0.0064648082
54	0x3bb3f28d	0.005491561
55	0xbc7836e6	-0.015149808
56	0x3cb3ac18	0.021932647
57	0xbc212b32	-0.009836959
58	0x3c189315	0.009312411
59	0x3a1edd5e	0.0006060208
60	0x3cb3de6e	0.021956649
61	0x3c1e7c10	0.0096731335
62	0x3ccab982	0.02474666
63	0x3c485b86	0.012228852
64	0x3be8aefa	0.007100937
65	0x3cc4fd8f	0.024046687
66	0x3c7286ef	0.0148026785
67	0x3c9465cd	0.018114949
68	0x3ac1948c	0.0014769002
69	0x3caccd68	0.02109404
70	0xbb7b10cf	-0.003830958
71	0x3d00e8b8	0.031471938
72	0xb980832d	-0.00024511796
73	0xbcaecbe9	-0.021337466
74	0x3c99ee84	0.01879049
75	0xbbba0422	-0.005676762
76	0xbc76b16c	-0.015056949
77	0xbb0f86b5	-0.002190036
78	0xbc22bcd4	-0.009932715
79	0x3cfab970	0.030606002
80	0xbc97da62	-0.01853675
81	0xbcbc9736	-0.023021322
82	0x3bda0454	0.006653348
83	0xbca0ed7d	-0.019644493
84	0x3bbb502b	0.005716344
85	0x3ca2d569	0.019877153
86	0x3d41327c	0.047167286
87	0x3cf420aa	0.029800732
88	0xbc1e42d1	-0.009659485
89	0x3c5a043e	0.0133066755
90	0xbcbf2f9a	-0.023338128
91	0xbcda6bb2	-0.026662681
92	0xbb932c5c	-0.004491372
93	0xbc026b82	-0.007960202
94	0xbbafeecc	-0.005369043
95	0xbc3d376d	-0.011548859
96	0xbbb4ab7e	-0.0055136075
97	0xbc148711	-0.0090654055
98	0x3bf6fd26	0.007537502
99	0x3c2523de	0.010079352
100	0x3c8f7c07	0.017515196
101	0xbaf03455	-0.0018326143
102	0x3bf61355	0.007509629
103	0xbcf15fd0	-0.029464632
104	0xbba07b3e	-0.004897504
105	0xbc15c57b	-0.009141321
106	0xbc2c85e5	-0.01052997
107	0x3b786e2c	0.0037907464
108	0x3d55663e	0.05209946
109	0xbcb22969	-0.021748262
110	0xbc7c3e02	-0.015395643
111	0xba1c56ae	-0.0005963844
112	0x3ce191bf	0.027535317
113	0xbca699ae	-0.020336952
114	0x3c96cdcc	0.018408678
115	0xbab56542	-0.0013839381
116	0x3ba43345	0.0050109946
117	0xbc87d663	-0.01658172
118	0xbaf47bd9	-0.0018652632
119	0xbb8f760c	-0.004378086
120	0x3c73037f	0.0148323765
121	0x3c52f9d7	0.012876949
122	0xbc28de6a	-0.010306934
123	0x3c702866	0.014658069
124	0x3a721c97	0.00092358276
125	0xbc4a1292	-0.012333529
126	0x3c933de3	0.017973846
127	0x3cbd65e1	0.023119869

network_body._body_endoder.seq_layers.2.weight f4 [128, 128]
0	0x3dc152e9	0.09439642
1	0xbc54a84f	-0.012979581
2	0xbc6701c7	-0.014099545
3	0x3c9f5630	0.019450277
4	0x3ab39a1d	0.0013702546
5	0xbddd8fe6	-0.10818462
6	0x3d05b4fa	0.032643296
7	0x3d95dd97	0.073176555
8	0xbc4aa2b7	-0.012367896
9	0x3ca29051	0.019844206
10	0x3c588e35	0.013217499
11	0x3d6264e5	0.055272
12	0xbd13bc4a	-0.03606824
13	0xbd6928a9	-0.056923542
14	0xbe884a73	-0.266193
15	0xbe1871bc	-0.14887136
16	0x3c8209de	0.015873846
17	0x3d409d40	0.047024965
18	0xbe85aee1	-0.26109985
19	0xbe1a4ed4	-0.15069133
20	0x3e2b1ff0	0.16711402
21	0x3acbb387	0.0015541174
22	0x3d39a34b	0.045321744
23	0x3d6f7cec	0.058468744
24	0xbd7db8f9	-0.06194398
25	0x3dc6e6d1	0.097119935
26	0x3c36a5d6	0.011147937
27	0x3d8c1028	0.06839019
28	0xbca953a2	-0.020669762
29	0x3e211cd8	0.1573366
30	0x3dd713df	0.10501837
31	0xbda49b97	-0.08037489
32	0xbc44256d	-0.011971814
33	0x3dd8f23c	0.105930775
34	0x3db6d898	0.08928031
35	0xbd8e30eb	-0.06942924
36	0x3d89d1cd	0.067294694
37	0xbdcfbc5f	-0.10143351
38	0xbbc693cf	-0.0060601006
39	0x3e1038c1	0.1408415
40	0x3defe44e	0.117134675
41	0xbd92203f	-0.07135057
42	0x3c2bca15	0.010485192
43	0x3def8af6	0.116964266
44	0xbd13c3c8	-0.036075383
45	0x3c9c681d	0.019092614
46	0xbd875e9b	-0.066098414
47	0x3d4cfc00	0.050045013
48	0xbc4e8706	-0.012605434
49	0xbdc827e9	-0.09773237
50	0x3d8319d8	0.06401414
51	0x3d92301b	0.07138082
52	0xbbee7252	-0.0072768116
53	0xbd87ffa6	-0.06640558
54	0xbd9416f9	-0.07230944
55	0xbd18d362	-0.037310965
56	0x3ddfb938	0.109239995
57	0xbd26b773	-0.040702295
58	0x3d714c44	0.058910623
59	0xbcfe8619	-0.031069802
60	0xbe71c60b	-0.23610704
61	0x3d3a1f3d	0.045439947
62	0xbd51c54b	-0.051213544
63	0x3dcb5531	0.09928358
64	0xbd57c4e8	-0.05267802
65	0xbd5d3e34	-0.0540144
66	0x3e25619c	0.16150516
67	0xbd9420bb	-0.07232805
68	0xbd9ce930	-0.076616645
69	0xbdbf9726	-0.09355001
70	0xbd936b21	-0.071981676
71	0x3d1916af	0.03737515
72	0x3c04bc83	0.008101585
73	0x3db08664	0.08619383
74	0x3d3ef9be	0.04662489
75	0x3e139589	0.14412512
76	0xbdce2eb0	-0.10067499
77	0x3d6edeb3	0.05831785
78	0x3ca96bd7	0.020681305
79	0xbdcbe25e	-0.099552855
80	0x3d17b7bc	0.037040457
81	0xbd054012	-0.032531805
82	0x3c8d927f	0.017281769
83	0xbe1f5b93	-0.15562277
84	0xbd4188f8	-0.047249764
85	0xbe05cf9d	-0.1306748
86	0xbd061cd6	-0.032742344
87	0x3cc82ce4	0.024435468
88	0x3d9ad41e	0.075599894
89	0x3a9e8246	0.0012093268
90	0xbafb90e6	-0.0019192963
91	0x3d97c3b3	0.074103735
92	0xbe1559e1	-0.14585067
93	0x3dfc990d	0.123338796
94	0xbda35696	-0.07975499
95	0xbcab6cf5	-0.020925978
96	0xbd2c5215	-0.042070467
97	0x3c9c64d4	0.019091047
98	0xbe62fa26	-0.22165737
99	0x3b8cdad4	0.0042985473
100	0x3dea5dc4	0.114436656
101	0x3da8c678	0.0824098
102	0x3cd38a34	0.025822736
103	0xbdabcb2b	-0.083883606
104	0x3d9c226c	0.07623753
105	0xb9934fb8	-0.0002809742
106	0x3d51287b	0.051063996
107	0x3d496205	0.049165744
108	0xbdde7fa8	-0.10864192
109	0xbd93179a	-0.07182236
110	0xbd857d40	-0.0651803
111	0x3d90d09f	0.07071041
112	0x3d2195f9	0.039449666
113	0x3da4c556	0.08045451
114	0xbe514645	-0.20436962
115	0x3d7ca95c	0.06168495
116	0x3a54608d	0.00081015454
117	0x3c83a33d	0.016069049
118	0x3c2192b2	0.009861635
119	0x3e84e5e7	0.25956652
120	0xbe5759ac	-0.21030301
121	0x3d50433f	0.05084538
122	0xbd76a13f	-0.06021237
123	0xbdd0ebae	-0.10201202
124	0x3d6a9d42	0.05727888
125	0x3b96a083	0.004596771
126	0x3cf45255	0.029824415
127	0xbd19e229	-0.0375692
128	0xbd8f7602	-0.0700493
129	0xbd94d01a	-0.07266255
130	0x3e32265e	0.17397448
131	0xbd2a442f	-0.04156893
132	0x3e0ef0cb	0.13959043
133	0x3c99b82e	0.018764582
134	0x3d1addb3	0.037809085
135	0xbda5a30d	-0.0808774
136	0x3dd3562d	0.10319171
137	0xbe1fb15f	-0.15595005
138	0xbd1b036b	-0.037845057
139	0xbcc86415	-0.024461785
140	0x3daa0329	0.08301384
141	0x3d1e885e	0.03870427
142	0xbd530c96	-0.051525675
143	0xbdc2c6de	-0.09510587
144	0x3cd9215c	0.026505165
145	0x3d79fb91	0.061030928
146	0xbca98bce	-0.020696547
147	0x3e4244b7	0.18971525
148	0x3cbc15aa	0.022959549
149	0x3d910508	0.07081038
150	0x3dd66c58	0.10469884
151	0xbd7b3623	-0.061330926
152	0xbd73425b	-0.059389453
153	0x3d30ebe5	0.043193717
154	0x3cea328c	0.028588556
155	0x3d914dfa	0.07094951
156	0x3da9d127	0.08291846
157	0xbca15c95	-0.019697467
158	0x3c8dbc65	0.017301748
159	0xbcea3410	-0.028589278
160	0x3dd21307	0.102575354
161	0x3e490f66	0.1963478
162	0x3c139712	0.009008186
163	0xbd076019	-0.03305063
164	0xbdd7fa45	-0.10545782
165	0xbd32d03c	-0.04365562
166	0x3db3d7df	0.087814085
167	0xbd87a07a	-0.06622405
168	0x3db831bb	0.0899386
169	0x3dbb2cb7	0.09139388
170	0xbae190ff	-0.001720935
171	0xbdb10f1a	-0.086454585
172	0xbdfeb31b	-0.124365054
173	0x3d678b56	0.056529365
174	0xbe0380b9	-0.12842073
175	0xbcfe4d06	-0.031042587
176	0x3d700bc0	0.058604956
177	0xbe1aff11	-0.15136363
178	0x3df80d5c	0.12111923
179	0x3daaf525	0.08347539
180	0x3d8aaebf	0.067716114
181	0xbda1953b	-0.078897916
182	0xbd4067ad	-0.046973873
183	0x3d7e19d7	0.06203636
184	0xbe1fc0c5	-0.1560088
185	0x3e0879bf	0.13327692
186	0x3e20c9ea	0.15702024
187	0xbbdc4ff7	-0.0067233997
188	0xbdb7b249	-0.08969552
189	0xbd87a206	-0.066227004
190	0xbda4b2a1	-0.08041883
191	0x3ccf022f	0.025269596
192	0x3dfa3972	0.12217988
193	0xbdb46dc9	-0.08810002
194	0xbdbe91a5	-0.09305123
195	0xbd6d4b1c	-0.057932958
196	0x3dedc156	0.116091415
197	0xbd97b159	-0.07406873
198	0x3e1dbd54	0.15404254
199	0x3d2e6077	0.042572465
200	0x3d3dcf6c	0.04634039
201	0x3d8c6ba8	0.06856471
202	0x3d880933	0.066423796
203	0xbda4c46b	-0.08045276
204	0x3cbaa3f3	0.022783255
205	0x3d85d1f9	0.0653419
206	0x3d40432d	0.046939064
207	0xbc4abce0	-0.012374133
208	0xbd9aaa66	-0.07552032
209	0xbc2f83d6	-0.0107125845
210	0x3e1aae98	0.15105665
211	0xbdd7a59f	-0.105296366
212	0x3db4da8a	0.088307455
213	0xbcd1827a	-0.025574911
214	0xbbccdaa6	-0.006251651
215	0xbb9f9f14	-0.0048712585
216	0x3d44ea31	0.048074905
217	0x3dacaa93	0.08430972
218	0xbd1e9582	-0.0387168
219	0x3cc6e629	0.02427967
220	0x3e0343a9	0.12818779
221	0x3d07293c	0.03299831
222	0xbda11f59	-0.07867307
223	0xbd10f694	-0.035391405
224	0xbb0d0052	-0.0021515083
225	0x3d590773	0.05298562
226	0x3c87d9f8	0.016583428
227	0xbcd49681	-0.025950672
228	0xbcc24c5a	-0.023718048
229	0xbcf5830a	-0.02996971
230	0xbe006305	-0.12537773
231	0x3c0a7f30	0.008453175
232	0x3cf29cdd	0.029615814
233	0xbd9e10a8	-0.07718021
234	0x3e3f5560	0.18684912
235	0xbdda11bf	-0.10647916
236	0x3db8e081	0.09027196
237	0x3d8d620a	0.06903465
238	0x3d914b99	0.07094497
239	0xbde22b59	-0.11043424
240	0x3c4b9ae8	0.012427069
241	0x3b8c93c2	0.004290075
242	0xbe1f8e3f	-0.15581606
243	0xbbe700e0	-0.007049665
244	0xbdd8cea0	-0.105862856
245	0xbcb867a7	-0.022510363
246	0x3cab2a32	0.020894144
247	0x3d71e09f	0.059052106
248	0x3dd3beec	0.1033915
249	0x3baaa250	0.0052073374
250	0x3d935625	0.07194165
251	0x3daa5912	0.0831777
252	0x3d2ddc3d	0.042446364
253	0x3e1c28a9	0.15249886
254	0x3d27b75e	0.040946357
255	0x3cb27d67	0.021788312

network_body._body_endoder.seq_layers.2.bias f4 [128]
0	0xbbec3ac5	-0.0072091543
1	0xbccb007f	-0.02478051
2	0xbc3e5032	-0.0116158
3	0xbc5b626b	-0.013390164
4	0xbc37d251	-0.011219577
5	0x3c47bbb9	0.012190753
6	0x3c28027e	0.0102545
7	0xbcee862f	-0.029116718
8	0x3d632d11	0.0554629
9	0x3c8db3e0	0.017297685
10	0xbb6dee0d	-0.003630522
11	0xbb1abb01	-0.0023609998
12	0x3cb72463	0.022356218
13	0xbc930b04	-0.017949589
14	0xbca42208	-0.020035759
15	0xbbc4b9ef	-0.0060036103
16	0xbbcddd91	-0.0062825163
17	0x3c8ebb0f	0.01742318
18	0xbc4eb231	-0.012615726
19	0x3c1a7797	0.0094279265
20	0xbc404d52	-0.011737185
21	0x3ca4848d	0.020082736
22	0x3cd3930b	0.025826951
23	0x3b018993	0.0019765839
24	0xbc0e537a	-0.008686895
25	0xbc22b721	-0.009931357
26	0x3c48db06	0.0122592505
27	0x3c901c54	0.017591633
28	0x3cb51ae2	0.022107545
29	0x3b905266	0.004404354
30	0x3cd5fa8d	0.026120448
31	0xbc1ef14d	-0.009701085
32	0x38b8d4b9	8.8134264e-05
33	0x3ca875f4	0.020564057
34	0x3c152177	0.009102217
35	0x3c56e3b3	0.013115811
36	0xbc1ebb89	-0.009688267
37	0xbd0310b5	-0.031998355
38	0xbcaa304b	-0.020774981
39	0xbcfc5fae	-0.030807342
40	0xbc9aed46	-0.018911969
41	0xbbd22c13	-0.0064139455
42	0x389b1629	7.3951036e-05
43	0xbb8c9f4b	-0.00429145
44	0x3b34b496	0.0027573458
45	0xbca8b8aa	-0.020595867
46	0xbbe84590	-0.0070883706
47	0xbd0ff149	-0.035142217
48	0xbc7b1ef7	-0.015327207
49	0xbc61d809	-0.013784417
50	0x3c1ace09	0.009448537
51	0xbb997db5	-0.004684175
52	0x3caea9f3	0.021321272
53	0xbc0f83ea	-0.008759478
54	0xbc4d027b	-0.012512798
55	0x3b22cf7e	0.0024842913
56	0x3c6e3ac4	0.014540378
57	0xbca42268	-0.020035937
58	0xbc5147bc	-0.01277345
59	0x3ac25834	0.0014827312
60	0x3bae9580	0.0053278804
61	0x3c9f0518	0.019411609
62	0xbbad99e6	-0.005297887
63	0x3c7c1eef	0.0153882345
64	0x3c1b8b1a	0.009493614
65	0xbcc40774	-0.023929335
66	0xbc0f8e91	-0.008762018
67	0x3c406bdf	0.0117444685
68	0xbbb670cb	-0.005567645
69	0xbcb151a8	-0.021645382
70	0x3c18a5cb	0.009316872
71	0x3c3a824a	0.011383602
72	0xbc85e8c8	-0.01634635
73	0xbc8abcbc	-0.016935699
74	0xbc76b1e8	-0.015057065
75	0xbc83f1c9	-0.016106503
76	0xbc47801c	-0.01217654
77	0xbc1ee196	-0.009697339
78	0x3cb8da90	0.022565156
79	0xbc9bde3e	-0.019026872
80	0x3cb21630	0.021739095
81	0x3c997681	0.018733265
82	0x3bc4b702	0.0060032615
83	0x3cef81c3	0.02923668
84	0x3cd9e501	0.026598455
85	0x3cbac75b	0.022800138
86	0xbbe1cabb	-0.0068906224
87	0x3c1eed18	0.009700082
88	0xbc8da5cc	-0.017290972
89	0x3b99d301	0.004694343
90	0xbc8c7348	-0.017144814
91	0x3b5c1f17	0.0033587867
92	0x3c9d6a8a	0.01921584
93	0x3c37ffcb	0.011230419
94	0xbc68f74e	-0.014219118
95	0x3ca0f8fe	0.019649979
96	0x3c4e8b3e	0.01260644
97	0x3c11c026	0.008895909
98	0xbb5b10eb	-0.0033426832
99	0x3bda2d78	0.0066582523
100	0x3c216154	0.009849865
101	0x3b9e53eb	0.004831781
102	0xbb9ea415	-0.0048413374
103	0x3c7fbe80	0.015609384
104	0x3b222dd8	0.0024746563
105	0x3c9793ce	0.018503096
106	0x3b8e9c95	0.004352162
107	0x3d2549b4	0.040353492
108	0xbc5bf898	-0.013425969
109	0x3cef023c	0.02917587
110	0xbba8e003	-0.0051536574
111	0x3c90aa51	0.017659338
112	0xbc51353d	-0.012769041
113	0x3c0528d3	0.008127409
114	0x3cbb98f7	0.022900088
115	0x3caff053	0.0214769
116	0xbbef4570	-0.0073019788
117	0xbc414e63	-0.011798474
118	0x3ba282ee	0.0049594557
119	0xbc892e20	-0.016745627
120	0xbc5cbd71	-0.013472901
121	0xb9fd6b92	-0.00048336067
122	0x3cd9e516	0.026598494
123	0x3c150292	0.009094851
124	0xbbf448b8	-0.007454958
125	0x3c2c1b2f	0.010504528
126	0x3cb89f97	0.022537036
127	0x3cd42f2c	0.0259014

network_body._body_endoder.seq_layers.4.weight f4 [128, 128]
0	0x3e8da3ca	0.27664024
1	0x3d2a2f8e	0.041549258
2	0xbcac7f5c	-0.021056823
3	0x3e5a14a1	0.21296932
4	0x3d8a29b8	0.067462385
5	0x3d906508	0.0705052
6	0x3d83d81e	0.064377055
7	0x3c8e42f3	0.017365908
8	0xbe040699	-0.12893142
9	0xbdab59ce	-0.08366738
10	0xbdb01d2c	-0.08599314
11	0xbd3a1976	-0.045434438
12	0x3e1d8412	0.15382412
13	0xbe538602	-0.20656589
14	0x3c9cf43d	0.01915943
15	0xbd888cdd	-0.066674925
16	0x3daa477d	0.083144166
17	0x3c94cbcd	0.018163586
18	0xbe228f43	-0.15874963
19	0x3ab0e591	0.001349615
20	0xbe43d2d8	-0.191234
21	0x3d09bf95	0.033629972
22	0xbe14c47d	-0.1452808
23	0x3cff8204	0.031189926
24	0x3d9d057e	0.07667063
25	0xbb2559e7	-0.0025230588
26	0x3c31a327	0.010842121
27	0xbe358ca7	-0.17729436
28	0x3cb60807	0.022220625
29	0xbe02006e	-0.12695476
30	0x3ccb024a	0.024781365
31	0x3c1fb65a	0.009748066
32	0x3e0c6641	0.13710882
33	0xbca36692	-0.01994637
34	0xbe24ecac	-0.16105908
35	0x3d6fc1e2	0.05853451
36	0xbd073925	-0.03301348
37	0x3d9aff99	0.07568283
38	0xbd3cda25	-0.046106476
39	0x3c2a27b2	0.010385441
40	0x3d41f6c9	0.047354493
41	0x3e0268d1	0.12735297
42	0x3e013463	0.1261764
43	0xbe1952d7	-0.14973007
44	0xbe07d0b2	-0.13263205
45	0x3dc2ca7a	0.095112756
46	0x3d8e2608	0.06940848
47	0x3da0e5a0	0.078562975
48	0xbc35e5fe	-0.011102198
49	0xbe3b06ab	-0.18264262
50	0x3e4ade3f	0.19811343
51	0xbcc7683c	-0.024341695
52	0xbcfe097d	-0.031010384
53	0x3ddb0553	0.10694375
54	0x3ce12b3f	0.027486442
55	0x3d43e784	0.047828212
56	0xbcf645c0	-0.030062556
57	0x3b709a90	0.003671322
58	0x3ac988ef	0.0015375892
59	0x3a8437ef	0.001008747
60	0x3c848b93	0.016179835
61	0xbb175705	-0.002309264
62	0xbe3ae37b	-0.1825084
63	0xbcb0825a	-0.021546531
64	0xbd98122f	-0.07425343
65	0x3e2b0256	0.1670011
66	0xbd9803f0	-0.07422626
67	0xbe50f529	-0.20406021
68	0x3ba1183e	0.00491622
69	0x3d17905d	0.03700291
70	0x3e113cd2	0.14183357
71	0xbdb19a04	-0.08671954
72	0x3baf7d8a	0.0053555416
73	0xbd2afc9a	-0.041744806
74	0xbe2d6d4b	-0.16936223
75	0xbaf40f65	-0.0018620311
76	0xbd0e2747	-0.034705427
77	0xbe392f89	-0.1808454
78	0xbca0fdc5	-0.019652257
79	0x3dd71db2	0.10503711
80	0xbe2fec38	-0.17179954
81	0xbe2b6e20	-0.16741228
82	0x3c40d44d	0.011769366
83	0xbd0b9165	-0.034074206
84	0x3d1fc249	0.039003644
85	0xbd884582	-0.066538826
86	0xbbe9e7b6	-0.007138218
87	0x3dd81e58	0.105526626
88	0x3d86178e	0.065474615
89	0x3e271746	0.16317472
90	0xbd0a467c	-0.033758625
91	0x3d81ff7b	0.06347557
92	0x3c0cd077	0.008594624
93	0x3c822836	0.015888315
94	0xbdeef0ea	-0.116670445
95	0x3cf4fed4	0.029906668
96	0xbde97fdf	-0.114013426
97	0xbd3c6562	-0.045995124
98	0x3d857f39	0.065184064
99	0xbdd638c7	-0.10460048
100	0x3dafafe0	0.08578467
101	0xbe79e5de	-0.24404094
102	0xbd87974e	-0.06620656
103	0xbd5aa951	-0.05338413
104	0x3d2028ec	0.039101526
105	0x3c2378ce	0.009977533
106	0xbc62a1ed	-0.013832551
107	0xbc3558ca	-0.011068532
108	0x3e145d23	0.14488654
109	0x3ca89531	0.020578953
110	0xbc4e9c9b	-0.01261058
111	0x3c9e81c5	0.019348988
112	0x3e063fb7	0.13110243
113	0x3d857d97	0.06518095
114	0x3d8ddc43	0.06926777
115	0xbe09c228	-0.13452971
116	0xbc90349d	-0.017603213
117	0x3d3f1fc2	0.046661146
118	0x3d70954c	0.05873613
119	0xbd1bed4e	-0.03806811
120	0x3caa956c	0.020823203
121	0x3db3461a	0.08753605
122	0xbc9020f3	-0.017593836
123	0x3d0f13f2	0.03493113
124	0x3ca8dd2f	0.020613281
125	0xbbfcc549	-0.007713948
126	0x3d2f5617	0.04280671
127	0x3d5a583d	0.053306807
128	0x3dc547b0	0.09632814
129	0xbb95b6f1	-0.0045689275
130	0x3d93b8f0	0.072130084
131	0x3d0ff464	0.03514518
132	0x3bb5bfdc	0.005546553
133	0xbd3a9d1a	-0.04555998
134	0x3d7f539b	0.06233559
135	0xbd15f2ca	-0.036608495
136	0x3d6655c2	0.05623413
137	0xbdb137db	-0.08653232
138	0xbb741cb5	-0.0037248556
139	0xbe3fb8e4	-0.18722874
140	0xbbdda9a1	-0.006764606
141	0x3dc3192b	0.09526285
142	0xbc192b7e	-0.009348748
143	0xbd359c50	-0.044338524
144	0x3e1972e4	0.14985234
145	0x3b644144	0.003482894
146	0xbcc91863	-0.024547761
147	0x3bb1ab00	0.005421996
148	0x3daa5e96	0.08318822
149	0xbe06fb14	-0.13181716
150	0x3d8ac23d	0.06775329
151	0x3dcc3b49	0.09972245
152	0xbdfb2056	-0.12262027
153	0xbd364c08	-0.044506103
154	0xbdfa6b33	-0.12227478
155	0xbc01155f	-0.00787863
156	0xbe1ed0b8	-0.15509307
157	0x3d57256a	0.052525915
158	0x3d66f643	0.056387197
159	0x3d68897a	0.056771733
160	0xbd0e1c76	-0.03469511
161	0xbdf4c86e	-0.119522914
162	0x3df9775c	0.12180969
163	0x3d0e81c5	0.034791727
164	0x3d8670f9	0.065645166
165	0x3db4f6c5	0.0883613
166	0xbd905a01	-0.07048417
167	0xbdae7f48	-0.08520371
168	0x3c9f6b9d	0.019460494
169	0xbe442dc0	-0.19158077
170	0xbe12458f	-0.14284347
171	0x3e4cfc18	0.20018041
172	0x3db4bcf7	0.08825105
173	0x3c45dde4	0.012076829
174	0x3d6acfab	0.057326954
175	0xbd0dd1a5	-0.03462376
176	0xbb2bac53	-0.0026195243
177	0xbdab3330	-0.083593726
178	0x3e084eb5	0.13311274
179	0x3e0dd066	0.13849029
180	0xbda6708c	-0.08126935
181	0x3e3e6382	0.18592647
182	0xbc1c93cf	-0.009556725
183	0x3ce3f03e	0.027824517
184	0xbe26c292	-0.1628516
185	0x3da610cb	0.08108672
186	0x3c0f7d36	0.00875788
187	0x3d861e81	0.06548787
188	0xbe277b75	-0.16355689
189	0xbd44c0f0	-0.048035562
190	0x3e419437	0.18904196
191	0x3d85a1a3	0.065249704
192	0xbd06a797	-0.03287467
193	0xbe31bba3	-0.17356734
194	0xbda0cc60	-0.078514814
195	0x3d6b2093	0.057404112
196	0x3d4a444a	0.04938153
197	0xbd24dcb0	-0.040249527
198	0x3d816c98	0.06319541
199	0x3cddde27	0.02708347
200	0xbddc2b58	-0.10750455
201	0xbdb7b8fc	-0.0897083
202	0xbcc636b6	-0.02419601
203	0x3beeeb47	0.007291231
204	0xbcdf411a	-0.027252723
205	0x3e6ce9a4	0.23136002
206	0x3d03a33e	0.0321381
207	0xbdd4e1f7	-0.10394662
208	0x3da936f3	0.08262434
209	0x3d226e42	0.03965593
210	0x3c73489e	0.014848856
211	0x3c5607c5	0.013063376
212	0x3cc73cfa	0.024321068
213	0xbd9f0db0	-0.077662826
214	0x3cfd439d	0.03091603
215	0x3ba8c9f3	0.0051510273
216	0x3e040986	0.12894258
217	0x3cb5f13d	0.022209758
218	0xbe103ae7	-0.1408497
219	0xbdd640e0	-0.10461593
220	0x3d1200b4	0.0356452
221	0x3cebde42	0.028792504
222	0x3d888ed2	0.06667866
223	0xbd064710	-0.032782614
224	0xbb97b816	-0.004630099
225	0xbc97117b	-0.018440953
226	0xbe336ac1	-0.17521192
227	0x3bc27118	0.005933892
228	0xbe0a5491	-0.13508822
229	0x3da20e29	0.07912857
230	0x3c96c5da	0.01840489
231	0xbdad4e96	-0.08462255
232	0xbe0aa6f5	-0.13540252
233	0xbdb68517	-0.089121036
234	0xbc51a677	-0.012796036
235	0x3e34de58	0.17662942
236	0x3e905d65	0.28196254
237	0xbcb65df7	-0.022261603
238	0xbe14e55e	-0.14540622
239	0xbd74b331	-0.059741203
240	0x3d2e9ea8	0.042631775
241	0x3c4ba0fb	0.012428517
242	0xbce69e90	-0.02815178
243	0xbdecf855	-0.11570803
244	0x3d94c02a	0.07263215
245	0x3cee89a6	0.02911837
246	0x3e1d7512	0.1537669
247	0x3dca411c	0.098757
248	0x3d83602d	0.064148284
249	0xbbc10333	-0.005890274
250	0xbde9647e	-0.113961205
251	0x3d7370d0	0.05943376
252	0x3d9979de	0.074939474
253	0xbd3d3425	-0.046192307
254	0xbd8f2836	-0.069900915
255	0xbdbe5702	-0.09293939

network_body._body_endoder.seq_layers.4.bias f4 [128]
0	0x3b8085d5	0.003922204
1	0xbc9c220d	-0.019059205
2	0x3bcd8859	0.0062723574
3	0xbc473f54	-0.012161095
4	0xbb032c26	-0.0020015328
5	0x3c22d394	0.0099381395
6	0xbc516e21	-0.012782604
7	0xbc14cc23	-0.009081873
8	0xbc0c162d	-0.008550209
9	0x3c7052ee	0.0146682095
10	0x3c58c8ac	0.013231438
11	0x3ca5e9b9	0.02025305
12	0x3c986ea9	0.018607454
13	0x3c5b4069	0.013382056
14	0xbc5e4445	-0.013566081
15	0x3c620417	0.01379492
16	0x3ca5ca90	0.02023819
17	0xbcc6a07d	-0.024246449
18	0x3c115eca	0.008872697
19	0x3b760f79	0.0037545844
20	0xbbc9ce86	-0.0061586527
21	0xbc9e4a61	-0.019322576
22	0x3c75c4f4	0.015000571
23	0x3b9c7bf5	0.004775519
24	0x3abfa3a7	0.0014620916
25	0xbbce5802	-0.0062971124
26	0x3c21d989	0.009878525
27	0xbbd53581	-0.0065066223
28	0xbcceec0a	-0.025259037
29	0x3ce86268	0.028367236
30	0x3c45774b	0.012052367
31	0xbc179667	-0.009252167
32	0x3c6498c9	0.013952442
33	0x3c805ae7	0.015668346
34	0x3c3558c2	0.011068525
35	0xbc92c647	-0.017916812
36	0x3bf68fab	0.007524451
37	0xbc7b08d1	-0.015321926
38	0xbc1dc78b	-0.009630094
39	0x3c5e679a	0.013574505
40	0xbc4368aa	-0.011926809
41	0x3c9550d9	0.018227028
42	0x3ccf777c	0.02532553
43	0xbbe63ec3	-0.0070265247
44	0xbc0b9437	-0.008519224
45	0x3c1e3e1e	0.009658365
46	0x3c58a9dc	0.013224091
47	0x3c2a7adc	0.0104052685
48	0x3c7a4cd1	0.0152771035
49	0xbb270844	-0.0025487104
50	0xbc1530c3	-0.009105864
51	0xbc38adaa	-0.0112718735
52	0xbc6c01fd	-0.014404771
53	0x3cc41d4f	0.023939757
54	0x3cc24fe1	0.02371973
55	0xbcdaa06f	-0.026687829
56	0x3c87249d	0.01649695
57	0x3bcd8aa4	0.0062726308
58	0x3c8ef7d9	0.017452167
59	0x3c7614d0	0.0150196105
60	0xbc91e1e6	-0.017807912
61	0x3cc2bcbc	0.023771636
62	0xbc484d52	-0.012225466
63	0xbc193fbe	-0.009353576
64	0xbbfee97d	-0.007779299
65	0x3d108546	0.03528335
66	0x3c2ee4f4	0.010674704
67	0xbcc0a6b0	-0.023516983
68	0xbbbca9e9	-0.0057575596
69	0xbbe6df13	-0.0070456355
70	0x3c9e9e42	0.019362573
71	0xbc5948e7	-0.01326201
72	0xbc3f1a37	-0.011663965
73	0x3c80a2e7	0.015702678
74	0x3bfd9a00	0.0077393055
75	0x3c56a4ba	0.013100797
76	0xbc92a978	-0.017903075
77	0x3cab0833	0.020877933
78	0xba5674f0	-0.0008180877
79	0x3c8a9f0e	0.016921546
80	0xbbea5ebe	-0.0071524074
81	0x3c2b1ab4	0.010443378
82	0xbce5668f	-0.028003005
83	0xbc45eb4a	-0.012080023
84	0x3cb1fddb	0.021727493
85	0xbcc70071	-0.024292203
86	0x3c8474ce	0.016168978
87	0x3d00d193	0.031449866
88	0xbc14270e	-0.0090425145
89	0x3cd9694c	0.026539467
90	0xb9fd057e	-0.00048260012
91	0x3bc9d0a6	0.006158906
92	0x3cb11a71	0.021619054
93	0x3c232ad3	0.009958941
94	0x3cbadf18	0.022811458
95	0x3bb07b17	0.005385767
96	0xbc7599ed	-0.014990312
97	0xbb142b6e	-0.0022608894
98	0x3b4159b1	0.0029502923
99	0xbcac907a	-0.021064986
100	0x3c23d8fc	0.010000464
101	0xbb83a8a4	-0.0040179063
102	0x3b10743d	0.002204194
103	0xbbcb098a	-0.0061962055
104	0xbbf61907	-0.0075103077
105	0x3cec9088	0.028877512
106	0x3b942c84	0.0045219082
107	0xbc75ed85	-0.015010242
108	0x3b2035b7	0.002444608
109	0x3c6b3577	0.014356009
110	0xbc1dd877	-0.009634129
111	0xbcb6cd20	-0.022314608
112	0xbc018b43	-0.007906738
113	0xbbcda210	-0.006275423
114	0xbc24ee3e	-0.010066567
115	0x3ca20414	0.019777335
116	0x3bfa0e26	0.007631081
117	0x3c82640d	0.015916849
118	0xbbf10e5c	-0.007356448
119	0x3cb77733	0.022395706
120	0xba40ee6a	-0.0007359745
121	0xbc47c2d4	-0.012192447
122	0xbc51c566	-0.012803411
123	0x3bb9817d	0.005661188
124	0x3c513219	0.012768292
125	0x3bb7c7af	0.005608521
126	0xbb9e2642	-0.004826338
127	0xbb9b617b	-0.004741845

network_body._body_endoder.seq_layers.6.weight f4 [128, 128]
0	0x3e63e035	0.22253497
1	0xbd881f63	-0.066466115
2	0xbc18d667	-0.009328461
3	0xbdc4ac98	-0.09603232
4	0x3d6a1ad1	0.05715448
5	0xbc8e5ffc	-0.017379753
6	0x3e8e4494	0.27786696
7	0x3c31dcf1	0.010855899
8	0xbd9833fb	-0.074317895
9	0x3db5d942	0.08879329
10	0xbd872763	-0.06599309
11	0xbdb5caa1	-0.08876539
12	0x3d266680	0.040625095
13	0xbde74523	-0.11292484
14	0xbe0a42c0	-0.13502026
15	0x3e0572a2	0.1303201
16	0xba05fedb	-0.0005111524
17	0x3d3a75e4	0.045522586
18	0xbc8ed74e	-0.01743665
19	0xbd903752	-0.070418015
20	0xbcdc5710	-0.026896983
21	0x3e066d81	0.1312771
22	0xbd4670a4	-0.048447266
23	0xbe3ebec4	-0.18627459
24	0xbd218c83	-0.039440643
25	0x3d6efcbc	0.058346495
26	0x3b845a96	0.004039119
27	0xbd291f08	-0.04128936
28	0xbdc1e049	-0.09466607
29	0xbe19c80a	-0.15017715
30	0x3cb78f15	0.022407094
31	0xbd98825e	-0.074467406
32	0x3c8fa689	0.017535465
33	0xbcdd528c	-0.0270169
34	0xbdce98de	-0.10087751
35	0xbde4d1a6	-0.111728
36	0xbe6efb07	-0.23337947
37	0xbd01687d	-0.03159379
38	0x3d78b344	0.060717836
39	0x3c14f550	0.00909169
40	0xbe4adddd	-0.19811197
41	0xbcc34f7f	-0.023841618
42	0xbdc98b66	-0.09841041
43	0xbd944e93	-0.07241549
44	0xbd5a7d66	-0.053342246
45	0xbd3159cd	-0.04329853
46	0x3b99531b	0.0046790964
47	0xbc16ef93	-0.009212392
48	0xbe083378	-0.13300884
49	0x3d05fe1c	0.03271304
50	0x39e63a16	0.00043912296
51	0xbdb84e72	-0.08999337
52	0xbdfe1205	-0.12405781
53	0xbcf16b0c	-0.02946999
54	0x3dc263cb	0.0949169
55	0xbd933597	-0.07187956
56	0xbcbbc366	-0.022920322
57	0x3d8672b7	0.06564849
58	0xbd2eecb2	-0.0427062
59	0xbd1710e5	-0.036881346
60	0xbdb9bb1a	-0.0906889
61	0xbcd0ff8a	-0.025512476
62	0xbd41086e	-0.04712718
63	0x3d8f93cb	0.07010611
64	0x3c9be3fa	0.019029606
65	0xbdd3474a	-0.10316332
66	0x3df026d1	0.11726154
67	0x3dfb59d5	0.122729935
68	0xbcee2ad4	-0.029073156
69	0x3df7c519	0.1209814
70	0xbe58fb0d	-0.21189518
71	0xbbca9a05	-0.0061829113
72	0x3d9f2f51	0.07772697
73	0xbda821b7	-0.082095556
74	0x3d82e575	0.06391422
75	0x3d954d1f	0.072901
76	0x3c8e3db7	0.017363412
77	0x3dbe1bf8	0.09282678
78	0x3cb8dbc9	0.02256574
79	0x3e16f213	0.14740781
80	0xbd433c23	-0.047664773
81	0xbd832c8c	-0.06404981
82	0xbd45a135	-0.048249442
83	0x3e4604d1	0.19337775
84	0x3c194ad1	0.0093562165
85	0xbe3653e9	-0.17805447
86	0x3cacfbea	0.021116216
87	0xbd0faa84	-0.035074726
88	0x3dbb2c94	0.09139362
89	0xbd118874	-0.035530522
90	0x3e2e3c79	0.17015256
91	0xbd518892	-0.051155634
92	0x3e6123d9	0.21986331
93	0x3d3464d0	0.044041455
94	0x3dae2de1	0.085048445
95	0xbd1b5f8f	-0.03793293
96	0x3b966adc	0.0045903753
97	0x3cea9da8	0.02863963
98	0x3bb304a6	0.0054632006
99	0x3daca185	0.08429245
100	0x3d61be56	0.05511316
101	0x3e1a543f	0.150712
102	0x3da0a529	0.07844002
103	0x3d1b4979	0.037911866
104	0xbc58254e	-0.013192488
105	0xbd9a3037	-0.075287275
106	0xbe06b3ab	-0.13154475
107	0x3d6e47b9	0.05817387
108	0x3de070c8	0.10959011
109	0xbd7211e7	-0.059099104
110	0x3bf5abe7	0.007497299
111	0x3d876b23	0.066122316
112	0xbda505d4	-0.08057752
113	0x3ab1c099	0.0013561427
114	0x3d78e33e	0.06076359
115	0x3e041d92	0.12901905
116	0x3c9eaeda	0.019370485
117	0x3da528db	0.08064433
118	0x3d4a59ac	0.049401924
119	0xbc06a1b0	-0.00821726
120	0xbd0aa29d	-0.033846486
121	0xbcaf6a6b	-0.021413049
122	0xbd01e51e	-0.031712644
123	0xbdc2b5cc	-0.09507331
124	0x3d366577	0.04453036
125	0xbddcf150	-0.10788214
126	0x3d652c0d	0.055950213
127	0xbbbed02d	-0.0058231563
128	0x3e313353	0.17304735
129	0xbc419a3d	-0.011816558
130	0x3daf35a0	0.0855515
131	0xbdeec777	-0.11659139
132	0xbd8af001	-0.06784058
133	0xbd662d20	-0.05619538
134	0xbe0ccb74	-0.13749486
135	0xbdd22ca7	-0.10262423
136	0x3d5c5056	0.05378755
137	0x3e15656b	0.14589469
138	0x3d77dbe2	0.06051243
139	0xbd1bff5b	-0.038085323
140	0xbc4780d8	-0.012176715
141	0x3d48de87	0.049040344
142	0xbd28f767	-0.041251566
143	0x3e21481a	0.15750161
144	0xbd1e78fe	-0.038689606
145	0xbd3466bb	-0.044043284
146	0x3e86f2c5	0.26357093
147	0x3d525039	0.051346038
148	0x3d135854	0.03597291
149	0x3e19453e	0.1496782
150	0xbdab38c3	-0.08360436
151	0x3e01c5ff	0.12673186
152	0x3df581ae	0.11987625
153	0xbe2690ce	-0.16266176
154	0x3d954181	0.072878845
155	0xbc59ec90	-0.01330103
156	0x3d005e36	0.031339847
157	0xbdb8c549	-0.09022004
158	0x3df47156	0.119356796
159	0x3c0ad4f1	0.008473621
160	0x3cf40e85	0.02979208
161	0x3b65e047	0.0035076307
162	0xbdc0b1ce	-0.094089136
163	0xbca54355	-0.020173708
164	0x3e7e470b	0.24831788
165	0xbe12b6a7	-0.14327489
166	0xbd89bf73	-0.06725969
167	0x3e5782da	0.2104601
168	0xbda565cc	-0.08076057
169	0xbe17c343	-0.1482058
170	0xbd62860e	-0.055303626
171	0x3c442cd7	0.011973581
172	0x3d4936fd	0.049124707
173	0x3cbd81fa	0.023133267
174	0x3e0c70ff	0.1371498
175	0xbdf20040	-0.11816454
176	0xbe6a45ac	-0.2287814
177	0x3c8e56a7	0.017375303
178	0xbdbbbefc	-0.09167287
179	0x3dbb655b	0.091501914
180	0x3c4a6dcc	0.012355279
181	0x3e04549c	0.12922901
182	0xbd1b778f	-0.037955817
183	0xbdcd63c0	-0.100287914
184	0xbca308c1	-0.019901635
185	0xbc2a270d	-0.010385287
186	0x3d92f5f6	0.071758196
187	0x3d8b8c8b	0.06813916
188	0x3e01f71b	0.1269192
189	0x3c819c57	0.015821619
190	0x3d23f085	0.0400243
191	0x3ced256a	0.028948504
192	0x3c9741c3	0.018463975
193	0x3d8861c6	0.06659274
194	0xbd4eacfe	-0.050457947
195	0x3d0caba1	0.034343366
196	0x3cba7f25	0.022765705
197	0xbdb84b67	-0.08998757
198	0x3d825cda	0.06365366
199	0x3e2a771e	0.16647002
200	0xbe3262be	-0.1742048
201	0x3d0714d3	0.032978844
202	0x3e4bd577	0.19905649
203	0x3d6db4d2	0.05803377
204	0x3a7f8ee1	0.00097487686
205	0xbd98cf14	-0.07461372
206	0xbe048cbb	-0.1294431
207	0xbccedd7a	-0.025252093
208	0x3cc1aee1	0.02364296
209	0xbd7e89c3	-0.0621431
210	0x3d4b1f70	0.049590528
211	0x3dbee46b	0.09320911
212	0x3c3cf7db	0.011533703
213	0x3d13a649	0.036047254
214	0xbdf36973	-0.11885347
215	0x3dbafe8e	0.09130584
216	0x3c2fff5d	0.010742036
217	0xbdd52765	-0.104079045
218	0xbc63597c	-0.013876315
219	0x3c884975	0.01663659
220	0xbd992d5b	-0.07479354
221	0x3d0f9d6e	0.035062246
222	0x3e667e85	0.22509201
223	0x3d9edcad	0.07756934
224	0xbde42061	-0.11138988
225	0x3db31313	0.087438725
226	0x3c155592	0.00911464
227	0x3e003fa0	0.12524271
228	0x3e144367	0.14478837
229	0x3d4b88fe	0.049691193
230	0xbc8e3fc3	-0.017364388
231	0xbda8aeb5	-0.08236448
232	0x3db95dd0	0.090510964
233	0x3de626db	0.1123788
234	0xbdba61bb	-0.09100672
235	0xbd18fc03	-0.037349712
236	0xbd8b5f7d	-0.06805322
237	0xbe3df76b	-0.18551414
238	0x3d556523	0.052098405
239	0x3dc0f4d3	0.094216965
240	0x3ccc8bbe	0.024968978
241	0xbd0cc0a6	-0.03436341
242	0xbe4eb52e	-0.20186302
243	0x3e15c109	0.14624418
244	0x3d21561e	0.03938877
245	0xbdd223e9	-0.102607556
246	0x3e022f43	0.12713341
247	0xbd8b1563	-0.067911886
248	0x3d0ce22c	0.03439538
249	0x3a64f85b	0.00087345176
250	0xbd198ea8	-0.037489563
251	0xbe183afd	-0.14866252
252	0xbc868ad0	-0.016423613
253	0xbcc7796b	-0.024349889
254	0xbcd5e374	-0.026109435
255	0xbd0ecdbf	-0.034864184

network_body._body_endoder.seq_layers.6.bias f4 [128]
0	0xbcba0f31	-0.022712322
1	0x3bbd9675	0.005785758
2	0xbc99f4b8	-0.018793449
3	0x3b9af585	0.0047289752
4	0x3bb755b0	0.0055949315
5	0x3c0c04fc	0.00854611
6	0x3adf6d26	0.0017046079
7	0xbb21b254	-0.0024672942
8	0xbcf585f0	-0.029971093
9	0x3c3750ea	0.011188725
10	0xbbdf2f8c	-0.006811088
11	0xbc468b0c	-0.012118112
12	0xbb08b4f9	-0.0020859821
13	0xb8d259cf	-0.000100303085
14	0xbad639f6	-0.0016344178
15	0x3b1219bb	0.0022293169
16	0x3ca1ca33	0.019749736
17	0xbb602b85	-0.0034205627
18	0xbb8c69ba	-0.0042850645
19	0x3b2e2b79	0.0026576205
20	0xbc8ddc90	-0.017317086
21	0xbbe859c3	-0.0070907786
22	0xbc458306	-0.012055164
23	0x3bd187f0	0.006394379
24	0x3cd630e8	0.026146367
25	0x3cab8415	0.020937005
26	0x3d1d38c4	0.038384214
27	0xbc29f900	-0.010374308
28	0xbc256bd8	-0.010096513
29	0x3b26c796	0.0025448552
30	0x3c819618	0.01581864
31	0x37d71950	2.5641784e-05
32	0x3c8c86df	0.017154155
33	0x3c7f5db6	0.015586307
34	0x3b80d98d	0.003932184
35	0xba8bec75	-0.0010675328
36	0xbc108a8f	-0.008822097
37	0xbc0d518d	-0.0086254
38	0xbc9fe9c3	-0.019520646
39	0x3cb467bc	0.02202212
40	0x3c6b2cc7	0.0143539375
41	0x3c9b09b4	0.018925525
42	0x3cd08813	0.02545551
43	0xbb62d129	-0.0034609532
44	0x3c977335	0.018487552
45	0xbc027ca7	-0.00796429
46	0x3bc091d5	0.0058767595
47	0xbc7a92ec	-0.015293818
48	0xbc09c9b7	-0.008409909
49	0x3b66609c	0.0035152799
50	0xbca3fbbe	-0.020017501
51	0xbbfeb409	-0.0077729267
52	0x3c6949b5	0.0142387645
53	0x3c2fdb2e	0.010733409
54	0x3cb2cc9f	0.021826087
55	0x3c59b9b3	0.013288903
56	0xb9cc7a6b	-0.0003900112
57	0x3cd84126	0.026398253
58	0xbc64da98	-0.013968132
59	0x3cd50b81	0.026006462
60	0x3c971527	0.018442703
61	0x3c4be0c9	0.01244373
62	0x3b7fdb05	0.0039040458
63	0x3c2fbb8c	0.010725867
64	0x3c3adfdd	0.011405912
65	0x3ba043c8	0.0048908927
66	0x3c0fd223	0.008778128
67	0x3c8592ba	0.016305316
68	0xbc7646ea	-0.015031556
69	0x3c76b306	0.015057331
70	0x3c9aa4b4	0.018877365
71	0x3ba935f0	0.0051639006
72	0x3d223132	0.039597698
73	0xbbdbf678	-0.006712731
74	0xbc1a15fb	-0.009404655
75	0x3c066bef	0.008204444
76	0xbc038b4f	-0.008028819
77	0x3af58977	0.0018732984
78	0x3ca766f8	0.020434842
79	0x3c1ccaf6	0.009569874
80	0x3c36489c	0.01112571
81	0x3cbeba77	0.023282273
82	0xbb755a91	-0.0037438015
83	0x3ad103b5	0.0015946539
84	0x3a4ff9cd	0.00079336466
85	0x3c2d2847	0.010568685
86	0x3c3016f0	0.010747656
87	0xbb80190b	-0.0039092354
88	0x3c1d8337	0.009613804
89	0x3ca22772	0.0197942
90	0xbca2ecc7	-0.019888295
91	0xbcc03731	-0.023463817
92	0xbb834a26	-0.004006642
93	0x3be4e531	0.0069853296
94	0x3b9a7fb6	0.0047149314
95	0xbc2846d5	-0.010270794
96	0x3c3a122d	0.0113568725
97	0x3bac2a70	0.0052540824
98	0xbc03d91e	-0.00804737
99	0x3c4a2312	0.012337463
100	0x3c6a9754	0.014318306
101	0xbc857177	-0.016289456
102	0x3ced4358	0.028962776
103	0xbc44e1b0	-0.012016699
104	0xbc02f3cb	-0.007992695
105	0x3ba9ac3b	0.005178002
106	0x3ca055a6	0.01957209
107	0x3c20df61	0.009818883
108	0xbbdfe1a0	-0.0068323165
109	0xbcb806fd	-0.02246427
110	0xbb3d5503	-0.0028889782
111	0x3b2c7af1	0.0026318396
112	0x3c9d937b	0.019235363
113	0xbcbd13b7	-0.02308069
114	0xbbd527b0	-0.0065049753
115	0x3cb34bdf	0.021886764
116	0x3c63d0c7	0.013904757
117	0x3bf85c44	0.0075793583
118	0xba895043	-0.001047619
119	0x3bb29266	0.005449581
120	0x3c97a4dd	0.01851123
121	0x3bd9d57d	0.0066477642
122	0xbc917de1	-0.017760219
123	0xbd0b008a	-0.03393606
124	0x3c97f4e9	0.0185494
125	0x3c3d7892	0.011564391
126	0x3babc93e	0.005242496
127	0x3c244427	0.010026014

network_body._body_endoder.seq_layers.8.weight f4 [128, 128]
0	0xbd4f9cd9	-0.05068669
1	0x3d063c61	0.032772426
2	0xbce80668	-0.028323367
3	0x3c516780	0.012781024
4	0x3d896930	0.06709516
5	0xbd78ef23	-0.060774934
6	0x3c9abb6c	0.018888198
7	0xbcdeb87f	-0.027187584
8	0xbcc95309	-0.024575727
9	0x3e5fb8b4	0.21847802
10	0xb9439c3d	-0.00018654852
11	0x3d0c5968	0.034264952
12	0x3cb04d26	0.021521162
13	0xbdb45b20	-0.08806443
14	0x3d915898	0.07096976
15	0xbda242cd	-0.079228975
16	0x3d54bc5a	0.05193744
17	0x3b92a4e2	0.004475222
18	0xbd5a4edb	-0.05329786
19	0x3cae1d4a	0.0212542
20	0xbe193a9d	-0.14963765
21	0x3d0e1311	0.034686152
22	0x3dad61d4	0.08465925
23	0xbcd1b0b3	-0.025596952
24	0x3df7c2a7	0.12097674
25	0xbd16d4b0	-0.03682393
26	0xbb9a7c69	-0.004714538
27	0x3a106eb5	0.00055096607
28	0x3d531829	0.051536713
29	0x3dfe8156	0.124270126
30	0xbdaa9c2a	-0.08330567
31	0x3d751e0b	0.059843104
32	0x3cf5f4d9	0.030023979
33	0xbd499e68	-0.049223334
34	0x3d0e6020	0.03475964
35	0xbd93203e	-0.07183884
36	0x3db822d9	0.08991022
37	0x3d4a81d6	0.049440227
38	0x3d1fc412	0.039005347
39	0xbd996751	-0.07490409
40	0xbda07d76	-0.0783643
41	0xbd31b86d	-0.043388773
42	0x3d8df55b	0.069315635
43	0x3e1db072	0.1539934
44	0xbdac57cf	-0.08415186
45	0xbe4ec850	-0.201936
46	0xbe3ff8b4	-0.18747216
47	0xbc98c4e3	-0.01864857
48	0x3dd67448	0.10471398
49	0x3e0cda0b	0.13755052
50	0xbd8a8a0f	-0.06764614
51	0xbd3d69d0	-0.04624349
52	0x3d821248	0.06351143
53	0xbddfcf05	-0.10928158
54	0x3d532a3c	0.05155395
55	0x3a9806e6	0.0011598736
56	0x3cf0ce11	0.029395135
57	0xbb006fba	-0.0019597844
58	0x3dcc6822	0.09980799
59	0x3c76f692	0.015073435
60	0x3dd03835	0.10166971
61	0x3cf1aa0e	0.029500034
62	0x3cbd829f	0.023133574
63	0xbcde87e9	-0.027164416
64	0x3dae0188	0.08496386
65	0xbdfed403	-0.12442782
66	0x3e152299	0.14563979
67	0x3d756120	0.05990708
68	0x3c9b9906	0.018993866
69	0xbe5026bb	-0.20327275
70	0xbd7a35e1	-0.06108654
71	0xbd8555bf	-0.065104954
72	0x3c0d8ebf	0.00863999
73	0xbe313d6b	-0.17308585
74	0xbdae928b	-0.085240446
75	0x3d6caee0	0.05778396
76	0x3ce156f1	0.027507277
77	0x3d73507c	0.059402928
78	0x3cc11688	0.023570314
79	0x3bbc6889	0.0057497662
80	0x399f7d95	0.0003042041
81	0xbd9a090a	-0.07521255
82	0xbd9a895f	-0.07545733
83	0xbd3dadac	-0.046308205
84	0x3d6d855c	0.05798851
85	0x3d7594c1	0.059956316
86	0x3dd2cff2	0.10293569
87	0x3d963b6e	0.07335554
88	0xbd3b3a7d	-0.045710076
89	0x3e54c28f	0.20777343
90	0x3c9bab0f	0.019002466
91	0xbe28f908	-0.16501248
92	0x3cbf9781	0.023387672
93	0xbdda956e	-0.10673033
94	0xbbae4d61	-0.005319283
95	0x3da64a68	0.081196606
96	0xba27823c	-0.0006389951
97	0x3dd444af	0.10364663
98	0xbd895a61	-0.067066915
99	0x3da5672c	0.08076319
100	0x3d1061f1	0.035249654
101	0x3d1d9c31	0.038479034
102	0x3d98ec8d	0.074669935
103	0xbd2cf193	-0.04222257
104	0x3e37f4e2	0.17964509
105	0xbdb0d938	-0.08635181
106	0x3e000bff	0.12504576
107	0xbbc3a73d	-0.005970864
108	0xbde2532e	-0.110510215
109	0xbdc11fc8	-0.0942989
110	0x3c8fdbc5	0.017560849
111	0xbdbceef0	-0.09225261
112	0xbd95d206	-0.073154494
113	0xbd6f98f5	-0.05849548
114	0x3e176888	0.1478597
115	0xbd3a809e	-0.045532815
116	0x3de3b4ca	0.11118467
117	0x3d193d88	0.037412196
118	0xbc50e088	-0.012748845
119	0xbdb129b8	-0.08650535
120	0x3e052405	0.13002022
121	0x3d339724	0.04384531
122	0xbc27458e	-0.010209454
123	0xbde2eaef	-0.11079966
124	0xbe4edcf5	-0.20201476
125	0xbdccd995	-0.10002438
126	0x3d9aa2b5	0.07550565
127	0xbd8ac64f	-0.067761056
128	0x3db7de40	0.08977938
129	0x3b218434	0.002464545
130	0x3c92c5c0	0.01791656
131	0xbd08f782	-0.033439167
132	0x3d6a553e	0.0572102
133	0x3d92f963	0.07176473
134	0xbe508fb3	-0.20367317
135	0xbe3a7ff2	-0.1821287
136	0xbe448d20	-0.1919446
137	0xbd7574d2	-0.05992586
138	0xbb6549bf	-0.0034986583
139	0xbabf486c	-0.0014593727
140	0x3dc62c12	0.096763745
141	0x3d50f861	0.051018123
142	0x3cfe6b9f	0.031057177
143	0xbcaed598	-0.021342084
144	0x3d0bb0fe	0.03410434
145	0xbe064340	-0.13111591
146	0xbc8e068c	-0.017337106
147	0xbcc97920	-0.02459389
148	0x3d35650b	0.044285815
149	0x3db14e15	0.08657471
150	0x3b886da2	0.00416346
151	0x3d9a590c	0.075365156
152	0xbdaa2879	-0.08308501
153	0xbc8dc20a	-0.01730444
154	0x3ce5fa13	0.028073346
155	0x3e0fbd85	0.1403714
156	0xbd347c5f	-0.044063922
157	0xbd1d9bdc	-0.038478717
158	0x3e644296	0.22291026
159	0x3d6622e2	0.05618561
160	0xbde41b8a	-0.11138065
161	0x3d010173	0.031495523
162	0xbb9f1eb2	-0.004855954
163	0xbd1a72ef	-0.037707265
164	0xba5a65b2	-0.0008331194
165	0x3ab5e2cc	0.0013876795
166	0xbde08afe	-0.10964011
167	0x3d9cb877	0.076523714
168	0xb9debb56	-0.00042482716
169	0x3c6d6ff7	0.0144920265
170	0xbcaedcfd	-0.02134561
171	0x3ca9d343	0.02073062
172	0x3a33a4c1	0.00068528584
173	0xbd0d2c47	-0.034466054
174	0x3d36d132	0.044633098
175	0xbdb67991	-0.08909906
176	0x3df231d9	0.11825914
177	0x3c4faef6	0.012675991
178	0xbe122f74	-0.14275914
179	0xbc97cd63	-0.018530553
180	0xbb9b8bdf	-0.0047468985
181	0x3cd70291	0.026246341
182	0x3c5d25a5	0.013497745
183	0x3d07ea00	0.033182144
184	0xbdc66fa5	-0.09689263
185	0x3e0e04ab	0.13868968
186	0xbe4ac80a	-0.19802871
187	0xbdc67a55	-0.09691302
188	0xbc2b9a1c	-0.010473754
189	0xbdc4d466	-0.09610824
190	0x3d840cf8	0.06447786
191	0xbde24073	-0.11047449
192	0x3d0897e3	0.033347975
193	0x3e096d1f	0.13420533
194	0x3d084f8b	0.033278983
195	0xbd7db1b5	-0.061937053
196	0xbd7eaa92	-0.062174387
197	0xbd21b017	-0.039474573
198	0xbdaf6fb6	-0.08566229
199	0xbc8219a0	-0.01588136
200	0x3cfdf3ca	0.031000037
201	0xbcf05d31	-0.029341312
202	0xbd3080dc	-0.04309164
203	0x3d094111	0.033509318
204	0xbb6282d7	-0.003456285
205	0x3c812907	0.015766634
206	0xbe102423	-0.14076285
207	0x3d8cd86d	0.068772174
208	0x3da621b0	0.08111894
209	0xbdb2cbb4	-0.087302595
210	0xbd43144f	-0.04762679
211	0xbdf766a1	-0.12080122
212	0x3c323e87	0.0108791655
213	0x3d91f070	0.07125938
214	0xbe19eb5c	-0.15031189
215	0xbe17fb9b	-0.14842074
216	0xbd8ec159	-0.06970472
217	0x3d8d2021	0.06890894
218	0xbd476153	-0.0486768
219	0xbe138f94	-0.1441024
220	0x3d38ce9c	0.045118913
221	0x3d72d24c	0.059282586
222	0xbdb78de3	-0.089626096
223	0xbd32c21e	-0.043642156
224	0xbd848fdc	-0.064727515
225	0x3dad2700	0.08454704
226	0xbe118b19	-0.14213218
227	0x3d3bff71	0.045897905
228	0xbd424526	-0.047429226
229	0xbb8f9e7f	-0.004382908
230	0xbe13f218	-0.1444782
231	0xbdc8cf16	-0.098051235
232	0x3e188c27	0.14897214
233	0x3dfa0076	0.12207119
234	0xbda5421c	-0.0806925
235	0x3d49f7b4	0.049308494
236	0x3d792608	0.060827285
237	0xbd99a73d	-0.07502601
238	0xbd2c0ded	-0.04200547
239	0xbe5f259c	-0.2179169
240	0xbcafad2e	-0.021444883
241	0xbd3eb9cf	-0.04656392
242	0x3d6f5ec7	0.058439996
243	0x3dda5697	0.10661047
244	0x3e18150c	0.14851779
245	0x3c2d40bc	0.010574516
246	0xbdb0f4af	-0.0864042
247	0xbe1f48f0	-0.15555167
248	0xbcfacc92	-0.030615125
249	0x3d85965f	0.06522822
250	0xbd9b55d3	-0.07584729
251	0x3e1109f5	0.14163955
252	0x3d908b5a	0.07057829
253	0x3d1bfe0d	0.03808408
254	0x3e4311fb	0.19049828
255	0x3e0915a6	0.13387164
