Assets/Models/Collector.onnx (onnx, 302958 bytes, 14 tensors)

network_body.observation_encoder.processors.0.normalizer.running_mean f4 [53]
000000 0b 6f 9d 3f 00 00 00 00 ba 95 12 c0 ac 9d 8c 3e
       1.2299513 0.0 -2.2903886 0.27464044
000010 f1 af 4c 3f 00 00 00 00 97 be 17 3f a0 fe 7f 3f
       0.79955965 0.0 0.5927519 0.999979
000020 c5 2d 92 3e c9 4c 6f 3f 00 00 00 00 2f c5 b3 be
       0.28550544 0.9347654 0.0 -0.35111377
000030 a0 fe 7f 3f e4 6b d0 3e 2d 28 06 3f 00 00 00 00
       0.999979 0.40707314 0.52405053 0.0
000040 4f 16 59 3f a0 fe 7f 3f 18 5d 82 3e 0a a8 10 bf
       0.84799665 0.999979 0.2546165 -0.5650641
000050 00 00 00 00 45 6a 50 3f a0 fe 7f 3f 3b 53 97 3e
       0.0 0.81412154 0.999979 0.29555687
000060 bc a4 0c 3f 00 00 00 00 af 1d 54 bf a0 fe 7f 3f
       0.54938865 0.0 -0.82857794 0.999979
000070 c3 56 c0 3e 86 84 dd 3e 00 00 00 00 c6 b0 65 3f
       0.37566194 0.4326517 0.0 0.8972286
000080 00 00 00 00 4c 49 99 3e d2 7b da be 00 00 00 00
       0.0 0.29938734 -0.42672592 0.0
000090 05 ad 65 3f 00 00 00 00 a8 2e 37 3e f0 c4 17 bf
       0.8971713 0.0 0.17888892 -0.5928488
0000a0 00 00 00 00 4f 54 49 3f 00 00 00 00 67 38 ba 3e
       0.0 0.7864427 0.0 0.36371157
0000b0 e1 c4 43 bf 00 00 00 00 9b e2 21 3f 00 00 00 00
       -0.7647229 0.0 0.632364 0.0
0000c0 b6 02 94 3e 9a a8 46 bf 00 00 00 00 ff 84 1d bf
       0.28908318 -0.77601016 0.0 -0.6153106
0000d0 00 00 00 00
       0.0

network_body._body_endoder.seq_layers.0.weight f4 [128, 53]
000000 bd 3d dc 3d 3f e5 a6 bd 5f 18 39 3d e4 32 d9 3d
       0.10753963 -0.08149194 0.045189258 0.1060541
000010 c2 37 23 3e 66 a6 67 bd 81 d1 41 be b1 ec 6d be
       0.15939239 -0.056555174 -0.18927576 -0.23234822
000020 d0 0b f2 3d 48 94 17 3e 1f 15 6e 3e f2 58 65 3e
       0.11818659 0.14802659 0.23250245 0.22397211
000030 33 75 0f bd d3 74 ad 3c c7 23 13 3e 7b 9a 5f be
       -0.03502388 0.02117387 0.14369117 -0.21836273
000040 7a 0e 24 3e fc dc 1f bd 86 f2 09 3e 07 b1 30 be
       0.16021147 -0.039029106 0.13471422 -0.1725503
000050 82 0f 80 bc cb de 59 be b0 c8 ac 3d 4b ee b8 bd
       -0.015632395 -0.21276395 0.084367156 -0.09029826
000060 81 c6 77 be a0 96 f7 bc f1 4e 30 3e 79 7c 73 bd
       -0.24196817 -0.03022319 0.17217614 -0.05944488
000070 68 48 6e be e9 cd b0 3d 28 b5 04 be e5 23 5f bd
       -0.23269808 0.08633024 -0.1295973 -0.05447759
000080 e4 a0 93 bd 79 7b 90 bd 5f c9 50 be f4 db eb bb
       -0.07208422 -0.070548005 -0.20389317 -0.0071978513
000090 56 da 13 be 9c ec 84 3d b1 25 94 3c 37 7f 9a bc
       -0.14438757 0.06490442 0.018084379 -0.018859489
0000a0 c7 7c 29 bd 4e fe 7e 3e 70 66 9f bd 74 27 c8 3d
       -0.041378763 0.24901697 -0.0778321 0.0977315
0000b0 a4 ea 99 3b 29 f9 b3 bc 4b bd 08 3e 9f 6e 45 3e
       0.004697161 -0.021969395 0.1335346 0.1928048
0000c0 0b 22 83 3e e9 b5 ff bc a7 15 83 3d 4a 3c a3 bc
       0.2561191 -0.031214671 0.06400614 -0.019926209
0000d0 53 3e 61 bd 84 bd 0c 3e 67 ec a1 3d a5 4e 9c be
       -0.054991078 0.1374417 0.07906418 -0.3052875
0000e0 b7 ed 20 be 3b e6 6b bd 6b c6 9c bc 36 3f 10 bd
       -0.15715681 -0.05759261 -0.019137582 -0.035216533
0000f0 0c 32 20 bd 15 7b 9e 3d eb 8d 57 be 05 6f 2b bd
       -0.03911023 0.0773832 -0.21050231 -0.041853923
000100 82 b5 09 3d bd e4 b0 ba 51 71 ea 3d 19 ce fa 3c
       0.033620365 -0.0013495904 0.11447395 0.030615853
000110 6d c4 2c be 8c ac c9 3e 2a 0d d8 bb 2d 72 7d 3d
       -0.16871805 0.39389455 -0.006593366 0.061876465
000120 94 36 aa 3d d7 50 7f 3e d3 70 7c be 16 21 72 3e
       0.08311191 0.24933182 -0.24652414 0.23645434
000130 ae 8d 4a 3d 0c ce 86 3d 6e 13 ff bc 98 0d ee bd
       0.049451523 0.06582269 -0.031137194 -0.116236866
000140 47 b5 23 be cc 2d d4 bd fd 4c 5d 3d 00 9f 39 bd
       -0.1598712 -0.103602976 0.0540285 -0.04531765
000150 7e 57 9c 3c 91 47 8b 3c 5f 22 f2 bd 97 65 01 3e
       0.019084688 0.017001899 -0.11822962 0.1263641
000160 20 26 dc bc 29 28 13 be 8b 89 bd bd 01 fa 92 bd
       -0.026873648 -0.14370789 -0.0925475 -0.07176591
000170 ce 8c db 3d 99 bd d7 bc ac b4 c7 bd d0 c6 f3 3d
       0.10720216 -0.026335524 -0.09751257 0.11903155
000180 fb 9f 45 bc ef fa 24 be 44 ea 8a 3d a4 3c 06 be
       -0.012062068 -0.16111349 0.06782964 -0.1310907
000190 a1 b6 37 be 6f 81 b8 3d 85 c3 30 3d db ee 21 bb
       -0.17940761 0.090090625 0.043155212 -0.002470902
0001a0 45 3d e9 3d 06 8b 0b bd 18 77 08 3e 98 a1 8c bd
       0.11388639 -0.03406813 0.1332668 -0.06866759
0001b0 7a 76 4c bc 15 1c 33 be 79 b5 21 be c7 a4 11 be
       -0.012479419 -0.17491181 -0.15791883 -0.14223014
0001c0 b4 c3 39 be bc db 57 3d a6 78 4e 3d 3d f9 91 bd
       -0.18141061 0.05269979 0.050408028 -0.071276166
0001d0 0d 96 0f 3e 06 1d 82 3e ea 2a 82 3c a4 75 6c 3e
       0.14022084 0.25412768 0.015889604 0.23091751
0001e0 87 66 89 3e d4 7b 4b 3e b1 c6 ca 3d f1 5e 43 bc
       0.26836035 0.19871455 0.09901179 -0.011924491
0001f0 38 d2 e5 3d f7 69 e6 3d 81 03 54 bd 84 24 1d 3e
       0.11221737 0.1125068 -0.051761154 0.15345961
000200 1e ea 75 be 3f 8d 1b bd f7 aa 62 3d 55 84 7e 3d
       -0.2401509 -0.0379765 0.055338826 0.06213792
000210 01 e3 7f 3a 0c d9 c7 bb 45 80 d1 3c c5 e3 8a 3e
       0.0009761304 -0.006098872 0.025573859 0.271269
000220 24 05 8a 3d 89 87 4a be 30 5e f6 bc fd 1b ce bc
       0.06739262 -0.19778265 -0.030074209 -0.02515983
000230 48 f4 bc bc 41 d8 82 3d 43 f3 c8 3e f5 66 ee 3c
       -0.023065701 0.063889034 0.39248094 0.029101828
000240 1a e7 6c 3e 2d 98 e1 3d 20 cb e1 3b 7e 0f 32 3e
       0.23135033 0.11015353 0.0068906695 0.17388722
000250 db 76 ba 3d 04 64 b1 3d de b0 04 be 84 d2 04 bd
       0.09104701 0.086616546 -0.12958094 -0.032427326
000260 c8 4c 58 3d 28 c3 0e 3e 79 98 52 3d 0b 04 a4 bd
       0.0528076 0.13941634 0.05141494 -0.08008584
000270 9f 15 93 3e c4 c2 87 3d ed 7d 8d 3e b1 72 5c 3d
       0.28727433 0.066289455 0.27635136 0.053820316
000280 aa dc 9e be b1 1e 54 bd b6 85 e9 3b 8e ca f0 bd
       -0.31027728 -0.051787082 0.0071265353 -0.11757384
000290 c7 c1 c6 3d 92 37 e5 3d 1d 8d cb 3d 5e 41 19 be
       0.09704929 0.1119224 0.099390246 -0.14966342
0002a0 c5 19 6f 3e 73 77 5f 3c 22 48 47 bd b0 fb 0a 3e
       0.23349674 0.013639319 -0.048652776 0.13572574
0002b0 ea ce 93 3e 7b ae 01 be 51 d4 f3 3b c7 a7 4b bd
       0.288688 -0.12664215 0.0074410816 -0.04972055
0002c0 a6 4d f1 bd f2 0c 86 3d c1 b2 84 3c 55 25 b2 3d
       -0.117823884 0.06545438 0.016198518 0.08698527
0002d0 f0 5f 10 3e 4b e3 e2 bc 6e ef 2b 3e f7 21 1a be
       0.14099097 -0.027696272 0.16790554 -0.15052019
0002e0 8e 20 53 3e 84 25 17 bd 21 b1 08 be 28 a2 9c 3e
       0.20617887 -0.036901012 -0.1334882 0.30592465
0002f0 72 fd af 3d a8 32 db 3c 0f 74 94 3e 92 39 89 bd
       0.08593263 0.026757553 0.28994796 -0.06700434
000300 e5 99 69 bd e4 93 8f bd 37 e1 8a 3e 76 3d a3 3d
       -0.05703153 -0.0701063 0.2712495 0.07970707
000310 80 c6 b1 bd a0 9c 7b bd a0 68 c5 3c be 6b 82 bc
       -0.08680439 -0.061428666 0.02409774 -0.015920516
000320 25 5c 20 be 8c df 86 be c3 1a d9 bd 27 36 87 3d
       -0.1566015 -0.26342428 -0.106008075 0.066021256
000330 fd 4f d6 3d 0e b9 c7 3e 28 f2 16 be a0 76 49 be
       0.10464475 0.39008373 -0.14740813 -0.19674158
000340 13 71 69 be 4d 8f 46 bd e9 cf 97 3d 39 78 d2 3d
       -0.2279704 -0.048476506 0.074127026 0.10276837
000350 24 bf 45 3e 69 5a 84 3d 60 4e be be 2e 15 43 3e
       0.19311196 0.06462557 -0.3716917 0.19051048
000360 15 4c 25 bd dd 6c d4 bc e3 10 27 3d 04 01 9c 3c
       -0.04035576 -0.025930816 0.04078759 0.019043453
000370 a6 17 2d 3e 79 9b 81 3e f7 2d e3 bd ee 5e c7 3d
       0.16903552 0.2531393 -0.110927515 0.09734903
000380 8c 7f 53 be 96 0b 0a 3e 6c f4 11 3d bf 23 20 3e
       -0.20654124 0.13480982 0.03563349 0.15638636
000390 29 8f a0 bd b6 e2 9d bd d3 c5 ad 3e 87 b0 2c be
       -0.07839806 -0.07709257 0.3393999 -0.16864215
0003a0 89 cc 81 3e 7a 22 e8 bd 60 28 bf 3d e6 ad 27 bd
       0.2535136 -0.11334701 0.09333873 -0.040937327
0003b0 83 aa 8c bd 32 c6 7b 3d cd b2 6c 3e 38 90 71 3d
       -0.0686846 0.06146831 0.23115082 0.05897543
0003c0 52 95 42 bd 01 a1 93 3d e0 1a 1b 3e 89 24 b5 3e
       -0.047505684 0.072084434 0.15146971 0.35379437
0003d0 08 20 e4 bd ff 94 25 bd 2a b0 a9 3d ce 47 e8 3d
       -0.11138922 -0.040425297 0.08285554 0.11341821
0003e0 24 70 f8 bd 9d 60 19 3d 4a 34 3d be f1 cd d8 3c
       -0.12130764 0.037445653 -0.18476978 0.026465388
0003f0 d3 cc 5d 3e 75 84 f3 3d 26 6b 9f 3e d4 5f 85 3e
       0.21660165 0.118904985 0.31136435 0.26049674

network_body._body_endoder.seq_layers.0.bias f4 [128]
000000 0c 74 d3 bb 6c 63 e7 bc 39 c3 d1 3c 52 bc 27 3b
       -0.006453043 -0.02824565 0.025605785 0.0025594425
000010 2e 07 47 3b e0 bc 0a 3c fe f2 5a bb c6 e6 06 3d
       0.003036927 0.008467883 -0.0033408995 0.032934926
000020 2f 7d d1 bc 97 08 2f 3c 61 06 32 bb 65 45 85 bc
       -0.025572388 0.0106832 -0.0027164447 -0.016268441
000030 44 e8 19 3c 80 7b a0 3c 59 8b b4 bc c8 aa 6f bc
       0.009393755 0.01959014 -0.022039102 -0.01462812
000040 ba d5 a3 3b 69 f9 fe 3b 1f c9 ca 3c eb 72 0c bd
       0.0049998434 0.007781197 0.024754105 -0.03428928
000050 c7 a5 88 3c 77 f1 b9 bc af 02 b6 3b 29 3a 9c bc
       0.016680611 -0.022698147 0.005554519 -0.019070702
000060 e2 49 d0 bb 19 9b 0c bc ae 53 3e 3b 00 ed 7a 3b
       -0.006356464 -0.0085819 0.0029041576 0.0038288236
000070 e3 ca 07 3c 7c ac 73 bb cf 5a cf 3c aa 41 bf bc
       0.008288118 -0.0037181666 0.025311856 -0.02334674
000080 65 ce 8b bc 71 88 a7 ba 94 31 d4 3b 94 08 c8 3b
       -0.01706619 -0.0012781752 0.0064756367 0.006104538
000090 21 2b 68 bc d6 bb c0 3c 62 ec db 3c 74 d3 7e bc
       -0.014170439 0.023527067 0.026846115 -0.015553344
0000a0 fc da 7e 3c d6 85 05 3c 8b d8 16 3c c0 cb 81 bc
       0.01555514 0.008149585 0.009206901 -0.015844226
0000b0 67 0e c6 bb 54 d9 86 3c 7d 42 d8 3c c4 3b be 3c
       -0.0060441974 0.016461052 0.026398892 0.023221858
0000c0 4d 81 8f 3c e0 ce e3 3c 5b fe 20 bc 02 ed 97 3c
       0.01751771 0.027808607 -0.009826268 0.018545631
0000d0 d4 5b ec 3a 68 7c 8e bc 7c 5c 51 3c fb a8 80 3c
       0.0018032738 -0.017393306 0.012778398 0.015705576
0000e0 16 e6 25 3c 93 65 0d 3a 15 ce 54 3c 3e e2 f8 3c
       0.010125658 0.0005393859 0.012988587 0.030381318
0000f0 ba 32 4c 3c 5b 7b 04 bb 52 70 bc 3c 2b b5 83 3b
       0.012463266 -0.0020215127 0.023002777 0.0040193996
000100 0b 09 a4 3c 79 1a 84 3c 66 83 43 3c 3b a0 fd 3a
       0.020023843 0.016125904 0.011933183 0.001935012
000110 97 ba a4 3c ac 80 f9 3b 48 ed 20 bc fb 34 80 3c
       0.020108504 0.007614216 -0.009822197 0.015650263
000120 a1 22 4b 3b cd b2 bd 3c 94 7f 3d bc b3 bc a4 3c
       0.0030995982 0.023156548 -0.0115660615 0.02010951
000130 93 94 b2 3b 57 ee b9 ba 40 80 50 bc 81 dd 2f bc
       0.0054498403 -0.0014185411 -0.01272589 -0.010733963
000140 eb d8 eb 3b 11 c6 d2 3c b2 2f af 3b 60 20 75 3c
       0.0071974895 0.025729211 0.005346262 0.014961332
000150 d3 14 1f 3b a8 42 fb 3c 57 25 e8 3c 62 21 79 bc
       0.0024273887 0.030671433 0.028338118 -0.015205713
000160 88 14 58 3b d2 35 75 bc 43 46 f9 3b 5a 7c 09 3c
       0.0032971222 -0.014966445 0.007607253 0.008391464
000170 e8 32 8e b9 ff e1 09 bc 6d 37 fc 3c e5 69 f9 3c
       -0.0002712228 -0.008415698 0.030788148 0.030446002
000180 c2 96 7f 3c 8b b4 7f ba 0e fc 90 ba 7e e0 41 3b
       0.015599908 -0.0009754381 -0.0011061446 0.002958327
000190 74 0d d1 bb f5 5b ac 3c d6 0d f7 3b ef 8f 69 3c
       -0.0063797776 0.021039942 0.007539491 0.014255508
0001a0 ec 8f 21 3c 34 63 c8 3c ca 5f c8 bc 6a de b2 bc
       0.009860974 0.024461366 -0.024459738 -0.02183457
0001b0 ff 8c 01 3c 16 d1 0f 3d f1 c8 2f 3d b9 69 d2 bb
       0.007907151 0.03511151 0.042916242 -0.0064212945
0001c0 a8 d1 cc 3c 11 3b 93 3c bd ec f5 3b f5 5d b3 3c
       0.025002316 0.017972501 0.007505028 0.021895388
0001d0 9d 84 8d 3c ee a0 03 3b 98 86 b8 3c 76 0f 5c 3c
       0.017275149 0.0020084935 0.022525117 0.013431421
0001e0 99 43 b6 3c 8c 32 33 bc de 4a 8f 3c bb 6b 97 3c
       0.02224903 -0.010937344 0.017491754 0.018483987
0001f0 59 34 9d 3c ce 30 27 3c d2 36 51 bb 0f c3 69 bb
       0.01919 0.010204507 -0.0031923545 -0.0035669242

network_body._body_endoder.seq_layers.2.weight f4 [128, 128]
000000 29 ea b6 bd cf 05 b1 bc d3 9b a6 bd e7 12 c5 3d
       -0.08931381 -0.021609215 -0.0813519 0.09622746
000010 0c eb b0 3d 9f 65 9f 3d 1f 40 19 bd e3 ab ba ba
       0.08638582 0.077830546 -0.037414666 -0.00142419
000020 0b e4 f3 bd 25 36 d2 bd bf 74 c0 bb 4b 41 6c bd
       -0.1190873 -0.102642335 -0.005873292 -0.057679456
000030 38 b5 2d 3e 26 e2 38 3d c3 94 29 be d1 de 82 bb
       0.1696366 0.045137547 -0.16560654 -0.003993847
000040 76 40 43 bd 48 6d 0a be d3 11 fa 3d 59 f9 a8 bd
       -0.047668897 -0.1351825 0.12210431 -0.08250684
000050 02 ff da 3c 12 84 6c be 4f 48 eb bd 63 8f 90 bd
       0.026732925 -0.23097256 -0.11488401 -0.07058599
000060 ae 8d 0d be 2a bb 6e be 5a bf a5 3d 86 62 dc 3d
       -0.13823578 -0.23313585 0.08093138 0.10760979
000070 9c 6d d8 bd 47 68 aa 3d d9 02 44 be 24 52 b0 3d
       -0.10567781 0.083206706 -0.19141711 0.08609417
000080 ed fe 0e 3d 22 c2 5a 3c 39 02 fa 3d 34 45 67 3c
       0.034911085 0.013351949 0.12207455 0.01411562
000090 6b a9 a6 bd bc c6 a6 3d 85 f7 aa 3d a7 4f f5 bc
       -0.08137783 0.08143374 0.08347992 -0.029945208
0000a0 25 0c 60 3d d2 f4 a4 3b f5 cd 2c 3d a2 e3 ff bc
       0.054699082 0.0050340677 0.042188603 -0.031236473
0000b0 76 4f 80 bd bf 4e ce bd 61 20 31 3d 6c f8 95 3d
       -0.06265156 -0.100736134 0.04324377 0.07322773
0000c0 8d 82 5f bc 1c a3 d5 3c e2 a2 4a 39 04 8f 1c 3e
       -0.013641966 0.026078753 0.000193249 0.15288931
0000d0 09 04 cd 3d 51 9f e1 3b 36 ca f0 bc 27 11 9f 3d
       0.10010535 0.006885447 -0.029393297 0.077669434
0000e0 0c 2d c8 3c dc 7d d7 3d 32 07 b7 bc e3 51 d1 3c
       0.024435543 0.10522053 -0.022342298 0.025551742
0000f0 e5 f6 a6 3d 67 3f 95 bd 75 fe 79 3d 9a 6d 9a bd
       0.0815256 -0.07287484 0.061033685 -0.07540436
000100 5a 8c e6 bd 6f 1d 05 3e c3 ce 91 3d d5 9f ab bd
       -0.11257239 0.1299951 0.07119515 -0.08380095
000110 f4 79 ad bd 7d f3 d8 3d 50 ad 14 3d 88 ea 2e be
       -0.08470526 0.10593317 0.036298096 -0.17081654
000120 e0 e7 6e 3d 17 f4 11 3e 2d 5f 03 3e b8 a1 b1 bd
       0.058326602 0.14253269 0.12829275 -0.086734235
000130 bc 3c ad bd 93 16 7e 3c 02 d1 3e bd 93 77 ca bd
       -0.0845885 0.015508312 -0.046586044 -0.09886088
000140 22 6d 8b 3d 8d f1 92 3d 61 04 02 3d d7 0c 6d bd
       0.06807925 0.071749784 0.031742457 -0.057873573
000150 d0 d6 66 bd 47 cc 42 be 03 6e 37 3d 4f 30 9f bd
       -0.056357205 -0.19023238 0.04478265 -0.07772886
000160 a2 3f ec bd 05 20 53 bd 65 82 2a 3d 35 f4 3f bd
       -0.115355745 -0.051544208 0.04162826 -0.046863753
000170 2f de 62 bb 41 c9 59 bd 74 2b 11 3d 3b 96 8a 3b
       -0.0034617295 -0.053170446 0.03544183 0.0042293346
000180 65 f3 70 3c 71 3c 70 3d 60 be 33 be b5 9f c1 bd
       0.014706467 0.05865139 -0.17553091 -0.0945429
000190 bb 6d 0e be 93 d5 d3 bd 60 f4 40 3d 97 3c 00 3e
       -0.13909046 -0.103434704 0.047108054 0.12523113
0001a0 20 53 09 bc bb 30 fe 3d d5 7b 6a bd 4d 89 19 bd
       -0.008381635 0.12411638 -0.057247 -0.037484456
0001b0 9d 7d 73 bd e0 29 48 3e b2 da 13 3e ac 1d 06 be
       -0.059445966 0.19547224 0.14438894 -0.13097256
0001c0 07 71 ef 3c 1c b3 ee bd 4c 8e f0 3b 32 4c 33 3e
       0.0292287 -0.11655256 0.007341182 0.17509535
0001d0 15 73 64 be 44 88 81 be 50 9a 6d bc 54 ea b5 3d
       -0.22309525 -0.25299275 -0.014502123 0.08882585
0001e0 1a 65 e2 3d 8b c2 bf 3d 98 90 32 3e 33 d6 e2 bd
       0.1105444 0.09363278 0.1743797 -0.110760115
0001f0 8f 72 b9 bb df 6d 2d bd 1c 9b 0f be 56 15 74 3d
       -0.0056594084 -0.04234111 -0.14024013 0.05959066
000200 e7 a5 2a 3e 82 98 21 be a2 54 b2 3d a9 28 b9 3c
       0.16664849 -0.15780833 0.08707549 0.022602396
000210 d5 d7 68 3d bc 3e 14 3e 6e d0 47 bc c7 1f 36 bd
       0.05684646 0.14477056 -0.01219569 -0.0444639
000220 9d aa d5 3c 77 23 cd bd cc d3 77 3d 5f 76 fa 3d
       0.026082331 -0.1001653 0.06050472 0.12229609
000230 e5 ee 91 bd 32 63 2f be 59 7b 35 bd 38 c7 a3 3d
       -0.07125644 -0.17127684 -0.044307087 0.07996982
000240 85 00 32 bd 00 17 e8 bd d1 e0 f4 bd 9c 8c 7b 3d
       -0.043457527 -0.11332512 -0.11956943 0.061413392
000250 dd 7f 06 be 0b 47 d5 bd 25 59 36 bd 19 e4 57 3d
       -0.13134713 -0.10413941 -0.04451861 0.052707765
000260 b0 20 ee 3b ad c1 bf 3c 84 67 46 be 80 6e e4 bd
       0.0072670802 0.023407781 -0.19375426 -0.11153889
000270 84 03 1b 3d 07 71 59 3e b8 89 82 bd 73 c4 65 bd
       0.03784515 0.21234523 -0.06373924 -0.05609555
000280 c7 2c a9 bd 8a 9c 74 3d b1 40 97 3d 00 c1 84 3c
       -0.08260494 0.0597196 0.07385386 0.01620531
000290 36 a6 13 3e 59 57 08 3d 89 6c c0 bd b7 8f 1d 3e
       0.14418873 0.033286426 -0.093957014 0.15386854
0002a0 f7 fc 2d 3b ba 8e 08 be 8f 16 e9 bd 46 32 f6 bc
       0.0026548484 -0.13335696 -0.11381256 -0.03005327
0002b0 11 08 a2 bd 9b 89 f0 3c 81 f4 77 3e 29 bc eb 3c
       -0.07911695 0.02936249 0.24214365 0.028776245
0002c0 c8 df f0 bd db ac ee bd 54 1c 28 bd 0b 1e 28 3d
       -0.11761433 -0.11654063 -0.04104264 0.041044276
0002d0 13 1b 07 3d aa c9 34 3e 0f b9 8b 3d 40 d1 f4 bd
       0.032984804 0.17655054 0.068224065 -0.11953974
0002e0 15 5e c6 bb e6 e8 0b 3d b2 2f 08 bd 19 e7 44 3d
       -0.006053696 0.034157656 -0.03324861 0.048071954
0002f0 3b 8b 82 bd 71 fa 05 3e 2c d9 4b 3e ef ed b5 bd
       -0.06374212 0.13083817 0.19907063 -0.08883273
000300 5b 58 ce 3b 09 58 08 3e e4 7b 43 3d ee b7 98 bd
       0.006297154 0.13314833 0.047725573 -0.07456957
000310 3f c3 04 be 72 75 76 be d5 5f 3a 3d 97 d7 a4 bd
       -0.12965105 -0.2406824 0.04550155 -0.08048933
000320 cb 4b 38 be be 26 66 3e 63 a2 d6 3c 38 3d 16 be
       -0.17997663 0.22475716 0.026200479 -0.1467179
000330 7f 96 8f 3c 78 ec 17 3d ae d0 ba 3c b0 82 28 bd
       0.017527817 0.03709075 0.022804584 -0.04114026
000340 3f e9 8a 3d f9 69 7a 3c 3c d8 c2 3d 1a f5 a9 bd
       0.067827694 0.015284055 0.095139 -0.082987025
000350 e1 3f 21 be da 25 97 bd 9b 1d 54 3e 72 b4 01 3e
       -0.15747024 -0.073802665 0.20714419 0.1266649
000360 f4 02 2a be 0f 48 1e 3d 4f b3 0c be 0a 51 1b 3d
       -0.16602689 0.03864294 -0.13740276 0.03791908
000370 f6 ab 86 3d 87 fc cf 3d c7 a1 1e 3c aa 89 0f 3e
       0.06575768 0.10155588 0.009682125 0.14017358
000380 1d 3e 14 3e b4 8f 9c bd ef 1f 08 3e 69 0a 59 3d
       0.1447682 -0.07644597 0.13293432 0.052988444
000390 91 ec 9d bd e1 d6 06 ba f0 6d 1b be d0 b7 26 bd
       -0.07711137 -0.0005143714 -0.15178657 -0.04070264
0003a0 8a 6b e3 3d cf be 34 bd f4 06 00 be ae fe ab 3d
       0.11104496 -0.04412728 -0.12502652 0.08398186
0003b0 d8 33 8c bc 83 a9 0f 3b 3b 75 45 be ea e5 f1 3c
       -0.017114565 0.0021921105 -0.19283001 0.029528577
0003c0 65 b1 af bd 95 9b 66 3d 04 b3 d7 bd 66 ad c7 bc
       -0.08578757 0.05630072 -0.105321914 -0.024374675
0003d0 80 38 56 bc 81 af 85 3d 8b 85 24 be 82 89 4c bc
       -0.013074994 0.06527615 -0.16066568 -0.012483956
0003e0 ac 6b bf 3c e8 36 42 3c 8d 4f 00 3e 3f e6 66 3d
       0.023366772 0.011853911 0.12530346 0.056371924
0003f0 4d e6 4d 3d bb 3b 33 bc 5b 8d 94 bc 8c 43 83 bd
       0.05026846 -0.010939534 -0.01813381 -0.06409368

network_body._body_endoder.seq_layers.2.bias f4 [128]
000000 c9 40 1e 3d 1c c2 33 bc f8 d6 9e bc 5d 77 5b bc
       0.038636003 -0.010971572 -0.019389614 -0.013395158
000010 5b 39 e2 bc 8b 13 ed 3c a0 a9 52 b9 a5 9e 85 bc
       -0.02761524 0.028939983 -0.00020090351 -0.016311
000020 7e 00 89 ba d8 4d 6b bc 36 dc df bb 80 db 1d 3c
       -0.0010452417 -0.014361821 -0.006831671 0.009634852
000030 59 ac 88 bb fa 49 23 3c 3f f6 2f 3c 5c c2 65 bc
       -0.004170936 0.009966368 0.010739862 -0.01402339
000040 ae c7 81 3b c6 11 91 3c 7f 33 0e 3c d8 28 d5 bc
       0.0039605713 0.01770867 0.00867927 -0.026020452
000050 08 50 03 3d 10 78 e9 3b c0 35 08 bc 68 fe a5 bc
       0.032058746 0.0071249083 -0.008313596 -0.020262912
000060 44 d6 92 3c 30 13 34 3b 7a 76 24 3d 1a 34 24 bc
       0.017924435 0.0027477257 0.04015205 -0.010022188
000070 1e 94 cf bb 82 c3 d9 3c bc 8d e7 3c e4 80 49 3c
       -0.0063347956 0.026582483 0.028265826 0.012298796
000080 17 3f bc 3b eb c2 17 3c 91 8b 82 bb a5 aa 93 bc
       0.0057448256 0.009262781 -0.003983923 -0.018025706
000090 6f 41 f1 bb 3a 37 df ba 97 4a 29 bc 04 b5 e0 bb
       -0.0073625366 -0.0017030009 -0.010332725 -0.0068575162
0000a0 d6 eb 32 3c 48 8c d0 3a 0a 53 a7 3c 16 49 fe 3c
       0.0109204855 0.0015910948 0.020425338 0.03104071
0000b0 5c 35 04 3d a8 ea ed 3c fc 3c 98 3c b0 b7 b7 bc
       0.03227745 0.029042557 0.018583767 -0.022426456
0000c0 8a 4d 0f bd 51 8a 2b bc 36 0e bc 3c 1b b5 29 3c
       -0.034986056 -0.010469989 0.022955995 0.01035812
0000d0 00 3d fa bc 29 65 4c 3c 38 2d d4 3c 9b 68 4a bc
       -0.030546665 0.01247529 0.025900468 -0.012354041
0000e0 57 a0 14 3d 85 a1 92 b8 f7 e1 20 bb ab b5 c4 3c
       0.036285724 -6.991908e-05 -0.0024548748 0.024012407
0000f0 9a d9 60 b8 d3 a4 b9 3c 20 fc 48 3c 91 db 8c 3c
       -5.360842e-05 0.022661602 0.0122671425 0.017194541
000100 01 43 be 3b 37 df 3a bb 13 58 67 3c 0d 97 a8 3c
       0.0058063273 -0.0028514394 0.01412012 0.02057984
000110 f7 1a d3 bc 8f 00 e1 3b a3 6e 69 3c 28 90 36 3b
       -0.025769694 0.0068665217 0.014247569 0.002785692
000120 d6 47 2c bc 88 b4 d3 ba 55 2e 1f 3c fc 3e dc 3b
       -0.010515174 -0.0016151825 0.009715636 0.0067213755
000130 ae 5d b0 3c a8 49 c0 3c a0 99 7d 3c 5e ba 53 3c
       0.021529045 0.023472622 0.015478522 0.012922851
000140 17 08 c1 3c f5 e4 79 3c a5 b1 61 3a f4 4e cb 3b
       0.023563428 0.0152523415 0.000860954 0.0062044803
000150 e4 bb c0 3c 37 9f 9c 3c 80 25 6c 3c 26 09 cb 3c
       0.023527093 0.019118888 0.014413238 0.024784636
000160 28 a2 57 3c 03 b3 1a 3d 1d 67 14 3c 1b 8c 49 3c
       0.01316122 0.037768375 0.009057787 0.01230147
000170 3a d6 af 3c 2a 67 a4 bc aa aa 08 3d 8c 33 8b 3c
       0.021464456 -0.020068724 0.033365883 0.016992353
000180 f3 ee 03 3c 13 11 9d 3c 74 12 d4 3c e4 7e 48 3b
       0.008052575 0.01917318 0.025887705 0.003059321
000190 33 30 ec bc 01 c2 33 3b c7 fa 76 3c 4f 94 c1 3c
       -0.028831577 0.0027428868 0.015074438 0.02363029
0001a0 8a 44 9f bc d8 f5 ed 3b 55 f7 95 bc 38 c3 49 3c
       -0.019441862 0.007261973 -0.018306414 0.01231461
0001b0 fc b6 01 3a 8c 0e b8 3b fe 29 d8 3c cc e5 05 3d
       0.0004948226 0.0056169685 0.026387211 0.032689855
0001c0 bf 52 90 bc 79 c7 13 3c 96 8a f9 bc 88 e8 82 bc
       -0.017617581 0.009019726 -0.03046159 -0.01598002
0001d0 1e 9a 94 3c e1 69 83 bc 46 d3 94 bb 04 c9 4f 3c
       0.018139895 -0.016041698 -0.0045417873 0.012682203
0001e0 16 0a 8b ba 5f bb 92 ba ee 39 85 3c d0 58 74 3b
       -0.0010607864 -0.0011194757 0.016262975 0.0037284382
0001f0 ab b3 d1 bb 38 00 48 3c 98 c8 98 bb d1 c3 a7 38
       -0.006399592 0.012207083 -0.0046625845 7.999654e-05

network_body._body_endoder.seq_layers.4.weight f4 [128, 128]
000000 a8 af aa bd 18 c1 85 bd 0a 8e 6c 3e b5 61 91 bd
       -0.08334285 -0.0653097 0.23101059 -0.07098714
000010 0b b0 ec 3c 7f b6 48 bc 2b eb 2c 3d be b2 37 bd
       0.028892538 -0.012250542 0.04221646 -0.044848196
000020 fa db 90 bd 5a 68 fc 3d 19 b9 88 bd de b0 59 3d
       -0.07073207 0.12324591 -0.066759296 0.05314719
000030 e8 cb 10 bd 1f 44 11 3e 2e 11 0e 3e 66 1c 29 3e
       -0.03535071 0.14186142 0.13873741 0.1651474
000040 6e 88 b0 3c 3e ce 90 3d 75 d9 8e bd 72 c5 e3 bc
       0.02154943 0.070705876 -0.069750704 -0.02780411
000050 ef ee e0 bd 0f b8 b3 bc 3c 62 e4 3d ce 5c 0e 3e
       -0.10983073 -0.021938352 0.11151549 0.1390259
000060 22 e4 2f 3d e1 b2 83 3d 05 66 3f bc 77 69 fe 3c
       0.042942174 0.06430603 -0.011682038 0.031056149
000070 08 69 44 3d 2d d4 85 3c 67 99 8a 3c b6 5e 7f bd
       0.047951728 0.016336525 0.016918851 -0.062346183
000080 97 94 93 be 54 39 68 37 d4 3b 0e bd ff f8 aa bd
       -0.28824303 1.3841625e-05 -0.034725025 -0.083482735
000090 12 2b a0 bd 06 41 e6 bd 6a bc c0 3d 24 1a 25 bc
       -0.07820715 -0.11242871 0.09410937 -0.010077033
0000a0 c3 95 aa bd 85 e0 47 bd a9 c8 ad 3c dc b2 2b 3d
       -0.08329346 -0.048798103 0.021213846 0.04191862
0000b0 ae 28 f5 3c f4 aa dc bc 6d e8 0c bd 0a cd 48 bd
       0.029926624 -0.026936986 -0.034401346 -0.049023665
0000c0 22 30 34 be 22 25 9c bd f9 78 ad bd 0d 11 03 3e
       -0.17596486 -0.0762427 -0.08470339 0.12799473
0000d0 e2 ba 37 be 82 c3 13 bd 2e 0d 72 39 51 a6 40 3e
       -0.17942384 -0.036075123 0.00023083828 0.18813445
0000e0 6b 1e 18 3e 22 e4 e0 3d 8e 58 4c 3d 2b d6 31 be
       0.14855354 0.10981013 0.04988914 -0.17366855
0000f0 d7 04 26 be 80 57 bf 3d a5 2a 49 be 4c d4 a6 bd
       -0.16212784 0.09342861 -0.19645174 -0.08145961
000100 8f c2 b3 bd 93 b7 10 bd 21 0a 8d 3d a7 59 bf 3c
       -0.087773435 -0.03533132 0.068866976 0.02335818
000110 20 f9 bd bd 66 a6 99 3c 95 62 1d be ca c4 5d bc
       -0.092760324 0.018756103 -0.15369637 -0.013535688
000120 78 a2 cb 3d a0 97 75 3d 26 3c 9f bc 50 60 88 bd
       0.09943098 0.059959054 -0.01943786 -0.06658995
000130 16 e2 36 3c 8c f7 c7 bd 2d 57 8e 3d 20 48 bb bd
       0.0111623015 -0.09764013 0.06950221 -0.09144616
000140 4a 17 84 bd aa dd 65 3c 32 aa d5 bd 7b ff 24 bd
       -0.064497545 0.0140299 -0.10432853 -0.040282708
000150 a9 5e 2a 3d 82 ea df bc a2 0a f7 bd 9f 82 39 3e
       0.04159418 -0.027333502 -0.12062575 0.18116234
000160 66 4b 10 be f2 5d 39 be fe 91 14 3d a0 8c 35 3e
       -0.14091262 -0.18102244 0.03627204 0.17729425
000170 0a a1 0d be 3e 3e 08 bc 31 f6 22 3d db 2f d4 bc
       -0.13830963 -0.008315621 0.039785568 -0.025901726
000180 ec 47 bd bb 04 a7 16 3e 16 d5 88 be 09 31 a5 3d
       -0.005776396 0.14712149 -0.26725072 0.08065993
000190 f5 c5 ad 3d fa 74 32 bd 2b 62 6a bd 8e d7 4c be
       0.08485023 -0.04356859 -0.057222527 -0.20004103
0001a0 a7 25 8a 3d 06 8e 24 3e da 97 82 3c fd f9 5d 3d
       0.06745463 0.16069803 0.01594155 0.054193486
0001b0 0b b5 48 be e6 7b 00 3e bf b2 4d bd 1a 35 57 be
       -0.19600312 0.12547264 -0.050219294 -0.2101635
0001c0 b1 de 3a bd 45 98 fe 3b 67 cb f4 bc 7a 57 95 bc
       -0.04562253 0.007769617 -0.029882146 -0.018230189
0001d0 0b 19 c3 3d 37 3e 2f 3d db 73 93 bd 85 db 85 3d
       0.09526261 0.042783942 -0.07199832 0.06536011
0001e0 64 e5 40 be d4 a3 50 bc c4 13 c9 bd b4 a4 dd bd
       -0.18837506 -0.012734372 -0.09818223 -0.1082243
0001f0 e6 3f e6 ba ae 31 32 3e 53 0e 60 bc f0 e9 26 3e
       -0.0017566651 0.17401764 -0.01367529 0.16300178
000200 66 8c b5 3b b8 c3 2f bd bc 91 4d 3d 32 0b df 3c
       0.0055404184 -0.04291126 0.05018781 0.027227018
000210 ad 5e d8 3d 35 21 28 3d cd 1b d4 bc 25 ad 65 bd
       0.10564933 0.041047294 -0.025892163 -0.056073327
000220 b9 ab 33 bd 8a df 5b be 9c ea 1d 3e ee a3 cf bc
       -0.04386494 -0.21471992 0.15421528 -0.025346722
000230 f1 fd 1c 3e 3f d3 a4 3d b1 7f aa 3d ae c1 c6 bd
       0.15331246 0.080481045 0.083251365 -0.0970491
000240 2c d8 15 be 0f 05 1c 3d ef f9 c3 bd ea e4 8d 3d
       -0.14633244 0.03809076 -0.095691554 0.069284275
000250 f8 7d 29 bd a6 49 27 3d 80 cb 16 3e 1a f8 41 bd
       -0.0413799 0.04084172 0.14726067 -0.04735575
000260 d0 f0 fb 3a bb f1 da 3b 66 79 c4 bd 84 5b 9c 3d
       0.0019221548 0.0066816485 -0.095934674 0.07634643
000270 f2 06 20 3e 51 64 c9 3d 28 20 af bd d8 1c 2c bd
       0.1562765 0.09833587 -0.08551055 -0.042019695
000280 b3 42 d2 bd 77 86 5e 3e 0f 77 c4 3c 39 ce 59 bc
       -0.10266628 0.21730982 0.023982553 -0.013293796
000290 44 34 d7 bd cc e9 73 3d 0d 04 d2 3c e4 4e 65 bc
       -0.10508016 0.059549138 0.025636697 -0.01399586
0002a0 46 db a3 bd dc e5 ca bc 30 16 c2 bc 1e 09 56 3c
       -0.080008075 -0.024767809 -0.02369222 0.013063697
0002b0 6b 7e 04 be 43 e6 01 3d b7 ff 08 3e 5a 00 b8 bd
       -0.1293885 0.031713735 0.13378797 -0.08984442
0002c0 e2 38 6d 3c 53 ad 79 3d fd 9a 37 3e cf 77 91 3d
       0.014478894 0.06095631 0.17930217 0.0710293
0002d0 1a ab d8 bd d6 73 e7 bd ee 12 04 bd 42 62 0c 3e
       -0.1057951 -0.11301391 -0.032244615 0.13709357
0002e0 1a 99 91 bd 3b db 02 be bb a5 b3 bd 49 e3 87 3d
       -0.0710928 -0.12778942 -0.08771845 0.06635148
0002f0 53 f3 66 3c 98 0f 22 3d e9 d1 67 3e 7e f2 56 3d
       0.014096099 0.039565653 0.22638668 0.052477352
000300 f8 c9 10 3e 83 77 28 bc 32 e6 1b 3e 82 73 69 3d
       0.14139545 -0.0102824 0.15224531 0.056994922
000310 d6 f0 4a 3e 4c 67 be 3b 81 31 18 3e ef fd 11 bd
       0.19818434 0.005810654 0.14862634 -0.03564256
000320 7d d1 26 3d 26 32 47 bd 25 e2 cc 3d 42 32 73 bc
       0.040727127 -0.04863181 0.10004071 -0.014843525
000330 49 c8 43 3d 71 9e 1b be 75 ca c5 bd 36 5f 5b bd
       0.04779843 -0.1519716 -0.09657756 -0.053557597
000340 61 58 04 3e f6 1a 00 3e 19 82 20 bd 6c 02 b9 3c
       0.12924339 0.12510285 -0.03918657 0.022584163
000350 be 2b d2 bd c6 1a df bd 2c 7d 83 3d 8e ec 48 bd
       -0.102622494 -0.108937785 0.06420359 -0.04905372
000360 d7 64 93 bd e7 be 72 3d ee 51 df b7 4a 44 3d be
       -0.07196968 0.05926409 -2.6621823e-05 -0.18483081
000370 df f3 0e 3e 21 05 92 3d 72 88 29 be 10 91 af 3d
       0.13960217 0.071298845 -0.16555956 0.0857259
000380 63 6a ce bd ea 2f e8 bc 61 2b 9c bd da ba f7 bd
       -0.100788854 -0.02834316 -0.07625461 -0.12096186
000390 7c a6 d1 3d 63 93 63 3d 93 d7 12 be 7a 4f 37 bc
       0.102368325 0.05556048 -0.14340048 -0.011188382
0003a0 a4 ca ec 3b 03 72 d1 bd 2f f2 3c 3c 01 15 03 3e
       0.007226305 -0.10226824 0.01153235 0.12800981
0003b0 9f 1c 8e bd 19 c5 24 3e 10 96 2f be 69 3b d6 3d
       -0.06939053 0.16090812 -0.17147088 0.1046055
0003c0 ec 1a bd bc 89 88 94 bc 25 e0 23 3d e4 d2 0c bd
       -0.023084126 -0.018131511 0.040008683 -0.03438081
0003d0 9b 87 8f 3c 33 d0 ef bd b9 c9 a9 bd b2 18 0b bd
       0.017520716 -0.11709633 -0.08290429 -0.0339591
0003e0 c8 c8 05 3d 5d a2 85 3c 6b 16 32 bb be c9 0e be
       0.032662183 0.016312772 -0.0027174007 -0.13944146
0003f0 d6 1f 31 bb 14 69 15 bc 0b be 16 3b 24 e9 5c bd
       -0.0027027032 -0.009119291 0.0023001458 -0.053933278

network_body._body_endoder.seq_layers.4.bias f4 [128]
000000 d3 d3 d8 3c 3c 20 24 3b 58 1b 0d 3d 7e 5d b9 3b
       0.026468193 0.0025043627 0.034449905 0.005656897
000010 52 f3 85 3c 48 ac 79 bb 3b 98 3b 3b 49 ed 0c 3d
       0.016351376 -0.0038097072 0.0028624672 0.03440598
000020 62 ee 91 3c 05 8e 01 bc c8 95 17 bb 55 4d de bc
       0.017813865 -0.007907395 -0.0023130048 -0.027136484
000030 e5 b8 35 bb 03 ae 06 bc bd a1 d3 bc f5 84 70 3c
       -0.0027728614 -0.008220199 -0.025833959 0.014680137
000040 68 ff 01 bc e0 19 bd 3c 3a 7c e2 bc 83 c9 a3 bc
       -0.007934429 0.023083627 -0.027647126 -0.01999355
000050 a9 1f e5 3c 14 7b 25 bc f3 4d 82 3c 19 81 08 3b
       0.027969198 -0.010100145 0.01590631 0.0020828901
000060 ff 9e 44 bc fd 15 65 3c 63 7b 73 bc 89 64 89 bc
       -0.012000798 0.013982293 -0.014860961 -0.016771572
000070 56 03 d3 3a cf 30 85 3c 87 75 03 3d f5 96 1e bc
       0.0016099017 0.016258625 0.032094505 -0.009679546
000080 85 b0 c5 ba 57 10 c8 3b 3a b3 46 3c c1 36 91 3b
       -0.0015082514 0.0061054635 0.012127692 0.004431576
000090 30 41 75 bb ea fc 8d 3c ec 61 85 bc cb 22 0b 3d
       -0.0037422888 0.017332513 -0.016282044 0.033968728
0000a0 d4 d9 1e bb a8 c0 19 bb fd e8 63 bc 09 f0 00 3d
       -0.0024238722 -0.002346078 -0.013910529 0.031478915
0000b0 a0 58 94 3c b6 30 10 bc 29 5d 5c 3c 56 ec a4 3b
       0.018108666 -0.008800676 0.0134499455 0.0050330563
0000c0 47 52 f1 3a f5 f4 3b 3c 8a 6e ba 3b 1b 42 4e 3c
       0.0018411361 0.0114719765 0.005689447 0.012589003
0000d0 36 7e 66 3b 91 b9 8d bc f7 e1 3e 3c db 12 c4 3c
       0.0035170442 -0.017300399 0.011650554 0.023934772
0000e0 d8 b5 42 bb 2b 42 e4 bb 08 bb ac 3b 1b 6f 0c bb
       -0.0029710438 -0.0069658956 0.0052713193 -0.0021428529
0000f0 3c bd cb bb 39 86 a2 3c ad 10 99 bc 90 47 c1 3c
       -0.006217627 0.019839393 -0.01868471 0.023593694
000100 fb 52 12 bc e0 60 c4 3c 11 c6 99 bc 6d f6 83 bc
       -0.008930917 0.023971975 -0.018771203 -0.016108716
000110 52 64 89 bc f3 bb 37 bc e9 25 20 3c 43 7f 88 3c
       -0.01677147 -0.011214244 0.0097746635 0.016662246
000120 bc 7e e7 3c ef 4f 60 bc 06 69 23 3c 5a cc 73 3c
       0.028258674 -0.013690933 0.00997377 0.014880264
000130 f2 58 57 bc f5 85 84 3c 59 f3 8f 3c a5 70 fb bb
       -0.013143765 0.016177157 0.017572092 -0.0076733404
000140 73 1a 15 3c 72 d1 72 bc cd f7 9f 3c e1 fa dd 3c
       0.009100544 -0.0148204435 0.01952734 0.027097167
000150 39 0c 8b ba e4 16 63 3c b9 32 c5 3c 3e 2b f5 3b
       -0.0010608501 0.013860438 0.024072038 0.0074819615
000160 0b 73 a1 3b 01 50 e0 3c d8 94 13 3c fb 34 38 bb
       0.0049270443 0.027381899 0.009007655 -0.002810775
000170 da b5 8d 3c a4 c5 d8 bc 41 de ad bc 5c d2 85 3c
       0.017298628 -0.02646143 -0.021224143 0.016335659
000180 f8 4e 03 3b d7 07 33 bc d0 23 b7 3c c6 4d a9 3b
       0.0020036083 -0.010927162 0.022355944 0.005166742
000190 98 05 4f 3c f8 cf be 3c 1c 88 cd bb 3f c0 43 3c
       0.012635611 0.023292527 -0.006272329 0.0119476905
0001a0 7e f3 dd 3c c0 21 db bb b8 27 ec 3a a0 e1 25 bc
       0.027093645 -0.006687373 0.0018017208 -0.010124594
0001b0 16 65 f0 3c df 66 34 bc 62 72 bf 3c bb 2f cc bb
       0.029345077 -0.0110108545 0.023369972 -0.006231276
0001c0 f8 07 24 3c 72 f6 03 bb 84 08 62 3c 89 30 a9 bb
       0.0100116655 -0.0020135907 0.013795976 -0.0051632565
0001d0 bf 72 28 3c 70 27 77 3c 68 f3 0c 3d c8 86 9e bc
       0.010281264 0.015085086 0.034411818 -0.019351378
0001e0 cf 38 a8 bb 18 9b ce 3c 43 75 e0 bc 52 fb 93 3c
       -0.0051337252 0.025220439 -0.027399665 0.018064175
0001f0 1e 52 41 bc d4 10 a2 3c 33 67 e8 bc 2f 3f bd 3a
       -0.011799363 0.019783415 -0.028369522 0.0014438386

network_body._body_endoder.seq_layers.6.weight f4 [128, 128]
000000 82 56 14 3c 14 43 17 3e c5 5c 07 be 28 bc 1c 3e
       0.009053828 0.14771682 -0.13218983 0.15306151
000010 62 6f 82 bd 70 d9 53 bd 5f 22 ce 3d cf b1 5e bd
       -0.06368901 -0.051721036 0.100651495 -0.05436879
000020 22 60 cc 3d 0d d3 c8 3d f9 15 39 3e 10 44 d5 3d
       0.099792734 0.0980588 0.18074788 0.104133725
000030 87 98 ea bd ae 50 69 3d e9 96 96 bb 52 fb 13 3e
       -0.114548735 0.056961708 -0.0045956266 0.1445134
000040 8f da cf bd 0c 1a 00 3d c5 99 74 bd 6f 67 5b 3e
       -0.101491086 0.03127484 -0.05971696 0.21426176
000050 49 3c ca bd 17 96 e5 3c 44 49 82 3d 0f 20 16 3e
       -0.0987478 0.02802567 0.063616306 0.14660667
000060 ba b2 47 3d 32 80 2a bd 80 0f a7 bd dd 5d 05 bd
       0.04875443 -0.041626163 -0.08157253 -0.032560218
000070 43 d1 23 be a7 58 9b bd 66 57 94 bc 5d d7 cd 3d
       -0.15997796 -0.075852685 -0.018108081 0.10050843
000080 96 ea 29 3e 19 75 bc 3d 34 f8 bb bb a4 66 44 b9
       0.16593394 0.09202022 -0.005736375 -0.00018730253
000090 d4 3a 74 bd 4f 74 b3 bd 56 30 8d bd 10 54 58 b9
       -0.059626415 -0.087624185 -0.06893985 -0.00020630681
0000a0 b5 53 d6 b9 14 9a 74 bd 88 8a a6 3d 8a e0 8d bd
       -0.00040879627 -0.059717253 0.081318915 -0.06927593
0000b0 95 fa a7 bc 77 be 30 3e 92 dd e1 3c 67 3f f0 bc
       -0.020505229 0.17260157 0.027571473 -0.029327108
0000c0 8d 63 c4 3d 7d 75 17 bd 13 0c 56 3e 1d 63 57 be
       0.095893 -0.03697728 0.20903043 -0.21033902
0000d0 6b 1e 13 be b8 bf db 3c 50 3a 63 bd 23 82 21 3d
       -0.14367072 0.026824817 -0.055475533 0.03943075
0000e0 72 e4 93 bd 5d 6a ab bd d5 eb 34 bd c8 0f 26 3d
       -0.07221307 -0.083698966 -0.04417022 0.040542394
0000f0 ec ed 40 3d 5e b4 3e 3d f5 27 c4 3d 41 8e 5d bd
       0.0471019 0.04655873 0.09577934 -0.054090742
000100 1c e9 8d 3d a0 76 f5 bb 42 30 59 3c 5e 1f 65 bd
       0.06929228 -0.007490948 0.013256134 -0.055938117
000110 d2 b4 72 3d 6b c0 2d bc ff 7d 5d bd 47 96 f9 bc
       0.059254475 -0.010604958 -0.054075237 -0.030467166
000120 e2 59 86 bd 80 f5 05 bc 6b 48 55 3d 0e b4 76 3d
       -0.065601125 -0.008176208 0.052071016 0.060230307
000130 23 67 0a 3e 47 b2 fe 3c f8 95 64 be e5 5a 01 3e
       0.13515906 0.031090869 -0.22322834 0.1263233
000140 f1 37 b3 3d c7 c8 af 3d 06 20 2a 3e a1 2e 9a bd
       0.08750904 0.08583217 0.16613778 -0.07528425
000150 44 ec 3c 3e ed 2a 93 bd 15 f3 da bd 83 cb 81 3d
       0.18449503 -0.07185922 -0.106908955 0.06337645
000160 a4 22 f8 bd b6 b0 29 be cc b0 2e be 61 b1 be bc
       -0.12115982 -0.16571316 -0.1705963 -0.02327794
000170 b1 d3 bb bd c4 df 3b bd ac 6c c2 bc be 39 ac bd
       -0.09171236 -0.045867696 -0.02373346 -0.08409451
000180 c3 ce de 3d a2 00 9b 3d 41 ba d1 bd 47 14 06 3d
       0.108792804 0.0756848 -0.10240603 0.03273418
000190 36 75 37 3b 23 26 09 3a 51 8b 26 3e 23 8e 62 3e
       0.0027993447 0.0005231818 0.16264082 0.22124533
0001a0 3f 5e 90 3c d8 e1 33 bd 98 fe ea 3c e8 6c 56 3e
       0.017623065 -0.043916553 0.028685853 0.20939982
0001b0 6a a4 b3 3c 96 fd 0a 3d a9 22 a8 bd e0 8f fa 3d
       0.021928985 0.033933245 -0.08209736 0.12234473
0001c0 b2 8b 2b bc 6e 7e c2 3d ce 6d 0b 3d b1 ee c4 bb
       -0.010470318 0.09496771 0.034040265 -0.0060098995
0001d0 60 07 3a bd ef 09 27 3d 24 61 20 3d ca e8 c5 3c
       -0.04541719 0.040780958 0.03915514 0.024158854
0001e0 66 2f 32 3d 74 58 84 bd e5 0c 37 3d 34 e4 a3 3d
       0.043502234 -0.064621836 0.04469003 0.08002511
0001f0 0b 3b e9 3b 84 e8 f3 bd ed cf 14 bb 19 ec 1b bd
       0.007117634 -0.11909583 -0.0022706941 -0.038066957
000200 53 e6 b3 bd 64 50 ad 3b 2e c2 ce 3d 97 3e 1d bb
       -0.08784165 0.0052891243 0.100956306 -0.0023993605
000210 22 ac fc 3d 56 e4 c5 bd d8 f1 03 be 7c 3e 73 3d
       0.12337519 -0.09662692 -0.12885225 0.05938576
000220 88 2e d6 3d 65 77 92 bc c8 e7 20 3d 5f 71 40 bd
       0.10458094 -0.017879197 0.039283544 -0.04698312
000230 c7 6f 02 be 8e df 38 bb 79 fc c4 bd 9b b5 69 3d
       -0.12737952 -0.002820942 -0.09618468 0.057057958
000240 85 9f 17 bd 1e fa 96 3c c8 9d f8 3c 2c 72 cf bd
       -0.037017364 0.018429812 0.030348673 -0.101291984
000250 c9 48 f7 bc 79 fc 8c 3d 42 69 06 3d b7 30 d0 3d
       -0.030186074 0.06884093 0.032815225 0.101655416
000260 10 de 23 3a e4 0c 37 3d dd 7d ca bd b0 0e 3b be
       0.00062510464 0.044690028 -0.09887288 -0.18267322
000270 47 29 8b bd 2d a5 e3 3c 03 46 3a 3d 76 66 b7 bd
       -0.067949824 0.027788723 0.045476925 -0.0895509
000280 22 06 44 3d 95 3d 6f bd aa f1 c0 bc 04 21 ec 3c
       0.04785741 -0.05840834 -0.023552734 0.028824337
000290 70 80 15 be b2 2a c9 bc f4 b8 a4 bb 2a 7e cb 3c
       -0.14599776 -0.024556492 -0.005026931 0.024840433
0002a0 6e 92 5c 3a 28 30 bf 3d 17 8b 27 bd 94 52 c4 bd
       0.00084141537 0.09335357 -0.04090413 -0.09586063
0002b0 f1 63 a6 3b a0 d9 75 3d 29 c5 e2 3c 53 26 84 bc
       0.005077832 0.060021996 0.027681904 -0.016131556
0002c0 ea e0 59 bd a5 81 93 3c 01 5a 0a 3e 6c db 96 bd
       -0.05319301 0.018006155 0.13510896 -0.0736607
0002d0 3b d5 6a bd f7 7f ea bd 78 ec 53 3e 3e ce 06 3e
       -0.05733226 -0.114501886 0.20695674 0.13164613
0002e0 ae f3 0a be e5 32 42 bd 93 f1 8c be ac 71 9d be
       -0.13569519 -0.047411818 -0.27528057 -0.30750787
0002f0 f1 f8 d6 bd 46 fd e1 3c c4 26 19 bc 76 fe a5 3d
       -0.104967006 0.02758659 -0.009347621 0.08105175
000300 42 f4 fa bd 8f 6a 25 bd 48 9a 41 3c fe 62 9a bd
       -0.1225362 -0.040384825 0.011816569 -0.075384125
000310 cf 3f 08 be 16 83 82 3d 17 bd 4e 3c 11 78 7f bd
       -0.13305591 0.06372659 0.012618325 -0.062370364
000320 4b c1 27 3e dd fd eb bb 5b ac b4 3d 5d 1e 04 3d
       0.16382329 -0.0072018937 0.08821937 0.03225552
000330 c4 d3 86 bc ed ac 95 bd 65 44 61 bd 34 46 cc bd
       -0.0164584 -0.073083736 -0.054996867 -0.09974328
000340 20 d6 37 3d bf 9b da 3b 59 ba 17 3e 3c c8 51 3d
       0.04488194 0.0066713984 0.1481718 0.05121635
000350 e3 ab ac bd e6 80 ab 3d bc e9 66 3d 25 59 ee bc
       -0.08431222 0.08374195 0.05637525 -0.029095242
000360 a5 fb a2 3d 91 f8 a7 3b 8f 1b 10 be 3d 20 b4 bd
       0.07958154 0.005126067 -0.14073013 -0.087952115
000370 48 12 fb bc 5e 64 73 3d 36 ea 6b bc 4d 24 de 3d
       -0.030648366 0.05942189 -0.014399102 0.108467676
000380 56 53 04 3e 28 0f 9c 3d 39 bb c9 3d 9c 38 45 3c
       0.12922415 0.07620078 0.09850163 0.0120374225
000390 76 98 0c 3e 3e e1 e5 3d 19 c5 f9 3c f2 20 b1 bc
       0.13730034 0.11224602 0.030489491 -0.021622155
0003a0 f1 81 d5 3c 26 42 97 bb 0c 74 1d be 32 36 e5 3d
       0.026062937 -0.00461604 -0.153763 0.111919776
0003b0 e2 95 c2 3d 80 4d f3 3b 41 7f 89 3c 11 79 fb bb
       0.09501244 0.00742501 0.016784312 -0.0076743443
0003c0 79 62 82 bd c1 be d0 3c be d3 f4 bd 61 52 b1 3b
       -0.063664384 0.025481584 -0.11954449 0.0054114317
0003d0 e6 f4 1c 3c c8 e0 a0 3d 0f 1b 18 be 02 2c 7a bd
       0.009579873 0.078553736 -0.14854072 -0.061077125
0003e0 ec b2 fd bd 71 e8 72 3d c9 60 0b be 0f b3 d2 bd
       -0.12387642 0.059303705 -0.1361114 -0.10288059
0003f0 e5 d5 30 be 41 d1 8e 3b 2b f9 6d bd e6 aa ad bd
       -0.17269094 0.004358441 -0.058098953 -0.08479862

network_body._body_endoder.seq_layers.6.bias f4 [128]
000000 61 de d9 3a 51 79 03 3d 2f cc 80 ba ca 6a 50 3c
       0.001662206 0.03209812 -0.0009826476 0.012720773
000010 58 56 a3 3c 35 a7 9d 3a d5 36 ce 3c d3 cc b0 3c
       0.019938633 0.0012027981 0.02517263 0.021582043
000020 c1 c1 9b 3c 7b 75 a9 3c 64 f1 f3 3c 31 1d 91 3c
       0.019013287 0.020685902 0.02977819 0.017714115
000030 39 1a 26 3c b3 81 61 3c 0c f6 de ba 28 73 91 3c
       0.010138088 0.013763833 -0.0017010584 0.017755106
000040 ca 14 d7 3b ce 11 a0 bc 96 ac ab 3a de c7 1c 3c
       0.0065637575 -0.01953974 0.0013097699 0.009569136
000050 b5 fd 8d 3c 8d 8b 92 3c 3c 96 67 bb eb 7b 64 bb
       0.017332891 0.017888809 -0.003533735 -0.00348639
000060 bf 4e 8f bc a6 8d b9 bb d1 46 09 bb a3 36 45 3c
       -0.017493604 -0.0056626378 -0.002094675 0.012036952
000070 f7 5c 9c 3a 3b 62 44 bc 27 e9 8a bc 6e ab 93 3c
       0.0011929561 -0.011986311 -0.016956879 0.01802608
000080 46 2b 87 bc 49 cd 4f bc 0e 2d fb bb 4c bb 06 3c
       -0.016500127 -0.012683221 -0.007665283 0.008223366
000090 58 fd 05 3b be b4 8d 3c 14 52 92 bc d4 03 4b bc
       0.0020445194 0.017298099 -0.017861404 -0.012391049
0000a0 67 34 ac 3c 3e 59 b4 bc f3 88 33 3c 31 01 d9 3b
       0.021021081 -0.02201521 0.010957944 0.0066224565
0000b0 9c b0 96 3b a4 4e f4 3c dd b6 1f 3c 39 63 52 bc
       0.00459869 0.029822655 0.009748188 -0.012841039
0000c0 83 6d dc 3b 37 f9 5c 3b ba e2 3d bc 3c c9 63 3c
       0.006726922 0.003371788 -0.0115897 0.0139029585
0000d0 ec 0b 68 3c 6d 5b d3 3c 90 c4 34 3c 23 0d 78 3c
       0.014162999 0.025800431 0.011033192 0.015139851
0000e0 07 03 0c 3d 17 db 84 3c ce da d1 3b cd e3 48 3c
       0.034182575 0.016217751 0.0064042574 0.012261343
0000f0 07 78 b0 bc 4e 38 08 3c d0 c1 ad bb 38 19 cf 3c
       -0.021541608 0.008314205 -0.0053026453 0.02528058
000100 66 94 81 3a a4 ee 15 bc 78 7f 4b 3b 09 b1 1b 3c
       0.0009886145 -0.009151135 0.003105132 0.009502658
000110 7b b7 c6 3c 35 62 31 3c da 8c 18 3b c6 64 ba 3a
       0.024257412 0.010826637 0.0023277313 0.0014220707
000120 2c d0 2f 3c 33 e7 94 3c a4 6a 51 3c c4 c8 9b 3b
       0.010730784 0.01817665 0.012781773 0.0047541577
000130 30 5c 22 3c ba 4f 73 3c 05 ef ab bc d5 11 0d 3d
       0.0099096745 0.014850551 -0.020987997 0.034440834
000140 2b f4 30 3b c3 dd 82 3c 28 f0 58 3b fa fa ac ba
       0.0027001004 0.015974885 0.0033102129 -0.0013197355
000150 7d 09 87 3c 49 13 81 3c 70 a9 b7 bc cc 77 17 3d
       0.016484017 0.015756266 -0.022419661 0.03697948
000160 9d 3e e1 3c 97 0b 26 bc 79 05 a0 3b fd 54 4a 3b
       0.027495677 -0.010134599 0.004883465 0.003087341
000170 be c1 75 3c e1 91 10 3d db 36 96 bc f7 e9 c5 bb
       0.014999805 0.03529537 -0.018336704 -0.0060398537
000180 66 48 c2 3c b2 ac c8 3c 25 71 01 3c d9 ec 22 3c
       0.023716163 0.02449641 0.007900511 0.009944164
000190 09 4a 04 3d dd cc 31 3c 9f 42 1d 3c 51 64 33 3c
       0.032297168 0.010852066 0.009598403 0.01094921
0001a0 a4 39 57 bc 08 fa 9e bc 97 67 29 bc 54 3f ec 3a
       -0.013136301 -0.019406334 -0.010339639 0.0018024244
0001b0 65 03 25 3c 53 63 a5 3c e3 4d ec 3c bb 2e 9a ba
       0.01007161 0.020188963 0.028845733 -0.0011763194
0001c0 4f ab 3f bc 37 c9 e0 37 07 94 09 3c bd 8d 11 3d
       -0.011698558 2.6796579e-05 0.008397109 0.035535563
0001d0 01 b1 55 3c 63 f5 28 bb 37 bb 7d 3c 4c a4 db 3b
       0.013042689 -0.0025781028 0.01548653 0.0067029353
0001e0 a6 16 c7 3b 84 bd 92 3c 29 8a c3 3c 6f 08 86 bb
       0.006075698 0.017912634 0.02386959 -0.004090361
0001f0 3b 46 07 3c 43 9a a8 3b b9 62 a3 3c a8 e4 13 3d
       0.00825649 0.0051453426 0.019944536 0.036106735
