Assets/Models/Collector2.onnx (onnx, 307813 bytes, 13 tensors)

network_body._body_endoder.seq_layers.0.weight f4 [128, 68]
000000 90 43 18 be 49 3b 46 be 2e 94 fd 3d 07 7e 1b bc
       -0.14869523 -0.19358553 0.12381779 -0.0094904965
000010 da 61 88 3e c5 60 8d 3d 4d 2b 4e bd cb 77 4e be
       0.26637155 0.06903223 -0.050334264 -0.20162885
000020 be af 0f 3e be 9a f4 bd 92 9e cc bd c2 c8 87 3e
       0.14031884 -0.11943577 -0.099911824 0.26520354
000030 e2 a3 2c 3e a6 e0 ab 3d 4b 5f c7 bc 2e 93 b1 bd
       0.16859391 0.08392458 -0.024337431 -0.086706504
000040 4b 19 05 bd 13 31 40 bd 11 ae ff bc ce 89 83 3b
       -0.032494824 -0.0469218 -0.031210931 0.0040142303
000050 16 1e 50 bd 62 57 ca bd fa 82 11 3e 54 5c 5a 3d
       -0.050809942 -0.09879948 0.1421012 0.053310707
000060 f4 41 97 3d e9 67 43 3c 64 97 72 be de b1 03 3d
       0.073856264 0.01192663 -0.23690563 0.03215205
000070 fa 19 9d 3c dc e2 ec 3d 21 43 71 3e b0 6f 09 3e
       0.019177426 0.115667075 0.23560764 0.13421512
000080 37 53 a2 3d b0 3c 92 be b8 7d 46 bb 22 e6 86 bd
       0.07926028 -0.28561926 -0.0030287337 -0.06586863
000090 9d 73 da 3c c9 f7 4a 3c 35 44 36 3e d9 ef 91 3e
       0.026666457 0.012388178 0.17799456 0.28503302
0000a0 33 80 05 3d 75 67 e3 3b b4 45 05 3d f8 2a 0e bd
       0.032592963 0.0069398233 0.032537177 -0.034708947
0000b0 04 fe 1e 3c 18 9a 8d bd 95 bf 8c bd bd 91 e9 bc
       0.009704117 -0.06914157 -0.06872479 -0.028511876
0000c0 f2 e9 1e be ff 3a 0f be aa 15 c9 3d c0 24 68 bd
       -0.1551893 -0.13987349 0.09818585 -0.056675673
0000d0 6e 50 e0 bd a4 70 3c bd 41 ef 87 be 2c ae 0e bd
       -0.10952841 -0.04600586 -0.26549724 -0.034834072
0000e0 83 ba 92 3d b8 ed 51 3e 9c 04 19 3e 9f 5c 58 bc
       0.071644805 0.20500839 0.14943165 -0.013205676
0000f0 e4 42 c6 3e f0 7f 6a 3d 4a b5 5f 3e 0f 4a db bd
       0.38722908 0.057250917 0.218465 -0.10707485
000100 aa 0d 97 3d d8 c1 c0 bd e4 54 cc bc b4 93 8d 3d
       0.07375653 -0.09411973 -0.024942823 0.06912938
000110 44 f6 50 be ef 35 ef bc 0b 94 46 3d 4b 4f 6c bc
       -0.20406443 -0.029200522 0.04848103 -0.014423202
000120 63 ed 0d be 23 83 4f 3d 6f 6e ea bc 1a 1d aa 3d
       -0.13860087 0.05066217 -0.028617112 0.08306332
000130 f5 d0 fc bd f2 6e c1 3d 69 3b 19 be 97 9a 83 3d
       -0.12344543 0.09444989 -0.1496407 0.0642597
000140 79 3d 1f be 72 3c a7 3d d8 58 fa 3c f9 5b c5 bd
       -0.15550794 0.08165826 0.030559942 -0.09636683
000150 49 3d 19 3d 39 2c f7 3d 30 34 40 3c 04 24 4c bd
       0.03741196 0.12068982 0.0117311925 -0.049839035
000160 56 cd f5 3d 05 f6 56 3e e3 a0 7a 3b 57 fe d4 3c
       0.12002055 0.20992287 0.0038242869 0.026000185
000170 3c 95 b5 bc a3 e6 b4 3e 82 1c 3f be 0f 56 40 3d
       -0.022165887 0.35332212 -0.18663219 0.046957072
000180 f4 15 bb ba e7 26 b1 3d ab 7b 36 be 98 66 fc bd
       -0.001427351 0.08649998 -0.17820613 -0.12324256
000190 89 d0 9a 3d 84 5c bc 3d e8 5c ca bc d1 0a b0 bd
       0.07559306 0.091973335 -0.024702504 -0.08595813
0001a0 6b 8e 3e 3e ce 93 12 3d dd c1 28 3a dc c6 6c 3d
       0.18609016 0.03578549 0.0006437579 0.057806835
0001b0 a9 29 f0 bd 7c fc 8f 3a 0f ff 33 3e d2 60 d6 bc
       -0.11726696 0.001098528 0.17577766 -0.026169214
0001c0 23 1e 2e 3d 90 c1 cf bd d2 f3 be bd 12 c1 0c bd
       0.04250921 -0.10144341 -0.09323849 -0.034363814
0001d0 9f 1e b3 bb 92 7f 2e 3e fb dd da 3c d7 ac 38 3e
       -0.005466297 0.17040852 0.026717177 0.18034683
0001e0 80 9f 52 3d 63 cf de bd 60 5b c8 3c 3d 88 a9 bd
       0.051421642 -0.108793996 0.024457633 -0.082779385
0001f0 87 f1 cd 3d 98 00 32 bd 4a 61 89 3e e1 f5 a1 bd
       0.10055833 -0.043457597 0.26832038 -0.07908226
000200 d5 51 fb bc 96 2b c9 3c 3d 58 4b 3e 32 ad c3 3d
       -0.030678669 0.024556916 0.19857879 0.09554519
000210 c6 a4 92 3d bd c7 e8 bd a4 29 0b 3e 35 16 4d be
       0.07160334 -0.11366222 0.13590103 -0.20028003
000220 73 7f 73 3d 37 5e f2 bd 07 d4 f4 3d 54 e3 56 be
       0.059447717 -0.11834376 0.119545035 -0.20985156
000230 b9 ea 4c 3e b6 4b 1a 3d bf 2c d1 bd ca 9f 84 3d
       0.20011415 0.03766986 -0.10213613 0.0647579
000240 38 a7 99 3d a4 64 75 3b 67 aa da bc 04 32 8f 3e
       0.075025976 0.003744402 -0.026692582 0.27967846
000250 f0 fe ec bd 7d 38 ce 3d 7d 66 10 be b6 a5 9a 3d
       -0.11572063 0.10069368 -0.14101596 0.07551138
000260 fe c7 47 be 30 2b 5e bd 4a 5f 10 3d 3e d9 3b be
       -0.19509885 -0.054240406 0.035247125 -0.1834459
000270 b0 a8 de 3c 4f 30 68 bd 26 60 b8 bd 77 31 17 3e
       0.027180046 -0.056686696 -0.09002714 0.14764963
000280 6d 55 6d 3d 69 83 88 bc 35 68 bc bd 93 8d 27 3e
       0.057942796 -0.016664224 -0.091995634 0.163626
000290 d8 ce 4f be ce de 01 3e 99 4f f8 bd 46 49 93 3e
       -0.20293748 0.1268265 -0.12124557 0.2876684
0002a0 8d 3e 23 bc af 89 36 be a0 63 72 3d ab f1 7c be
       -0.009963644 -0.1782596 0.05917704 -0.24701564
0002b0 1b 42 59 3e ea 88 79 3c 3e 66 94 3c 57 14 9c 3d
       0.21216623 0.015230397 0.01811516 0.07621067
0002c0 30 69 20 3e af f4 31 be c3 7f 25 be 24 f2 b6 3d
       0.15665126 -0.17378496 -0.16162018 0.089329034
0002d0 97 62 88 3e 4a 5b ef 3d 41 50 bd bc 47 ef 0f 3e
       0.26637718 0.11687334 -0.023109557 0.14056121
0002e0 88 75 5d bd a0 e1 97 3d 9b a6 9f 3e fa 23 ae 3c
       -0.054067165 0.074160814 0.31181797 0.02125739
0002f0 e1 92 05 be b8 52 11 bc 7a 5e c8 bd 40 45 ab bd
       -0.13044311 -0.008869819 -0.09783645 -0.08362818
000300 96 dc 5a bd d4 c6 d5 bb 23 1c cb bc f7 25 10 be
       -0.053433023 -0.0065239463 -0.02479369 -0.14076982
000310 59 85 6e bd 49 f8 1b 3e 81 32 06 3d d7 20 47 bc
       -0.05823264 0.15231432 0.032763008 -0.012153826
000320 c1 a4 aa 3c 39 d9 50 be eb 4e bb 3d 09 75 62 be
       0.020830514 -0.20395364 0.09145912 -0.22114958
000330 d3 e4 0f be 5a c1 51 3e 12 44 ea bc 10 95 8e be
       -0.14052133 0.20483914 -0.028596912 -0.278481
000340 c3 d7 fd bc fc f3 e6 bd 63 86 90 3c 6e 0a 7b be
       -0.030986672 -0.11277005 0.017642206 -0.24515697
000350 bf 51 8e 3d de 1d 68 3e 72 7a 44 be 67 95 5e 3e
       0.069491856 0.22667643 -0.19187334 0.2173668
000360 30 17 1a be 1a c2 65 3c 32 b3 5d 3e 02 0f 44 bd
       -0.15047908 0.014023328 0.21650389 -0.047865875
000370 24 55 91 3d c1 72 dd 3d 57 b6 44 3e 46 b7 13 bd
       0.070963174 0.10812903 0.19210182 -0.036063455
000380 99 0a 1a bd 44 7b 4b 3e bf 92 e6 3d f6 f4 16 3d
       -0.037607763 0.19871241 0.11258458 0.036854707
000390 93 2f 7d bd cb 63 be bc 80 27 24 3a a5 92 36 bd
       -0.06181295 -0.023240944 0.00062619895 -0.044573445
0003a0 3a 56 16 be 7e 8c a7 3d 14 bc 45 3c 04 2b 17 be
       -0.1468133 0.08181094 0.012068767 -0.14762503
0003b0 21 6b 05 be 13 4e b8 bd 68 d9 18 bd cf c9 8b 3d
       -0.13029148 -0.089992665 -0.03731671 0.06825601
0003c0 96 41 8a 3d b3 4c f2 bd 1e e7 1b 3d 87 e4 13 3d
       0.06750791 -0.118310355 0.038062207 0.036106613
0003d0 d1 c2 a6 3e af dd 0d bd 2b f0 68 3d 26 c4 13 be
       0.32570508 -0.034635242 0.056869667 -0.14430293
0003e0 0e f8 1a 3d 58 c8 b0 3d 7b 2b 5d be 93 44 13 3e
       0.03783422 0.086319625 -0.21598618 0.14381628
0003f0 9e b8 0b 3e 40 ba 6f 3d 95 ac 4d 3d ec d3 71 bd
       0.13644645 0.05852723 0.050213415 -0.059039995

network_body._body_endoder.seq_layers.0.bias f4 [128]
000000 11 5f 3a 3c 15 33 6f 3b 6c 50 fa 3c 2c df 2d 3c
       0.011375205 0.0036498953 0.030555926 0.01061229
000010 d8 f5 42 bb 5c 1c 01 bc 29 90 30 3b 62 e3 a1 bb
       -0.0029748585 -0.007880297 0.0026941395 -0.004940436
000020 f5 ad 59 3c e7 dc 06 bd 9d 3e 25 3c b1 64 0c bc
       0.0132861035 -0.032925513 0.010085729 -0.008568929
000030 b0 e4 bd bc 16 36 c3 3a 8f 82 a7 3c cd 4a 83 bc
       -0.023180336 0.0014893438 0.020447997 -0.016026879
000040 72 36 94 bc 19 89 11 bb 9b 4b cb 3a 9c 9a 84 bb
       -0.018092368 -0.002220696 0.0015510203 -0.004046751
000050 20 29 a8 3b 4a 02 01 b9 a1 05 90 bc 57 c0 4f 3c
       0.0051318556 -0.00012303251 -0.01758081 0.012680135
000060 74 32 56 bc 57 53 f9 3b 83 91 53 bc 3a a1 7b 3c
       -0.013073552 0.007608812 -0.012913111 0.015358264
000070 60 2d 2b bd 56 64 68 bc 03 05 3d bb d6 20 13 bc
       -0.04179132 -0.014184078 -0.0028842099 -0.008979997
000080 79 c9 0d bc b0 d3 92 bc d7 47 72 bc 60 ea 33 bc
       -0.008653992 -0.017923206 -0.014787636 -0.010981172
000090 66 d0 83 bc da 39 ac 3a 55 a9 41 bc cd 6a 33 3c
       -0.016090583 0.00131398 -0.011820157 0.010950756
0000a0 ee bf fb 3c c6 0b 85 3c ae 96 9f bc 03 b8 be 3c
       0.030731168 0.016240966 -0.01948103 0.023281103
0000b0 0d ef 06 bc 07 02 c5 bb b1 aa 6d bc de 1e 05 bc
       -0.008235705 -0.0060122046 -0.014506028 -0.008125035
0000c0 a7 e0 45 bb f3 e8 62 bc 3b cc ff b8 77 6d 0e 3c
       -0.0030193718 -0.013849485 -0.000121973884 0.008693091
0000d0 33 4e 52 3c f2 19 f3 bc 04 03 d5 bb 1f b8 b2 3c
       0.012836027 -0.029675458 -0.0065006036 0.021816311
0000e0 b1 9c 2b bb 70 51 60 bc df 94 15 3d c2 1b 99 ba
       -0.0026185925 -0.013691291 0.036518928 -0.0011681246
0000f0 d9 ad 06 3a 8b 44 6c bc 71 f3 ed bb aa 49 58 bc
       0.00051375997 -0.014420639 -0.0072616865 -0.013201157
000100 5f 3a 71 bb b2 8e 24 bc 38 e6 a1 bc e9 31 ae 3b
       -0.0036808474 -0.010043787 -0.019763097 0.0053160083
000110 1e db 27 bd fa 38 62 bc 0a 1d a1 3b 28 10 e7 3c
       -0.04098045 -0.01380753 0.004916792 0.028205946
000120 1e 38 8a bc 1a 53 23 bc e9 c4 92 ba 48 c0 57 3c
       -0.016872462 -0.009968543 -0.00111976 0.013168402
000130 2a 2c d4 b9 f5 b6 90 bc d1 17 5a bc 9c e8 88 3c
       -0.00040468696 -0.017665366 -0.013311342 0.01671248
000140 3e b6 92 3b bc 91 3c bc d8 b2 0e 3a e7 a5 0c 3c
       0.0044772914 -0.011509355 0.000544352 0.008584476
000150 cf 12 a7 bb e8 ea c2 bc d3 6e 7d bc f3 6b 77 3c
       -0.0050986777 -0.023793653 -0.015468317 0.015101421
000160 bd 53 8a bc 3e a6 d6 bb 72 a5 3b bc 3b 39 a7 bc
       -0.016885633 -0.0065505793 -0.011453019 -0.020413032
000170 43 0f 96 bb c4 15 5a 3c 97 98 a0 bc 5e 37 60 3b
       -0.004579456 0.013310853 -0.01960401 0.003421269
000180 b4 22 09 bb aa 9b 95 bb 9b 4f 11 bc 19 d9 ee 3a
       -0.0020925226 -0.0045656757 -0.008869077 0.0018222659
000190 94 27 81 3c 97 98 d5 b8 1d 0f 89 39 46 74 8a bc
       0.015765943 -0.000101850535 0.00026141937 -0.016901147
0001a0 a1 bd aa bb ed 2a bb 3c 0c 76 97 bc 9e 6a 54 3c
       -0.005210594 0.022847617 -0.018488906 0.012964873
0001b0 2f b8 57 bc db f6 24 bd 19 c1 fe bb 6c 7b 77 bb
       -0.013166471 -0.040274482 -0.007774484 -0.0037762774
0001c0 4c 32 47 3c 48 ce 47 bc 47 0d fd bc 82 2a aa bb
       0.012157988 -0.012195177 -0.03089012 -0.0051930556
0001d0 b4 e7 1b 3d 1e ef 1b ba 2f b1 75 bc bc 9b 64 bc
       0.038062766 -0.0005948412 -0.014995857 -0.013953146
0001e0 3c d5 0f 3c e6 9a a2 bb 95 a6 83 bc 85 40 78 3c
       0.008778866 -0.004962313 -0.016070643 0.015152101
0001f0 eb 54 30 3b 10 a4 46 bc 03 41 0d bc 36 b8 85 bc
       0.0026906084 -0.0121240765 -0.008621457 -0.01632319

network_body._body_endoder.seq_layers.2.weight f4 [128, 128]
000000 99 f2 0b 3e 95 90 21 bd 07 9c 14 bd 37 65 ae 3c
       0.13666762 -0.039444525 -0.03628161 0.021288497
000010 02 9d 6c 3d 04 88 6c bd 8b 6f 54 3d 01 01 23 bd
       0.05776692 -0.057746902 0.05186419 -0.03979588
000020 02 7f 02 3e 65 3a 3b 3c 76 1b c3 bb cc 0d b8 bd
       0.12743762 0.011427497 -0.0059542013 -0.089870065
000030 38 54 e1 bd fc f0 6e bd 0d 3e 7a 3c 71 b6 b2 bc
       -0.110023916 -0.05833529 0.015273583 -0.02181551
000040 b8 f3 6b bb f0 bc c5 3b 9f 08 15 bd 58 ff e4 bd
       -0.0036003422 0.006034486 -0.036385175 -0.111815155
000050 f1 41 3e 3e 37 db 52 bd 6e df 28 bd a1 34 0d be
       0.18579842 -0.05147859 -0.041228704 -0.13789608
000060 4b 72 1e bd ea e6 75 bc de 80 14 bb cd ed 6e 3d
       -0.038683217 -0.0150086675 -0.0022659819 0.058332253
000070 f3 e9 5a 3d de 07 d1 bd 4c b4 d0 bd c8 85 68 3d
       0.053445768 -0.10206579 -0.10190639 0.05676821
000080 c0 3c 31 3e e5 90 38 3d cd 89 03 bd 36 29 9f bd
       0.1730833 0.045060057 -0.03211384 -0.07771532
000090 29 4a 05 be 5d f1 10 be 73 1a bd 3b 19 86 04 3d
       -0.13016571 -0.14154573 0.0057709753 0.032354448
0000a0 c2 1b b5 3d 46 e6 2d be 58 fc 19 3e aa 15 3b 3e
       0.08843185 -0.16982374 0.15037668 0.18269983
0000b0 5b 55 31 3e 3f c6 87 3d 0c 1f 48 bd 38 02 fb bd
       0.17317717 0.06629609 -0.048857734 -0.122562826
0000c0 0b 5d 92 39 af be 5c bd 6d 3b 6b bd 21 79 9e 3d
       0.00027916612 -0.053892788 -0.05742972 0.07737947
0000d0 2d 97 f0 bd fa 9f e0 3b 58 9a 9f 3d 4e ee de 3d
       -0.117475845 0.006855008 0.077931106 0.10885297
0000e0 e4 32 ca 3d 2e 66 ea bd 21 df 21 3d a4 dc d7 bd
       0.09872988 -0.114452705 0.039519433 -0.10540131
0000f0 12 4b ce 3c 6c d7 c7 3d b3 95 89 3c 87 a6 85 bd
       0.02518228 0.09757885 0.016795015 -0.06525903
000100 0f b6 33 bd 10 6e 0a be f6 8d 09 3a da f5 ad bd
       -0.043874796 -0.13518548 0.0005247289 -0.08494158
000110 44 c8 1c 3d 39 dc fd 3c f9 a0 6b bd a9 7b 5a 3e
       0.038276926 0.0309888 -0.057526562 0.21336235
000120 b5 ed 83 3c 7f a8 a1 bd 5e 12 35 3e f5 8f b2 3d
       0.016104558 -0.07893466 0.17682788 0.08718864
000130 3d 22 3b 3d 1b a2 24 be 32 f9 68 bc e3 aa 27 3d
       0.04568695 -0.16077463 -0.014219569 0.040934455
000140 71 11 c7 bc 5a f9 1a 3e 31 5d 41 3d 07 f2 1d 3d
       -0.024300309 0.15134183 0.047208015 0.038560893
000150 c7 9f 34 bd 5b 4e 56 bd 95 91 2b bd b1 2c ef bc
       -0.044097688 -0.05232082 -0.041886885 -0.029196115
000160 26 1d 80 3d fd b7 87 bd 41 fa e6 3d bc 11 57 3d
       0.062555596 -0.0662689 0.11278201 0.052507147
000170 3d 81 fe bc 4d 2e fa 3d 13 8e e4 bd 83 78 19 3d
       -0.031067485 0.122158624 -0.11159911 0.037468445
000180 a6 a2 fc bc 5b 70 4d bc 3b 67 c5 bd 65 67 31 3e
       -0.030839276 -0.012538995 -0.0963883 0.17324598
000190 40 10 29 3d 3b e1 79 3d 71 ea 29 be 1c 36 80 3c
       0.041275263 0.061005812 -0.16593339 0.015650801
0001a0 db b0 6c 3c af e5 6d 3d dd a2 0e be 8d f4 13 be
       0.0144464625 0.05808037 -0.13929315 -0.14448757
0001b0 87 98 64 be 78 a4 94 3d 54 fd 4e be 33 20 4c bd
       -0.2232381 0.072579324 -0.20213825 -0.049835395
0001c0 42 41 bb 3d 99 cb 43 3e b4 0c 4c 3d 54 08 f4 bd
       0.09143306 0.19120635 0.049816802 -0.11915651
0001d0 4d 11 5a bd c3 54 27 3c 53 5b 92 bd 3d 90 2f be
       -0.053239156 0.01021308 -0.07146325 -0.17144866
0001e0 06 a6 1f be 24 2e 28 3d 81 df 97 bd 78 d8 f4 3d
       -0.15590677 0.041059628 -0.07415677 0.11955351
0001f0 14 71 ed 3b d5 b1 16 be ff 92 a6 3c f6 82 3d 3e
       0.007246146 -0.14716275 0.020333765 0.18506989
000200 e4 3a 45 bd 01 46 36 3d 32 7a c1 bd 21 48 c6 3c
       -0.048151866 0.044500355 -0.09447135 0.024204316
000210 1c e7 31 3e 55 28 78 3d ec ad 5d 3c 2b 0b 9f bd
       0.17373317 0.06058534 0.013530236 -0.07765802
000220 67 ec 95 bd 01 0c 60 bd 8e 45 88 3d f1 8b 0a bd
       -0.07320481 -0.054698948 0.066538915 -0.033824865
000230 60 09 93 bb 50 43 98 b9 84 01 a2 bc 91 c5 75 3d
       -0.0044872016 -0.0002904185 -0.019776113 0.060002867
000240 44 56 9c bd c4 a4 d0 3d e1 9a f9 bc 14 e8 40 3a
       -0.07633641 0.101876765 -0.03046936 0.0007358801
000250 de 49 fc bc fe 86 48 3e 3c 7e ce bd 0c fa 42 be
       -0.030796941 0.19582745 -0.10082671 -0.19040698
000260 53 d4 42 3c 18 91 cb bd c4 cc 4b bd 52 b4 59 bb
       0.011891442 -0.09939784 -0.049755827 -0.0033219052
000270 cc df cb 3d b9 a3 5b 3c 4f 28 81 bd f3 f0 ba bd
       0.09954795 0.013405734 -0.063065164 -0.09127989
000280 23 bf 2e be d9 be 49 3e e4 ae f7 bd 30 d5 01 3d
       -0.170651 0.19701709 -0.120939046 0.031697452
000290 eb c4 92 bd 8d f6 25 bc 96 54 78 bc 9f d9 f3 bd
       -0.07166465 -0.010129583 -0.015156886 -0.11906742
0002a0 dc 59 02 be f4 9c 9b 3d 3e 6d a1 bd e5 90 a4 bd
       -0.12729591 0.07598296 -0.078821644 -0.08035449
0002b0 e9 8f 92 bd ce 2c 22 bd 09 60 89 3c 0e 5e 48 bd
       -0.07156355 -0.03959351 0.016769426 -0.048917823
0002c0 72 80 68 3c 71 b8 81 bd e9 29 84 3d 5e 7f 57 bd
       0.01419078 -0.063340075 0.06453306 -0.0526117
0002d0 10 ae 0f 3e 9d 57 5e bd 1d 21 a3 bd 52 f6 65 3d
       0.14031243 -0.054282773 -0.079653 0.056143112
0002e0 8c 53 1a 3e 38 8c bd bd 62 c2 83 bc e1 6b d7 3c
       0.15070933 -0.0925526 -0.0160839 0.026296558
0002f0 7f 08 14 3d b5 ec c1 bd fb 4c b7 3d d7 fd f5 3d
       0.036140915 -0.094689764 0.0895023 0.12011307
000300 9e bf 70 3d b1 8c e2 3c 2c 9d 28 3e 66 95 b2 3d
       0.05877649 0.027654978 0.16466206 0.08719902
000310 5a 6e 2d be cf 94 8c ba bf c8 03 3e a5 1c b9 3c
       -0.16936627 -0.0010725501 0.12869547 0.022596667
000320 9c 13 91 3d a1 05 06 3c 4e 52 ec bd e8 2c 57 bd
       0.07083818 0.008180053 -0.11539136 -0.05253306
000330 8b 8f 02 bd ec 1a 31 3b 85 7b ac bc 8d 44 a6 3c
       -0.031875174 0.0027024103 -0.021054992 0.02029636
000340 85 e5 0a 3e 83 e6 c2 bc 0f c4 d1 3c 55 62 5f bd
       0.13564117 -0.023791557 0.025606183 -0.054537136
000350 84 7a 0d 3e ba d5 98 bc 5a 1e a2 bd 18 12 ae bd
       0.13816267 -0.0186566 -0.07915945 -0.08499545
000360 ef e1 2e bd 88 63 07 bd 15 41 6a 3d 8c 45 41 bc
       -0.042695936 -0.033053905 0.057190973 -0.011796366
000370 1f 8c 00 3e ad 69 37 be a6 36 27 bd 07 1d e9 bd
       0.12553452 -0.17911406 -0.0408236 -0.1138249
000380 32 41 f6 bd 47 5f 07 3e e1 27 57 bd fe c6 10 bd
       -0.12024154 0.13219939 -0.052528266 -0.035346024
000390 34 c2 8d 3c 94 12 cc bd 8e 02 48 3d b6 cb 3e be
       0.017304517 -0.09964481 0.04883056 -0.18632397
0003a0 92 b1 db bb cb 1a 7a bd 54 cd 8f bb 3f 63 09 bd
       -0.0067045176 -0.061060708 -0.0043884907 -0.033541914
0003b0 fb 00 1c be 0f 57 f0 3d 5c 35 97 3c 88 7f ff bc
       -0.15234749 0.11735355 0.01845806 -0.031188741
0003c0 5f 29 87 bd 67 d9 a3 bd 68 40 24 3d 57 f7 42 bd
       -0.06599688 -0.080004506 0.040100485 -0.047599163
0003d0 73 c6 e5 3d a0 9b a4 3d df 75 58 bd 94 42 0e bd
       0.11219492 0.080374956 -0.052846786 -0.034731463
0003e0 a5 28 9a bd 94 df 17 3d bf 82 86 3d 71 3b ae 3c
       -0.075272836 0.037078455 0.065679066 0.021268578
0003f0 fc 17 5b be 0d e8 73 bd 23 c2 31 bc e7 61 c2 bd
       -0.21395868 -0.059547473 -0.010849508 -0.0949133

network_body._body_endoder.seq_layers.2.bias f4 [128]
000000 8b 8a da 3b d0 b6 13 bd b6 7e 22 3c 04 85 f9 bb
       0.0066693476 -0.036063015 0.009917906 -0.0076147337
000010 db b8 0e 3c 73 95 d0 bc 2d fd b8 ba 11 48 27 3c
       0.008711065 -0.025461888 -0.0014113538 0.010210053
000020 59 8f a2 bb 5d 9d e1 bb b4 a3 e0 bc f9 1b a3 bc
       -0.004960936 -0.0068852142 -0.02742181 -0.0199108
000030 db 70 7a bc 84 b4 9c bc ae d0 78 3c df 72 5e bc
       -0.015285696 -0.019129045 0.015186472 -0.013577192
000040 9e 1c 9b 3c 8b 91 19 bb c8 da 53 bc 31 2d c5 39
       0.018934544 -0.0023432698 -0.0129305795 0.00037608438
000050 71 41 89 bc f7 67 8c 3b 6a bb 50 3d 17 18 25 3c
       -0.016754838 0.0042848545 0.050959982 0.010076544
000060 60 e3 cc 3c 44 c2 b8 3c df 07 bc bb b7 37 f8 3c
       0.025010765 0.02255357 -0.005738243 0.030300004
000070 45 17 17 3c ed 9e 9c 3c 43 da 16 3d 3a 20 2a bc
       0.0092218565 0.01911875 0.036829244 -0.01038366
000080 73 32 ad ba 1e ca ce bc c7 77 9c 3b 76 40 84 3b
       -0.0013213888 -0.025242861 0.0047750208 0.0040360047
000090 40 5e 6f 3b f2 bf 58 3a 25 71 e8 ba 57 f1 11 3b
       0.0036524683 0.0008268348 -0.0017733915 0.0022269094
0000a0 a1 a0 39 3c ae 61 76 3c 2b b8 a6 3c ce 45 10 3d
       0.011329801 0.015037937 0.02035149 0.03522282
0000b0 5e ab 9f bb db 15 20 bc 55 5a 07 3b 87 f2 db bc
       -0.0048727235 -0.009770836 0.0020653207 -0.026849044
0000c0 fe ae f2 39 0c 01 08 bc 43 a7 55 bc d5 2b 18 3a
       0.00046288216 -0.008301031 -0.013040367 0.00058048713
0000d0 5c 00 05 3a c3 c0 48 ba e9 29 86 3b 60 f7 31 3b
       0.0005073601 -0.0007658118 0.0040943515 0.0027155504
0000e0 9d c6 0e bb 5b 22 95 bb 95 6f c8 bc f1 ed 89 ba
       -0.0021785863 -0.0045512146 -0.024467269 -0.0010523183
0000f0 e7 2b 02 bc ac 11 2a bc d2 c1 24 3c ba 10 c6 3c
       -0.007945037 -0.01038019 0.010055976 0.024177898
000100 6f 39 e2 bc 79 1c c5 39 97 c3 9f bb 24 27 08 3c
       -0.027615277 0.00037595982 -0.004875611 0.008310113
000110 17 cd 7d 3b 18 3e 7c bc 8f a5 53 3c 7d e4 d8 3c
       0.003872698 -0.015395664 0.01291789 0.02647614
000120 ee 22 03 bd 11 c6 32 bc 20 2d 45 bc a4 29 c3 bb
       -0.032015733 -0.0109114805 -0.012034684 -0.0059558917
000130 82 c2 1e bb 3d 3c 4b 3c eb e8 2f 3b fd 95 a3 bc
       -0.0024224822 0.012404499 0.002684171 -0.01996898
000140 0b 79 17 3c 91 c5 8a bc 61 f7 e4 bb 62 f5 7f bb
       0.0092451675 -0.01693991 -0.0069874977 -0.0039056172
000150 60 a9 44 39 5f 40 b2 3c e9 39 84 3c b3 6b 1d 3c
       0.00018755114 0.02175921 0.016140895 0.009608197
000160 cb 49 cf bc 75 88 9d ba 1f b2 30 3c 47 b8 39 3c
       -0.025303742 -0.0012018817 0.010784655 0.011335439
000170 22 eb cc bc 35 e9 d3 bb 67 cb 93 bc 59 f7 93 3b
       -0.025014464 -0.0064670094 -0.018041326 0.00451557
000180 06 17 06 3b 89 d4 b3 3c 00 84 59 bb 26 5c 1e 3a
       0.00204605 0.02195193 -0.003319025 0.0006040953
000190 73 04 18 bc 74 e3 98 bc 85 f8 27 bb af d0 15 3c
       -0.0092784045 -0.018663146 -0.0025630307 0.009143992
0001a0 38 1b f9 3c 9e be bd bb fc d9 84 bc 07 03 18 3c
       0.030408487 -0.0057905456 -0.016217224 0.0092780655
0001b0 1c 5c fa 3b 8c c2 d2 38 f0 f6 b5 3c 3d ca 83 bb
       0.007640375 0.000100498175 0.022212476 -0.0040219114
0001c0 e8 92 fb 3b 3f c6 20 3c c8 7f 0e 3a 3b 9a 78 bc
       0.0076774247 0.009812891 0.0005435911 -0.01517349
0001d0 86 61 cb bc 4a ba ac bb ab 7b cd bb 28 24 44 3a
       -0.024826776 -0.005271231 -0.006270846 0.00074821943
0001e0 86 78 0d bc d5 40 90 bc a3 9a 8f bc e9 56 bd b9
       -0.008634692 -0.01760904 -0.017529791 -0.00036113642
0001f0 0f 4a 45 3c 9a 38 a4 3a db 88 1b 3b b4 ec 95 bc
       0.012041583 0.0012529076 0.0023732695 -0.018301345

network_body._body_endoder.seq_layers.4.weight f4 [128, 128]
000000 69 e3 e7 bc 81 0a 20 bd d4 d7 09 bd 3e b6 0c 3d
       -0.02830668 -0.039072517 -0.033653095 0.034353487
000010 36 6b 82 bd 41 95 63 3e 7c 05 4c be d5 35 fd 3c
       -0.06368105 0.22224905 -0.19923967 0.030909458
000020 bc 73 c5 3d 14 76 cd 3d 29 b6 92 3d e7 dd 3b bd
       0.09641215 0.10032287 0.071636505 -0.04586592
000030 75 81 d8 bd 0a da d6 bd 85 f9 05 bc 57 2a 3d bd
       -0.10571567 -0.104908064 -0.008177166 -0.046182957
000040 43 18 64 bd 4c 98 ea 3d 5b 44 0c 3d 5e 4b 03 be
       -0.0556872 0.114548296 0.034244876 -0.12821719
000050 5f ba 01 be 01 76 fb bd f7 b9 c4 3d 8d 14 bf bd
       -0.12668751 -0.12278367 0.096057825 -0.093300916
000060 ba fd 91 3d 2e a6 17 3e e6 dc 32 3d 38 b8 00 3d
       0.071284726 0.14809486 0.043667696 0.031425685
000070 0c 57 73 3d d9 f0 7a be 69 a4 a2 3d f6 48 a1 bd
       0.059409186 -0.24505939 0.07941515 -0.07875244
000080 ff 44 a5 3d e3 0a 86 bd ad 01 6c be 2e 1c 80 bd
       0.080698006 -0.06545045 -0.23047514 -0.06255375
000090 89 30 8f 3e 6c db 95 bc 7e a0 31 bd 41 f9 de 3d
       0.27966717 -0.018293105 -0.043365948 0.10887385
0000a0 e2 d0 8a 3d 24 22 ae bd 2f f3 71 bd cb 54 b9 3c
       0.067781225 -0.085026056 -0.05906981 0.02262344
0000b0 57 fa 1f 3d db 73 8a 3d 9f 34 fb 3b 5e 73 de 3d
       0.039057102 0.06760379 0.007666185 0.10861848
0000c0 36 97 4c bc 51 be 59 3d e2 29 42 3d 51 4e e8 bd
       -0.012487223 0.053160015 0.047403224 -0.11343063
0000d0 12 c9 a1 bd 17 cf 84 bc 3d cd ff 3d e0 24 b7 3d
       -0.07899679 -0.01621203 0.12490318 0.0894258
0000e0 87 a4 1a 3d b6 91 01 be 7a 2e 83 3e 09 aa b0 bc
       0.03775456 -0.1265324 0.25621396 -0.021565454
0000f0 b3 a1 69 be 2d 5c 01 3e d7 18 43 3d 3c d2 8a 3c
       -0.2281559 0.12632819 0.04763111 0.01694595
000100 c8 e9 19 3d ca 83 64 bd 1a 4e b9 bd 3b 4c c1 bc
       0.037576467 -0.055789746 -0.090481 -0.02359592
000110 5e 46 9a 3d f9 fe e7 3b 24 29 b8 3a e4 e2 44 bd
       0.07532953 0.0070799557 0.0014050347 -0.048067942
000120 32 25 3b bd 77 92 0a 3d c3 ca 36 bd c5 11 98 3b
       -0.04568977 0.033831086 -0.044626962 0.00464079
000130 76 2b 15 3e 3f aa 49 3c 6d 3f 21 3d b0 9a 15 bd
       0.1456736 0.012308656 0.03936713 -0.036524475
000140 19 63 46 3d 3e 8f fa bc 4b 44 ef bd 74 e5 4c 3d
       0.04843435 -0.030585881 -0.11682948 0.05002351
000150 06 6e 41 3d 37 87 dc bd fb a4 65 bd e9 f4 b6 bd
       0.047224067 -0.10767978 -0.05606554 -0.08933432
000160 92 5f 89 bb 6c 2d 8b 3c 90 27 be 3d 09 ea 06 3e
       -0.004192301 0.016989432 0.0928489 0.13175215
000170 51 5d f2 3d c0 57 ea bd a6 ab 43 3b d1 00 40 bd
       0.11834205 -0.11442518 0.002985695 -0.04687578
000180 0f 06 07 3e bc 22 40 bd 84 50 9e 3d fe 0f c3 3d
       0.13185905 -0.046908125 0.07730201 0.09524535
000190 94 99 e2 bc 90 bd d7 bd b5 04 d6 3c c8 33 c7 3d
       -0.027661122 -0.10534203 0.026125291 0.09726673
0001a0 25 ef b2 bd 5a d3 a0 3c f1 7f 55 3d e7 22 2d bb
       -0.087370194 0.01963203 0.052123968 -0.0026418508
0001b0 2d 2e f5 bd 14 7d 6a 3c 1c 0e c9 ba db a8 7a 3d
       -0.11971698 0.0143120475 -0.0015339288 0.06119619
0001c0 3d bb db 3c c8 ce 4f 3d 4b a8 c6 bc 26 92 81 bb
       0.02682268 0.05073431 -0.02425017 -0.00395419
0001d0 8c 80 f9 3d 96 c7 42 3d d4 d8 16 bd 85 48 d0 bd
       0.121827215 0.04755362 -0.036827877 -0.10170082
0001e0 93 de 17 3e 1d dd 63 3c f2 4e aa bd 22 d9 84 bd
       0.14830999 0.013907698 -0.08315839 -0.06486727
0001f0 c7 33 30 3e 0a 2c d0 bd e5 7b 25 bb f2 0f 11 3c
       0.17207251 -0.1016465 -0.002525085 0.008853899
000200 3a 05 a7 bd a6 06 d1 bc d3 d6 30 3d 96 65 00 3e
       -0.08155294 -0.025515866 0.043173622 0.12538752
000210 22 d5 ae bc 6e 88 34 3d 3b d4 ba bc a9 9a 18 be
       -0.021341864 0.044075422 -0.022806277 -0.14902748
000220 9d 9a 7e 3d d1 48 0b be 0f 4c dc bd c5 81 e7 bc
       0.06215917 -0.13601996 -0.107566945 -0.028260121
000230 b9 13 e1 bd f9 af ad bc 9a ff 55 3d 6e b5 0f 3e
       -0.1099009 -0.021202074 0.052245714 0.14034054
000240 44 66 67 bd ff 67 ef 3c b2 8e 73 bd 53 ca 10 bc
       -0.056494012 0.029224394 -0.059462257 -0.0088373
000250 dc e4 8b bd 52 8f aa bd 09 6f 3f bd 26 3f 90 bd
       -0.06830761 -0.083281174 -0.04673675 -0.070432946
000260 cc 8c a6 bd 1a 8b c4 bd 30 8c 78 3b a0 08 34 3d
       -0.081323236 -0.09596844 0.0037925355 0.043953538
000270 56 83 08 be 77 e2 1f bd d8 26 1b bd c5 57 2e bb
       -0.1333135 -0.039034333 -0.03787884 -0.0026602608
000280 8b 17 03 be 2c ad d4 bd 43 58 a0 bd 16 ed 40 bd
       -0.1280195 -0.103845924 -0.078293346 -0.047101103
000290 3f b6 b5 bd a8 be 14 3d b2 fe aa 3d 22 26 c9 bd
       -0.08872651 0.036314636 0.083493605 -0.098217264
0002a0 63 7e e5 3d f1 7a 09 3e 4a d6 e9 3d 21 12 30 3e
       0.11205747 0.13425805 0.114178255 0.17194416
0002b0 a6 d3 35 3d 84 1a 58 3c 28 6e 70 bc dc 68 8c bd
       0.044391297 0.013189916 -0.014674701 -0.06855938
0002c0 6d 65 64 3d ca ec d2 3c c7 cc 2a bd 99 60 a5 bc
       0.05576079 0.025747675 -0.041699197 -0.020187663
0002d0 be 57 5c bd 94 f6 f6 3d 07 2e 96 3d 9f 83 d4 3d
       -0.053794615 0.1205875 0.07332998 0.10376667
0002e0 01 c9 de bc 18 9c aa 3d 16 28 cf bd f9 80 d4 3d
       -0.027195456 0.08330554 -0.10115068 0.10376162
0002f0 7a e0 d4 bc 2e 01 e4 bd 15 b2 24 3e bc 6a 4d bd
       -0.025985945 -0.111330375 0.16083558 -0.050150618
000300 bc 4d 7f 3c 87 a1 0e be e7 ed 1f 3e 30 d2 a8 bc
       0.015582498 -0.13928805 0.15618096 -0.020608038
000310 9e ee 65 3c 05 eb 13 bd 0a 1a cd 39 15 04 47 bd
       0.014033942 -0.036112804 0.00039120048 -0.048587877
000320 5c 2b c3 3a 18 96 70 3d 53 85 ae bd 63 05 88 3d
       0.0014890241 0.05873689 -0.08521523 0.066416524
000330 9c c9 92 3d cd ef 32 bc c0 8f 80 bd 3b 3b d9 3b
       0.0716736 -0.010921431 -0.06277418 0.0066293753
000340 06 32 0d 3e b3 18 0a bd ea 7f 56 be 00 49 b2 3d
       0.13788614 -0.03371496 -0.20947233 0.0870533
000350 13 d1 89 bd 4b cc d6 3d 5c d5 c9 3d 2f 60 b7 bd
       -0.06729331 0.104881845 0.09855148 -0.089538924
000360 d1 08 2e 3b 3f 3d 1c 3e ca c8 6f bb 19 42 6a 3e
       0.0026555548 0.15257739 -0.0036588185 0.22876777
000370 76 ab 46 be 06 fd 42 bc 92 3a 94 ba 35 21 25 3d
       -0.19401345 -0.011901146 -0.0011308959 0.04031487
000380 41 52 41 3c 35 36 08 be 7e f2 30 bd f1 49 ed 3b
       0.011799396 -0.13301928 -0.04320001 0.0072414805
000390 2f 44 8e 3d 41 63 fb 3d a2 f8 f1 bc 34 e9 5c 3c
       0.06946599 0.122747906 -0.029537503 0.013483334
0003a0 4c 5f 21 3d 0c 7d cd 3c aa c8 e0 bd d1 06 8a bc
       0.039397523 0.025084041 -0.10975774 -0.016848953
0003b0 6c 00 58 bd b0 1c 23 3d 17 98 4e 3d 1d 39 49 be
       -0.052734777 0.03982228 0.050438013 -0.19650693
0003c0 93 00 1a 3a 78 01 2f bd a1 37 38 3c 7f ac 7a bc
       0.00058747194 -0.04272601 0.011243732 -0.015299915
0003d0 14 d5 a5 3d f7 a5 47 bd 6e 14 91 3c db fe 1e bd
       0.08097282 -0.04874226 0.017709937 -0.038817268
0003e0 7c e9 17 be c9 6f 03 bd 66 a5 5e bd 2b f6 30 be
       -0.14835161 -0.03208903 -0.054356955 -0.17281406
0003f0 df 5a 6a bd 33 f2 7e bc 23 6f 29 bd 82 12 0f be
       -0.057215568 -0.0155606745 -0.041365754 -0.13971904

network_body._body_endoder.seq_layers.4.bias f4 [128]
000000 c7 ce 2e bc 84 09 de 3c f1 b9 03 bd d6 ea 39 bc
       -0.010669417 0.027104147 -0.03215975 -0.011347493
000010 a1 3d 00 3b 27 a1 d8 bb e9 cb 31 bc 34 5b 47 3b
       0.0019567984 -0.0066110077 -0.010851839 0.0030419352
000020 d4 41 34 3c 38 0b 50 bc 92 a7 83 3c 53 31 58 3c
       0.011002023 -0.012697987 0.016071115 0.013195354
000030 49 b1 9b b9 72 bd 37 3c 7c 45 56 bc c1 53 17 ba
       -0.00029695992 0.011214601 -0.01307809 -0.0005772673
000040 8c a8 44 bc c8 df 9f bc fe 72 94 bc 16 cb 5a bb
       -0.012003075 -0.019515887 -0.018121239 -0.0033385209
000050 c3 e7 18 3c ed 3b 19 bc 7a 27 ae bc dc 00 ca b9
       0.0093326 -0.009352666 -0.021259058 -0.00038529083
000060 ef ee 01 3c fc 57 6e 3a f4 f5 1a bc ba f0 b2 bc
       0.007930501 0.000909209 -0.009458054 -0.021843303
000070 fe 18 6f 3c 35 87 cc 3b 44 51 da 3b 8d a6 0f bc
       0.014593361 0.006241704 0.0066625196 -0.008767736
000080 e5 ae 1d 3c 04 ae ac 3b e7 fb 00 3c ad 27 bf 3b
       0.009624218 0.0052697677 0.007872558 0.005833587
000090 d3 3b 24 3c 31 ce 84 bc 5a d1 11 bc f2 6a 74 bb
       0.010024029 -0.016211601 -0.008900011 -0.003729519
0000a0 ca 82 9d bc 85 1b 82 bb 1c 60 8a ba e8 ea 0d bc
       -0.019227404 -0.0039705657 -0.0010557207 -0.008661963
0000b0 14 57 cf 3b 36 9b 53 bc bc f7 e9 3c a9 79 b4 3c
       0.006327519 -0.012915423 0.028560512 0.022030668
0000c0 ea 24 53 3c 85 5d cb 3a 09 b8 a6 bc 63 db 17 3b
       0.012887219 0.0015515542 -0.020351427 0.0023171536
0000d0 ab 3c db 3b 68 4f 40 3c 8d fa 09 3b f7 71 8a bc
       0.006690582 0.011737682 0.002105388 -0.016900046
0000e0 65 67 3a 3c e1 77 cf bc 42 bf 1e 3c 60 f3 96 bb
       0.01137719 -0.025325717 0.009689154 -0.0046066493
0000f0 1c 73 e6 39 0d 10 de ba fa 3b 90 3b 4c b6 c3 3b
       0.00043954782 -0.0016942039 0.004401681 0.005972659
000100 bd f3 bf bb 5b 37 4f 3b da 19 e1 bb 68 80 00 3c
       -0.0058579133 0.0031618688 -0.006869537 0.007843114
000110 b5 ba 25 bc fb f1 23 ba c6 74 85 3a a3 fb 53 bc
       -0.010115315 -0.00062540144 0.0010181896 -0.012938413
000120 91 bb 2f 3c a6 60 c0 bc 83 aa b2 3b 22 d0 ea bb
       0.010725872 -0.023483586 0.0054524555 -0.0071659246
000130 91 1f db bc bd d0 3a bc 4d 6c 88 3a f7 3a e8 3b
       -0.02674845 -0.011402306 0.0010408253 0.0070871073
000140 4b 57 aa bb a6 8e 39 bc e5 73 56 3c 98 a3 7a bb
       -0.0051983944 -0.011325514 0.013089155 -0.0038244482
000150 45 31 1b 3c bc 21 8e 3c 61 91 11 3c 03 e5 b6 3b
       0.009472196 0.01735007 0.008884759 0.0055814995
000160 81 c2 b4 bb 6d ed 72 3c 7b 52 e9 bc bf 0c 0d ba
       -0.0055163507 0.0148271145 -0.028481713 -0.00053806225
000170 7e 00 82 bb 37 91 e9 bc 9d f2 d3 3b c0 0e bb bb
       -0.003967344 -0.028511627 0.0064681307 -0.0057085454
000180 87 bc d7 3c 55 d3 12 3c 62 8e 38 bb d9 1e fc 3a
       0.026335014 0.008961518 -0.0028161039 0.0019235268
000190 4e aa eb bb e7 db 08 3c ba 92 85 3a 14 e6 a2 bb
       -0.0071919328 0.00835321 0.0010190823 -0.004971275
0001a0 2e d1 27 3b 50 2d 56 3c 38 40 d1 b9 08 a4 4b 3c
       0.0025606859 0.013072327 -0.00039911433 0.012429245
0001b0 ba 00 25 3c d3 f5 a0 bc d1 e2 7f 3c b6 07 ae bc
       0.010070974 -0.019648468 0.015618042 -0.021243911
0001c0 09 2b 7c 3c 6f 8f 70 bc 6e 69 d7 3b 67 2f 62 bc
       0.01539112 -0.014682635 0.0065738475 -0.013805247
0001d0 6e 82 c1 bb 84 59 ad 3b 79 b7 c3 3b 04 83 83 bc
       -0.005905441 0.005290212 0.0059727994 -0.016053684
0001e0 b9 df 20 bc 8c 04 d8 3c 94 47 2b ba f5 5b 9f 3c
       -0.009818965 0.026369356 -0.00065337983 0.019453028
0001f0 b5 60 77 bc b0 49 46 ba 20 8c 97 ba 1c 8d ac bc
       -0.01509874 -0.0007564081 -0.0011562146 -0.02106338

network_body._body_endoder.seq_layers.6.weight f4 [128, 128]
000000 8a aa c4 3c c9 98 9e 3d 90 98 e4 3b f3 5e 55 3d
       0.0240071 0.07743985 0.0069761947 0.052092504
000010 c2 12 10 bd 27 3f 45 bd 0c 7e 49 3d 53 aa 19 bd
       -0.03517414 -0.04815593 0.049192473 -0.03751595
000020 fb d0 4c bd 4b b8 b2 ba f0 40 04 be 54 bd 8f bd
       -0.050003987 -0.0013635246 -0.12915397 -0.07018533
000030 ad 18 22 bd f5 19 47 3d 72 97 85 bd 36 1c 38 3e
       -0.039574314 0.04860874 -0.065230265 0.17979512
000040 3b 6d 63 bd 0c 7c b2 3d 60 48 15 3e 89 fb c8 bb
       -0.055524092 0.08715066 0.1457839 -0.006133501
000050 db 53 c2 bd 3d 0c 2e bd a8 f6 25 bd ce e3 12 3d
       -0.094886504 -0.04249214 -0.040518433 0.035861783
000060 d3 c2 33 be 2b 86 05 be 67 0a 04 bd 64 75 0d 3d
       -0.17554788 -0.13039462 -0.032236483 0.03453578
000070 b1 cf aa bd da df fa bd 82 9d 8c 3d 3b 42 96 3a
       -0.08340395 -0.122497275 0.0686598 0.001146383
000080 45 d1 63 be 90 2a f0 bd 8d e1 8b 3d 35 93 29 be
       -0.22247799 -0.11726868 0.0683013 -0.16560061
000090 0c 3b aa 3c 08 1c 02 bd 23 b1 1a 3e 58 ea ab 3c
       0.020780109 -0.031765014 0.15106635 0.020985767
0000a0 c1 e9 ca 3d 39 64 06 bc fd 4c 75 3c 56 5d 18 3e
       0.09907866 -0.008202606 0.014971969 0.14879355
0000b0 38 d0 17 bd 79 c8 08 bd 11 53 9d bd a8 f8 e5 3d
       -0.037063807 -0.03339431 -0.07681859 0.11229068
0000c0 8c 82 27 bd a8 bf 79 3d 65 e7 aa 3b 09 88 22 bd
       -0.040895984 0.060973793 0.0052155727 -0.039680514
0000d0 88 e0 bc bc 6b b4 5e bd 2a e4 39 bd 11 bf da 3d
       -0.023056284 -0.05437128 -0.04538361 0.10680974
0000e0 50 38 e4 bc fa 32 88 bd 79 7f 7e be cc 2f 2e be
       -0.027858883 -0.06650348 -0.24853314 -0.1701042
0000f0 a0 7f 5a bd 29 a4 35 3d 3c 94 f1 bd 9d d7 82 bd
       -0.05334437 0.04434601 -0.117958516 -0.06388781
000100 b0 47 09 be fd 6a 32 3b d6 ce 25 bd 45 df 04 bc
       -0.13406253 0.0027224415 -0.040480457 -0.008109872
000110 1a 51 06 3e 90 8d 8d bd 5d 73 5d 3b 06 ff 84 bc
       0.13116875 -0.069117665 0.0033790686 -0.016234886
000120 46 cd 1a 3d f9 e5 80 3d 26 e3 25 3d a9 69 c5 bc
       0.03779342 0.06293864 0.04049983 -0.024098234
000130 eb 3a 07 bd 2e b0 2e bd b2 2a ca bd cf ac a6 be
       -0.033015173 -0.042648487 -0.09871425 -0.32553717
000140 e0 c1 8f 3d d9 5a 8a 3d 28 4e ed bc 33 2d 34 be
       0.070194006 0.06755609 -0.028967932 -0.17595367
000150 2c 93 8b bd 6d 04 8c 3d 3c 56 54 bc f4 2e fe bd
       -0.0681518 0.06836782 -0.012960013 -0.12411299
000160 07 ec 40 bd 51 f7 15 be 84 9b 37 3d e1 b5 9d 3a
       -0.047100093 -0.14645125 0.044826046 0.0012032354
000170 56 55 e8 bd fe d0 2a bc 0f ad f7 3d 40 04 86 bd
       -0.113444015 -0.010425804 0.12093555 -0.065437794
000180 16 b3 5c bd 9c a7 d5 3d 2b 7b 46 bd db 48 b5 3b
       -0.053881727 0.104323596 -0.048457306 0.0055323667
000190 0f 2c 97 3d 14 27 4e 3d 74 22 4b bd a8 f6 23 bd
       0.073814504 0.050330237 -0.049593404 -0.04003015
0001a0 7b 60 02 be 99 71 ee 3c 83 80 f8 3d 23 e2 94 bc
       -0.12732117 0.029106902 0.12133887 -0.018174237
0001b0 81 c1 7e bd 3c d0 23 bd 8d 4c f7 bd 18 06 10 3e
       -0.06219626 -0.03999351 -0.12075148 0.14064825
0001c0 68 14 1f bc 79 ff 5f bd 85 40 0f 3d 5a 0e 41 bc
       -0.009709455 -0.054686997 0.03497364 -0.011783207
0001d0 3f 32 2e 3d e4 92 fd 3d 25 f6 79 bc 7b b0 be bd
       0.042528387 0.12381533 -0.015256439 -0.09311005
0001e0 dc 88 4b 3d 6c 2e f9 bd 46 24 23 bc d2 5c 9c 3c
       0.049691066 -0.121670574 -0.009957379 0.019087229
0001f0 f8 53 c5 3c 2c 13 3f 3e 4d ed 4b bc be f5 ab bd
       0.024087891 0.18659657 -0.012446714 -0.08396481
000200 a6 b2 2d bd 7a 10 39 3d d6 57 ff 3d 9d 93 25 3d
       -0.0424067 0.04518173 0.12467925 0.040423978
000210 c8 12 b8 bd bd a9 eb b9 9d 5d f8 3c bd 50 69 bd
       -0.08987957 -0.00044949158 0.030318076 -0.056961764
000220 25 2e a4 3d de 7c de 3d d8 2a 05 3e 8d 13 bf bd
       0.08016614 0.1086366 0.13004625 -0.09329901
000230 35 f1 1f bd 2b e9 2c 3e 0a 00 69 3c 6e 35 c0 bb
       -0.039048392 0.16885822 0.014221201 -0.0058657443
000240 aa 3a 85 3d fa 49 38 bd 7d f1 90 3c 9f f7 01 3e
       0.0650533 -0.044992425 0.017693276 0.12692116
000250 00 23 ba bc ad 7a 86 bd 34 3b ee 3c 88 b5 79 bd
       -0.022721767 -0.06566367 0.029080965 -0.060964137
000260 d6 37 ac bb a6 4c 48 3d 87 35 19 3e 8e ec e2 bc
       -0.0052556796 0.048901223 0.14961825 -0.027700689
000270 68 1c e1 3c 34 61 48 3c 43 2f 11 3b 81 b6 28 3c
       0.027479365 0.012230206 0.0022153414 0.010297419
000280 fb 84 9a 3d a0 1b 09 3e 5a f9 8c 3d f4 79 0b 3e
       0.07544895 0.13389444 0.068834975 0.1362074
000290 ed 47 3c 3c 72 1f db bd cc 93 b0 3d 3b fa 68 3d
       0.011491758 -0.10699357 0.0862194 0.056879263
0002a0 1d 79 e8 3c 71 a1 d6 3c c9 77 7f bd fb 11 e3 3d
       0.028378064 0.026200028 -0.062370095 0.11087414
0002b0 89 37 62 bd 5b 04 df bd 98 80 a4 bd 81 95 a0 3c
       -0.055228744 -0.108895026 -0.0803234 0.019602539
0002c0 9e 98 a4 3c 53 19 04 be 80 e4 5a bc e3 40 87 bd
       0.020092305 -0.12900285 -0.013360143 -0.06604173
0002d0 12 5e a8 bb fd 1f 15 bd 7f 83 17 bd c7 eb 4e bd
       -0.005138167 -0.03640746 -0.03699064 -0.050517824
0002e0 95 b3 b0 bb f9 cb 95 bd 89 9f 98 3c 5f 7a df bd
       -0.0053925016 -0.07314295 0.01863076 -0.10912012
0002f0 d4 19 95 bd 00 06 a0 bd 68 5f 68 3d 3e d9 f5 bd
       -0.07280317 -0.078136444 0.05673161 -0.12004326
000300 c1 5c 6a 3d 02 a8 54 3d df 99 ca 3d 73 78 02 3e
       0.057217363 0.051918037 0.0989263 0.1274126
000310 c2 04 56 3d ff a4 15 be b0 d1 ad bd d5 a4 ff 3b
       0.05225063 -0.14613722 -0.0848726 0.007801632
000320 03 54 0a bd 2e cd 00 3d 92 76 36 3e ac e4 61 bd
       -0.033771526 0.031445675 0.17818668 -0.05514972
000330 7c 32 08 be 17 96 fe bd df 0e 45 bd 29 a6 b5 3a
       -0.13300508 -0.12430971 -0.048109885 0.0013858724
000340 12 48 62 3e 17 87 0e 3d 79 9f 61 bd da 55 7d 3d
       0.22097805 0.0347968 -0.055083726 0.061849453
000350 88 c5 33 3d 95 f6 16 3d 8a f6 33 bd d3 47 14 be
       0.043889552 0.036856253 -0.04393629 -0.14480524
000360 87 8d 97 3c b7 25 96 3b 93 23 77 ba ce 0c e3 3d
       0.018500103 0.0045821327 -0.0009427603 0.11086427
000370 69 b9 9e bd cc 12 41 bc 11 4f 0f bd 3e cc 1d bd
       -0.07750208 -0.011784267 -0.034987513 -0.03852486
000380 75 7f c2 3d e4 a0 27 be 9f 7c 23 3d c9 56 37 3d
       0.09496967 -0.16369969 0.03991377 0.0447605
000390 6a 13 74 3d c3 7c 9e bd 9a ef 66 bd f0 e8 bd bd
       0.059588827 -0.0773864 -0.056380846 -0.09272945
0003a0 56 c0 5b 3c cb 68 c6 3c 16 a5 9e bd 26 b7 87 bb
       0.013412556 0.024219891 -0.077463314 -0.004141706
0003b0 8c 26 0a be 53 4e 2b be 82 0e 1e bc 41 21 a1 3d
       -0.13491267 -0.16729097 -0.009647014 0.07867671
0003c0 fb 90 eb 3c f4 f6 bc bd 49 54 62 be 4e ad c0 bd
       0.028755656 -0.0922679 -0.22102465 -0.09408055
0003d0 db 27 cf 3c ab 8e 8b 3d 76 11 ec 3d ed 98 2a 3d
       0.02528756 0.06814321 0.11526768 0.041649748
0003e0 e0 02 0b be ce 01 a9 3d 8e b4 4c 3e 37 72 b0 bc
       -0.13575315 0.08252297 0.19990751 -0.021538837
0003f0 c0 47 e0 3d 04 05 0f 3d 0f bc e1 bd 6c ef 81 3d
       0.10951185 0.034916893 -0.110221975 0.06344494

network_body._body_endoder.seq_layers.6.bias f4 [128]
000000 de 4c 1a bd 1a a7 91 bb cc f3 a5 3c 2c f4 68 3c
       -0.037670963 -0.004444969 0.020257853 0.014218371
000010 ff b3 63 3c 60 3d 85 bb 9e f8 4d 3b 51 c7 c1 3c
       0.013897895 -0.0040661544 0.0031428705 0.023654612
000020 d4 9e aa bb 18 ae ab 3b 28 83 05 bd 7e f3 ad bc
       -0.005206922 0.0052392595 -0.032595783 -0.02123427
000030 2e d6 cc 3c 8c cc ec 3c 21 83 a5 bb 07 0f 87 3b
       0.025004473 0.02890613 -0.005051032 0.0041216644
000040 8b 98 86 3c dd 47 1d bc 07 eb 0f bc 8a 2d 5c bb
       0.01643016 -0.009599653 -0.008784062 -0.003359648
000050 d1 96 36 bc 6d 92 ce bc 9a 2a 27 3c e6 8d 7a 3c
       -0.011144356 -0.025216306 0.010203028 0.01529262
000060 fd 43 44 3c 58 a9 d0 bc da 17 5c bc 40 2a ae bb
       0.0119791 -0.025471374 -0.013433421 -0.005315095
000070 9e 9a b5 3b 25 13 f0 bc d0 d7 26 bd 1f f0 46 bc
       0.0055421134 -0.029306004 -0.04073316 -0.01214221
000080 ac 36 06 bd 63 29 ea 3c b0 bf ce bc 05 65 85 bb
       -0.032766983 0.028584188 -0.025237888 -0.0040708804
000090 5e 60 e4 bc 37 0e 24 3a 7d 64 93 bc 0f fc 20 3d
       -0.027877983 0.00062582217 -0.017992252 0.03930288
0000a0 14 e5 fd 3b 33 6f 4b bc 31 e4 95 bc 4b 23 e8 bc
       0.0077482555 -0.012416649 -0.018297287 -0.028337141
0000b0 f7 c3 2f bb 06 98 be bc 90 f3 b3 3c 61 0b d5 3c
       -0.0026819685 -0.02326585 0.021966726 0.026006402
0000c0 7b 1e c0 ba bf 05 da bc f2 38 b5 3b c8 42 90 bc
       -0.0014657521 -0.026614068 0.00553047 -0.017609969
0000d0 21 a4 1f bc fe b6 c9 bc 0f 60 84 bc e2 87 a4 3c
       -0.009743721 -0.02462339 -0.016159086 0.020084325
0000e0 38 86 e4 bc e3 b7 0a bc 2e 8f 13 3c 1a cb 6d 3c
       -0.027896032 -0.008466694 0.009006305 0.014513755
0000f0 16 30 65 bc 9f b0 cb 3b 47 f6 a2 3a 4a 3f 0c bc
       -0.013988515 0.0062161232 0.0012433016 -0.008560011
000100 c8 91 50 bb 8d 17 8b 3b b8 fb 66 3c 02 3d 1f bd
       -0.0031825174 0.004244751 0.0140981 -0.03887654
000110 f2 c6 14 bb ef a8 fa 3c a0 9e 31 3b 8a ff a1 bc
       -0.0022701588 0.030598132 0.0027102605 -0.01977517
000120 08 bc f1 3b 4b ce 9c 3c 0e 30 37 3b 22 c7 cd bc
       0.0073771514 0.019141337 0.0027952227 -0.025119368
000130 c8 9a 3a bb ad 61 4d 3c 71 5b 7d 3b 28 01 a8 bc
       -0.0028473604 0.012535495 0.003865924 -0.020508364
000140 45 4f cc bc b5 76 09 bc 3e ee c4 bc fe 39 b5 bc
       -0.024940142 -0.008390118 -0.024039384 -0.02212238
000150 bc cf 03 3c 92 b8 7d bc 7b 86 4b bc 60 4c c7 bc
       0.008045133 -0.0154858995 -0.012422199 -0.02432841
000160 5c 49 11 bd ee c6 d3 bc 1a 6f 05 bd 31 53 39 bc
       -0.03547035 -0.025851693 -0.032576658 -0.011311338
000170 ce a5 87 3c e6 7b 71 ba 0e f6 06 bd a5 2a b5 bc
       0.016558554 -0.0009211883 -0.0329495 -0.022115061
000180 fb b9 c2 3b f8 3d 47 3c 10 41 28 bc 57 a2 58 3c
       0.0059425808 0.012160771 -0.010269418 0.013222299
000190 62 af f0 bb 00 8a 09 bd d5 54 3a bc b9 e2 ac 3c
       -0.007345126 -0.033578873 -0.011372765 0.021104204
0001a0 6f be 84 bc ca c7 e1 bb 40 11 02 bd c8 ff cc bc
       -0.016204087 -0.006890272 -0.031754732 -0.02502431
0001b0 bd 9f 2f bc f6 7b 11 bc 13 5c 14 bc ce 8a 09 bc
       -0.010719237 -0.008879652 -0.009055155 -0.00839491
0001c0 a1 8b 11 3b 73 37 7e 3c 24 5b 21 3c 96 8a 27 bc
       0.002220847 0.01551615 0.00984839 -0.010225913
0001d0 2b 47 0e bc 04 c7 8f 3c 8e 16 0f bc 76 4a 5c bc
       -0.00868396 0.017550953 -0.008733405 -0.013445487
0001e0 e4 84 59 3b 07 fe 01 bc 27 02 1d bc 93 67 62 ba
       0.0033190781 -0.0079341 -0.009583033 -0.00086366496
0001f0 70 49 5f 3c 91 32 8d bc d8 8d fd 3c e3 26 2d bc
       0.013628349 -0.017236026 0.030951425 -0.010568353

network_body._body_endoder.seq_layers.8.weight f4 [128, 128]
000000 00 d2 0b be 6b 02 ef 3c 21 7f 09 be 8f 3c f7 bd
       -0.13654327 0.029175958 -0.13427402 -0.120720975
000010 e4 f6 3e bd 27 ce 8c bc 99 77 b1 3d 51 09 af bd
       -0.046622172 -0.017188145 0.086653896 -0.08546699
000020 8d e2 0e be e1 6f 14 3d 02 03 ce 3d 0c 17 10 3d
       -0.1395361 0.03623951 0.100591674 0.03517823
000030 c7 2e a4 3d 6d e3 83 3c 73 53 d9 bb d9 c9 6c 3c
       0.080167346 0.016099656 -0.0066322624 0.014452421
000040 b3 98 90 bd f0 c2 08 3d 76 57 49 3e fe 98 cd 3d
       -0.07060375 0.033389032 0.1966227 0.100389466
000050 82 13 05 3e 0a 15 ec bc a4 ae fd bd 06 e3 ff bd
       0.12995723 -0.028818626 -0.12386826 -0.12494473
000060 a9 21 60 be 07 48 48 3e 6c 8a 69 3d 29 97 e2 bb
       -0.2188784 0.19558726 0.057016775 -0.0069149924
000070 cf 60 e1 3c 3d 54 10 bd ca 05 4a 3e 66 cb d1 bd
       0.027511982 -0.035236586 0.19728771 -0.10243873
000080 cb 97 c4 3c ba 68 4d bc cf 64 27 3e e4 4c 36 3b
       0.023998162 -0.012537176 0.16347049 0.0027816826
000090 4a de 33 bd 3a e7 0b 3e 49 20 e3 3d eb 73 03 be
       -0.043913163 0.13662425 0.11090142 -0.12837188
0000a0 4c 40 23 be c9 c7 08 be 92 c1 a3 3c dc 87 a5 3c
       -0.15942496 -0.13357462 0.019989762 0.020206384
0000b0 0c 1e ed 3d d8 18 bf 3c b5 79 73 3c 28 95 d8 3d
       0.115779966 0.023327276 0.01486056 0.10575324
0000c0 65 ca 70 3d c7 3c 9f 3c e8 43 3b bc 11 b8 7a bd
       0.05878677 0.01943816 -0.011429764 -0.061210696
0000d0 30 43 d1 bc 74 15 f9 39 06 b5 0e 3e ef 35 da bd
       -0.025544733 0.00047508965 0.13936242 -0.10654818
0000e0 70 ba 55 ba e6 a6 f5 3b 2d 7b 71 bd 09 d0 0e bd
       -0.00081530865 0.0074967025 -0.05895536 -0.034866367
0000f0 72 d5 0e 3e d4 4c 1f 3d 8a 19 03 3e bd 91 0c 3e
       0.1394861 0.03889163 0.12802711 0.1372747
000100 a8 95 74 bd c5 04 62 3c b7 02 b4 bd a0 51 3b 3d
       -0.059713036 0.013795082 -0.0878958 0.04573214
000110 e6 35 38 3c 3a 68 a1 3d 28 59 f2 bc c1 b5 56 3d
       0.011243319 0.07881208 -0.029583529 0.052419428
000120 ff 86 64 3d b1 d1 01 be 09 95 89 3d e2 69 a5 bc
       0.055792805 -0.12677647 0.06717879 -0.02019209
000130 9c 20 0d bd 8b 29 94 3d 97 8e a7 bc 85 4e c9 3c
       -0.034454927 0.07234486 -0.020453734 0.024573574
000140 34 cd 12 3e 03 68 50 bc 3a f2 48 bd ff b2 a0 3c
       0.14336091 -0.012720111 -0.04905913 0.019616602
000150 60 f1 a1 bc 85 bc a1 ba e0 ef 12 3d b1 42 af 3c
       -0.019768417 -0.0012339508 0.035873294 0.021394106
000160 4b 98 8e bc e8 56 ad 3d da 07 e3 bc e2 a5 49 bd
       -0.017406603 0.08463842 -0.027713705 -0.049230464
000170 f7 e2 2c be 56 fd c7 bd 51 d2 4b b9 f8 5d 5a be
       -0.16883455 -0.09765117 -0.00019437938 -0.21324909
000180 94 46 b8 bd 62 52 e8 bd 3a dc 1f 3d 97 82 5d bc
       -0.08997837 -0.11343838 0.039028384 -0.013519905
000190 e5 a5 6c 3d 3e 1a 13 3d 4e 1f af 3d cb d6 50 be
       0.057775397 0.0359137 0.08550893 -0.20394437
0001a0 ec 8f 8d 3e 26 d3 e4 3c e6 38 cb bd 74 fd 62 bd
       0.27648866 0.027932715 -0.09922962 -0.055417493
0001b0 3f f6 6b 3d a9 c5 52 be 77 48 cb 3c a3 55 09 be
       0.057607885 -0.20583214 0.024814827 -0.13411574
0001c0 50 45 2d 3e e1 b6 c7 bd 96 fe 76 3d 1e a9 2b 3d
       0.16920972 -0.09751678 0.060301386 0.04190933
0001d0 0c 22 aa 3c 6a eb a1 bc 5c 6c a2 bc 14 5c 84 3c
       0.020768188 -0.019765574 -0.01982706 0.016157188
0001e0 6e 1c 69 3c 1a 0c 8c 3d c3 63 0c 3e b5 00 22 be
       0.01422797 0.06838246 0.13709931 -0.15820582
0001f0 ae 47 b8 bd 36 3d 7e bc 6a 66 9b 3d 1b 46 85 3c
       -0.08998047 -0.0155175235 0.07587893 0.01626878
000200 05 57 17 3e cb de a1 3d fe 0c 6f bd fd df 85 3d
       0.14779289 0.079038225 -0.058362 0.06536863
000210 a5 4a 8f bd e0 bb 98 bc c9 60 28 be f2 13 03 3d
       -0.06996659 -0.018644273 -0.1644317 0.032001443
000220 54 ae e4 bd 5a 53 61 3d 82 24 63 bc da 16 89 3d
       -0.11166063 0.05501113 -0.013863685 0.06693812
000230 2f 57 1e 3e 34 cd 23 3e 36 51 cb bd 8c df a9 3d
       0.15462945 0.15996248 -0.09927599 0.08294591
000240 87 82 ff bd e0 df d7 3d ae f0 9e bb cf 45 86 3d
       -0.12476068 0.10540748 -0.0048504686 0.06556284
000250 f1 03 cd bd 8d b0 d1 bd 82 4f 25 bd ff fa ef bd
       -0.100105174 -0.102387525 -0.040359028 -0.117177956
000260 15 c0 08 3e 95 81 4c 3d 53 3c 38 3d d2 c9 e5 3d
       0.13354523 0.049928267 0.044979405 0.11220135
000270 06 b2 10 3e c3 53 44 3d f1 a5 2e bd ca 27 e4 bb
       0.1413041 0.047931444 -0.042638723 -0.006962751
000280 4d 1f db 3d 47 94 ef 3c 37 4a 38 bd 4a 67 a2 3c
       0.106993295 0.029245509 -0.04499265 0.019824643
000290 4a b6 30 3d 26 d3 fc bc 42 7b a6 3d 96 38 ad bd
       0.043142594 -0.030862402 0.08128978 -0.084580585
0002a0 3c d3 1c 3e 71 23 ab bc cf b8 f6 3d c4 85 90 3c
       0.15314955 -0.020890923 0.12046968 0.01764191
0002b0 d1 e5 d9 bd e0 d0 2c 3c e6 0b 12 3c 01 21 73 bd
       -0.10639537 0.010547847 0.00891397 -0.059357647
0002c0 07 bd 1d 3e a3 27 03 3d e7 09 b2 3d f3 81 29 bc
       0.1540414 0.032020222 0.08693295 -0.010345924
0002d0 13 ae 1a bd 6b cd 56 3d 75 23 a6 3d cd c2 58 be
       -0.037763666 0.052441996 0.08112232 -0.2116806
0002e0 c6 11 aa 3c 81 9e d6 3d d3 a7 22 3b 70 b3 74 3d
       0.020760428 0.10479451 0.002481927 0.059741437
0002f0 8d c3 9a 3d 15 9c 1f be 2a 73 e9 3d 0b 75 33 3d
       0.075568296 -0.15586884 0.11398919 0.043812793
000300 f6 66 3f 3d 28 20 ab 3d e2 8d 0e be b6 10 90 bd
       0.04672905 0.08355743 -0.13921311 -0.07034437
000310 30 a4 09 bb 2c 5b 30 3c 94 fc 2c be b4 36 d9 3c
       -0.0021002404 0.010763925 -0.16893226 0.026515342
000320 df 3d a3 3c 71 2c 39 bd 3e 4a e0 bb 7a 26 c0 3d
       0.019926963 -0.0452084 -0.006844788 0.09382339
000330 4a c2 97 3c 75 57 ff bc 1d b3 a6 3c 56 5a 81 bd
       0.018525261 -0.031169632 0.02034908 -0.06316058
000340 16 b2 c5 3d 07 80 5d 3d b1 8b f8 bd e8 15 3b 3c
       0.09653108 0.054077175 -0.12136019 0.011418797
000350 fa db ac bd cc ae c2 bb 14 73 56 3c 6a 1a 72 bc
       -0.08440395 -0.0059412476 0.01308896 -0.014776805
000360 eb 02 d9 3c 65 2e 2b bd 81 4d 47 bc 54 1f 57 3e
       0.02649065 -0.041792292 -0.012164474 0.21008044
000370 32 8e 1a 3d 51 c7 90 3d 7e cf 4f 3d 33 3f 82 3d
       0.037733264 0.070692666 0.05073499 0.063597105
000380 86 27 eb bc 95 06 03 3e 0f 7e 67 3d 4d ab f8 3d
       -0.02870537 0.1279548 0.056516703 0.12142048
000390 02 a1 07 bc b0 7e 78 bd 5b 83 79 bd c3 17 80 bd
       -0.008278133 -0.060667694 -0.060916286 -0.06254532
0003a0 c7 dc 97 3c 25 fb 8f bc da 03 bd 3d 3f 7d 29 bd
       0.018537892 -0.01757581 0.0922925 -0.04137921
0003b0 55 8c 3e 3d d2 58 2d 3c ad 13 5e 3e 0c 6f a8 bd
       0.04652055 0.010580258 0.21687193 -0.082243055
0003c0 d5 4c dc bd 3a fc 1c 3e 39 ef 82 3c 54 e2 90 bd
       -0.10756842 0.15330592 0.01598321 -0.07074419
0003d0 ef 71 36 be 2d b8 19 3d d7 a2 c9 3d f9 9c ba 3c
       -0.178169 0.03752916 0.09845512 0.022779929
0003e0 80 02 0e 3c 02 7d 82 bc 5b 10 3b 3e 61 6b 93 3d
       0.008667588 -0.015928749 0.18267958 0.07198215
0003f0 0d e9 5f 3b 0f cf f2 3d 34 ed 35 3d 73 2f 21 3e
       0.0034166009 0.118558995 0.044415668 0.15740757
