results/test5_solo/Collector/Collector-499938.onnx (onnx, 604427 bytes, 9 tensors)

network_body._body_endoder.seq_layers.0.weight f4 [256, 68]
000000 c1 e6 a6 bc 7b c4 db 3d da b2 8f bd 3e e9 0d bd
       -0.020373704 0.10730835 -0.07016535 -0.034646265
000010 08 31 41 3d 5d 85 8d 3b d7 62 1e 3e 41 75 81 bb
       0.0471659 0.0043188767 0.15467392 -0.0039507453
000020 9c dc 73 3e f2 3b 75 3d 01 4d 6e be 28 0c 8e 3e
       0.23814625 0.05987162 -0.23271562 0.2774365
000030 f7 a8 65 3e aa 6d 7f bd 36 d4 1d 3e 7b 16 5f 3e
       0.22427736 -0.062360443 0.15412983 0.2178592
000040 e8 7d 6e 3d c8 b8 87 be e2 bf 9d 3d ed 2d bf 3d
       0.058225542 -0.26508164 0.07702614 0.093349315
000050 a2 3a 0e 3d 8c b0 88 be c3 19 63 3e ce fa 31 3e
       0.034723885 -0.26697195 0.22177796 0.1738083
000060 5e 33 1b be 0c 15 f9 bd 68 43 fe bc 13 5b 13 be
       -0.15156314 -0.121622175 -0.031038001 -0.14390211
000070 c5 53 18 be 15 86 ab 3d 5c fe 09 be aa 7a 00 3d
       -0.14875706 0.083751835 -0.13475937 0.03136698
000080 77 37 1a bd e6 90 2f 3d c3 73 18 3e cf a3 69 bd
       -0.03765055 0.042862795 0.1488791 -0.057040986
000090 de 3f 42 3c fb f9 76 bd 1e 21 e2 bd 44 0e bd 3c
       0.011856047 -0.060296994 -0.11041473 0.023078091
0000a0 2e 3a f0 3c d0 d0 3c be 8c 5e 11 3c 3a a9 aa 3d
       0.029324617 -0.1843903 0.008872639 0.08333059
0000b0 8f 93 2a be 4b 46 19 be ff 2f 0e 3e 6e bf 5c bd
       -0.16657852 -0.14968221 0.13885497 -0.0538935
0000c0 73 92 21 bb b5 66 9c bd 64 e6 27 be 85 b5 84 3c
       -0.002465394 -0.07636777 -0.16396481 0.016199837
0000d0 23 7d d1 3d d1 0f c2 bd 0c 9b 1f 3e d0 f1 ed bb
       0.10228946 -0.09475673 0.1558649 -0.0072614923
0000e0 17 bd 90 3b 6b c4 39 3e b3 65 8f 3d fb e2 cb b9
       0.0044170725 0.18141334 0.070018195 -0.0003888829
0000f0 bb b0 fa bd 75 81 21 3d b8 8b de 3c b2 c7 2b be
       -0.1224074 0.0394301 0.027166232 -0.16775396
000100 b7 c5 47 3d 94 52 26 be 18 e1 53 3c dc 9f 31 3e
       0.04877254 -0.16242439 0.0129320845 0.17346138
000110 bc 65 9f 3b 4f b8 29 be 52 d8 66 bd 37 e9 9e bd
       0.0048644226 -0.16574214 -0.056358643 -0.07759326
000120 25 c4 b2 bd 4a 4d de bc 28 1f dd bb 96 b5 12 3e
       -0.08728818 -0.027136464 -0.006748099 0.14327082
000130 0f 3c a1 3d b1 22 0b be 12 86 39 3e 39 cc e3 3d
       0.078727834 -0.13587452 0.1811755 0.11122937
000140 2d 58 83 3d 5f e2 76 bd 74 67 15 be 44 d0 81 bc
       0.064133026 -0.060274478 -0.14590245 -0.01584638
000150 ce fb d4 bd e3 4d 3d 3e 6c e7 6c bc 98 7c e3 bd
       -0.103995904 0.18486743 -0.014459472 -0.11107749
000160 4f 69 9a 3d 3d 4f a2 bd 2a f7 c5 3d 41 82 94 3d
       0.07539617 -0.0792527 0.096662834 0.072514065
000170 b7 10 d1 3d cc 9d 05 3b 14 bb 80 bd 9d 29 9c bd
       0.10208266 0.0020388244 -0.06285682 -0.076251246
000180 5f 4a 6f 3e 15 8d 73 be e1 0e ba 3d bb 4f 9b 3b
       0.23368214 -0.23784287 0.09084869 0.004739729
000190 59 48 24 3e f3 a3 9d 3b 16 dc 79 be 53 05 21 bd
       0.16043223 0.004810804 -0.24400362 -0.03931172
0001a0 c2 e0 e0 3d a8 c7 1b bd 55 1e e4 3d a8 e1 b1 3d
       0.10980369 -0.038032204 0.11138598 0.08685619
0001b0 60 8b 1c be 35 98 fa bd aa b9 d3 bd 7e b1 5d 3d
       -0.15287542 -0.122360624 -0.10338147 0.054124348
0001c0 65 66 ca 3d 6f 50 3f be 4a 1a 41 3e 03 ba e2 3c
       0.098828115 -0.18683027 0.18857685 0.027676588
0001d0 9a b1 f7 3c 2b 0c c8 3d 95 c3 11 be f8 93 40 3e
       0.030236054 0.09767946 -0.14234765 0.18806446
0001e0 46 b9 0c 3e b3 0a 20 be 54 6a 18 3d 6c 96 f4 3d
       0.13742551 -0.15629081 0.037210777 0.11942753
0001f0 66 2f 3b 3d 28 9f c9 bc 0d ab 89 bc 4d 05 14 be
       0.0456995 -0.024612024 -0.016805196 -0.14455147
000200 68 11 df 3d 04 f4 88 bd c1 93 52 be 2a 03 2b be
       0.10891992 -0.06687167 -0.20564176 -0.16700426
000210 16 e2 63 3e 18 a7 c5 bd 61 91 e1 bd bc 24 82 3d
       0.22254214 -0.09651011 -0.11014057 0.06354663
000220 df 9c 68 bd 24 1c a5 3c 9b 27 e3 3c bb 82 05 be
       -0.05679023 0.02015502 0.027728846 -0.13038151
000230 e6 70 f4 3c 65 76 1e be 3d e4 62 3c 29 d4 29 bd
       0.02983899 -0.15474851 0.013848362 -0.041462097
000240 62 f1 80 bd f8 40 54 be 2a 65 98 bd 78 fd 60 3d
       -0.0629604 -0.20727909 -0.074411705 0.054929227
000250 ca 9f 07 bd 3a 79 36 bd b9 b8 c5 bd 8a 67 91 be
       -0.03311137 -0.044549204 -0.09654374 -0.28399307
000260 49 b5 a3 3d c5 a8 04 bb 04 a3 38 3d ca 40 2d 3e
       0.07993562 -0.0020242196 0.04507734 0.16919246
000270 77 fb d8 3c f9 f4 5e bd ed 93 06 be 6e 20 a7 bc
       0.026487095 -0.054432843 -0.13142367 -0.020401206
000280 a7 99 56 bc 9b d4 8a 3c 65 b3 28 3b e9 21 01 3e
       -0.013098157 0.016947081 0.0025741693 0.12610592
000290 18 c9 e8 bc 5e 1c aa 3d 25 9b a6 bd 12 a7 d7 3c
       -0.028416201 0.08306192 -0.0813506 0.026324783
0002a0 67 0c fe 3d 18 3f c9 3c 29 00 af 3e bc a1 22 bd
       0.12404709 0.024566218 0.3417981 -0.039705023
0002b0 b5 4e 35 be c8 5e ff bd 29 df 8e be b0 92 45 bd
       -0.17705806 -0.1246925 -0.27904633 -0.048235595
0002c0 51 f3 6e be 14 7f eb 3d 4b d6 d2 bd 32 66 cb bd
       -0.23335005 0.114988476 -0.102947794 -0.099316016
0002d0 06 47 38 3c d2 df 02 3e 7a 62 35 be 32 2a 84 3d
       0.011247402 0.12780693 -0.17713347 0.064533606
0002e0 ac fb ca bc 03 5d 06 bc 18 be 34 be d9 7d cd bd
       -0.02477821 -0.008200887 -0.1765064 -0.10033769
0002f0 1f 7b db 3d 85 72 b1 bd b7 17 83 3e 7e 0c 97 bb
       0.10716843 -0.08664421 0.2560403 -0.0046096435
000300 1e 7d 66 bd 66 cb 99 3c 3a fe 3d be f1 56 d2 3b
       -0.056271665 0.018773746 -0.18554011 0.0064190556
000310 bc b3 86 bd a1 b5 5a bd d3 e6 5c bd 0e f3 1a be
       -0.0657725 -0.05339587 -0.05393107 -0.1513178
000320 7c ee 82 be 22 9e 48 3d b8 c2 52 be d8 f7 db 3d
       -0.25572574 0.048978932 -0.20582092 0.10740632
000330 d1 03 d4 3d 58 cd ee 3c 72 45 1e 3d 2c b9 c6 3d
       0.103522904 0.02915065 0.038640447 0.097032875
000340 5e 4b c0 bc 59 65 b0 bc cf bf 36 be 62 fc 2b 3d
       -0.023473438 -0.021532701 -0.17846607 0.041988738
000350 8a 02 18 be c0 96 07 bd 8e 49 3c bc 1c a3 16 be
       -0.14844719 -0.03310275 -0.011492146 -0.14710659
000360 0a 61 fe 3d d6 86 7f bd 7c e1 0e 3d b8 45 01 be
       0.124208525 -0.06238445 0.034883007 -0.12624252
000370 b8 91 fc bd 99 1e f2 3c 16 02 c5 3d f1 60 85 bd
       -0.12332481 0.029555606 0.096195385 -0.06512631
000380 1c e2 e4 3d 86 be 49 3e ed f6 25 3d 24 4f 4b bd
       0.111759394 0.19701585 0.04051869 -0.04963602
000390 a8 dc 21 be 8c 19 1c be 65 f9 88 bd 3b 45 7e 3d
       -0.1580683 -0.1524412 -0.06688193 0.062077742
0003a0 1a 80 f7 3d e7 e9 87 3b b1 2b 48 3d 47 a1 02 be
       0.1208498 0.0041477564 0.048869792 -0.12756835
0003b0 53 f4 ae 3d 7d 01 8b 3d 5c 05 23 be 15 bc 1d be
       0.08542695 0.06787393 -0.15920013 -0.15403779
0003c0 d9 b7 7f 3d e0 44 0d bc c9 4e 1d be d1 90 86 3e
       0.06243119 -0.008622378 -0.15362085 0.2628236
0003d0 1d 00 0a bd e1 58 00 be 43 99 14 bd ed 56 8b b8
       -0.033691514 -0.12533905 -0.036278974 -6.644228e-05
0003e0 f0 4a bc 3d d7 a3 6b 3e 9f fe d9 3c da a3 65 3d
       0.09193981 0.23011719 0.02661067 0.056064464
0003f0 5e 90 bd bd dc 29 da 3d 88 1f b6 bd da 26 cd bc
       -0.092560515 0.10652515 -0.08892733 -0.02504294

network_body._body_endoder.seq_layers.0.bias f4 [256]
000000 0b fb 3f 3a ef 41 9b 3a 74 02 1d ba 3c 0b 47 3c
       0.000732348 0.0011845211 -0.000598944 0.012148675
000010 f8 9c 58 bb f7 21 d3 3c 55 bc b1 3c 9d 64 d9 39
       -0.0033052545 0.025773032 0.021696249 0.00041464428
000020 07 71 41 bc b3 52 9e bb 39 75 af 3b 12 86 d6 3b
       -0.011806733 -0.004831636 0.00535455 0.006546744
000030 33 86 17 bc 5a c7 07 3c 1c bb 6a 3c 1b bb c6 ba
       -0.009248304 0.008287275 0.014326837 -0.0015161963
000040 47 9f a6 b9 b8 35 54 bc 39 d6 16 bc 0b 3e d8 bb
       -0.00031780658 -0.012952261 -0.009206348 -0.006599193
000050 cd d3 10 bb d8 d1 10 3b 46 a4 e2 3a 0a bc 62 3c
       -0.00220989 0.0022097733 0.0017291389 0.013838777
000060 dc b9 97 bb d5 41 0b bb fd 58 ab 3a ec e2 9a bb
       -0.0046303105 -0.0021248956 0.0013072785 -0.004726758
000070 e6 66 a1 3a ad 25 d5 bb 86 01 42 bc 23 de 8a 3b
       0.0012313991 -0.0065047354 -0.0118411835 0.0042379065
000080 82 9e 97 3c 46 86 25 bc 5b ed 0e bc e9 2a 03 3c
       0.0185082 -0.010102814 -0.008723582 0.008005836
000090 c0 a8 10 3a 6b 9e ea 3a e4 95 06 3c 7d d2 42 bb
       0.000551831 0.0017899995 0.008214448 -0.0029727512
0000a0 bd 95 e4 3c 3d 93 42 bc 9e ea d8 bb bf ee 69 3c
       0.027903432 -0.011875925 -0.0066197654 0.014278113
0000b0 b7 a6 c1 3b e5 44 91 bc 1d d6 18 3b 81 4b 5c 3c
       0.0059097665 -0.017733047 0.002332098 0.013445736
0000c0 6d 36 06 bc 0c f9 b6 bc 7c d3 1c bb d6 90 6f 3c
       -0.008191687 -0.022335552 -0.0023929765 0.014621934
0000d0 1f 7c 22 3a 23 5b 89 3b 51 aa 46 3a 5a 10 e0 3a
       0.0006198305 0.0041917725 0.00075784797 0.0017094717
0000e0 bc ab ce bb 70 01 22 3c 8e 14 0c bc 46 16 54 3c
       -0.0063070934 0.009888038 -0.0085498225 0.0129447635
0000f0 b5 13 24 bb 80 26 e8 3a f3 7f ec bc 15 5d 0a 3d
       -0.002503616 0.0017711669 -0.028869605 0.033780176
000100 de e6 c3 bb b3 0b 8c 3b 66 c5 09 3c c4 7a 09 3b
       -0.0059784492 0.0042738556 0.00840888 0.0020977715
000110 58 12 84 3b b9 6e a8 bb f6 3f 31 3c 92 36 03 bc
       0.004030507 -0.0051401523 0.010818472 -0.008008616
000120 4a 9f 38 3c 7a 7e f2 3a 42 40 98 bc e1 8d 35 bb
       0.011268446 0.0018500828 -0.018585328 -0.0027702975
000130 93 8b 83 3b 89 5a 99 b9 3d 90 73 bc f5 da 8d 3c
       0.0040144413 -0.00029249888 -0.014865932 0.01731632
000140 a2 9d 76 bc a9 5b fe bb bb 21 a0 3c 74 16 1d ba
       -0.015052231 -0.0077623916 0.019547334 -0.00059924205
000150 af 1e 97 ba aa 47 8b 3a e1 70 19 bb 40 4e 75 3a
       -0.001152953 0.0010626216 -0.0023413228 0.00093576685
000160 2c 3f 2e bb 75 e4 3c bb c3 43 37 3c 8f e2 fc 3b
       -0.0026587946 -0.0028822694 0.011185589 0.0077174376
000170 65 1e 44 3b 34 3c eb bc 92 8b 3f ba 26 b0 29 3b
       0.0029925343 -0.02871523 -0.00073068694 0.0025892346
000180 63 0f b2 3b 3b 68 c7 3b 5b e6 cf ba 54 5e 9b 3a
       0.005433963 0.0060854233 -0.0015861498 0.0011853673
000190 2c 50 c3 3b 68 64 d1 ba 2b 66 63 3c cc 17 90 3c
       0.005960485 -0.0015975358 0.013879339 0.017589472
0001a0 d2 d0 4c bc 89 33 ef ba cc 1b 20 3c 38 f2 24 bc
       -0.0125009585 -0.0018249612 0.009772252 -0.010067515
0001b0 b7 37 aa 3b d2 a6 99 3b fc 83 a5 bb 7b b9 15 3c
       0.00519463 0.004689076 -0.005051134 0.00913846
0001c0 3f ca c6 bb 3e e0 44 3c 44 b7 75 bb 04 c1 ad bb
       -0.00606659 0.012016354 -0.0037493268 -0.0053025503
0001d0 8a 49 3a bc 73 33 99 39 51 2a 35 bc d5 99 65 bc
       -0.011370072 0.00029220767 -0.011057452 -0.014013727
0001e0 d1 9a d7 3b 07 bb c9 ba f8 8c a3 ba d6 ab 77 3c
       0.006579735 -0.0015390821 -0.0012477925 0.0151166525
0001f0 04 ba 13 bc 8d 9d 6b bc c4 5f a0 bc 93 ee 21 bc
       -0.009016518 -0.014380825 -0.019576915 -0.009883541
000200 b9 61 d4 3c 88 5c f1 b8 01 cf 70 bb 88 f7 0a ba
       0.025925504 -0.00011509011 -0.0036744478 -0.0005301167
000210 8d 68 b3 3b 20 bd e2 ba a6 64 94 b9 13 dd ed bb
       0.00547511 -0.0017298795 -0.0002830375 -0.00725902
000220 b5 c0 8c 3c d1 70 21 3c e8 cc a2 3b 5e ca 3f bc
       0.017181734 0.009853558 0.0049682744 -0.011705963
000230 63 a2 ae bb 59 38 88 bc 41 8d 92 bc c4 47 a8 3c
       -0.0053294166 -0.016628431 -0.01788962 0.020542033
000240 92 ad 8a 3c 33 0a 28 3b 31 fb 58 bb e1 df 84 3c
       0.016928468 0.0025640845 -0.0033108706 0.016220035
000250 1a 33 aa bb 71 fa 0a bc f7 54 dc 3b 1a e2 71 3b
       -0.00519408 -0.008482561 0.006723996 0.0036908449
000260 ef 1b 3a 3c 3b 4a 0a 3c 4d 21 74 3c d4 8e 46 3c
       0.011359199 0.0084405495 0.014900518 0.012119014
000270 b6 c1 ed bb 40 cd 64 bb 8c a7 46 3a 53 2c 0e 3b
       -0.007255758 -0.0034912378 0.0007578067 0.00216939
000280 64 b5 a7 bc 4b 19 c3 bc e0 7d 15 bc 56 0d 85 3c
       -0.020472236 -0.023815772 -0.009124249 0.01624171
000290 82 31 d1 3a 91 69 8c bc 22 e1 5d bb d8 3d 50 bc
       0.0015960189 -0.017140182 -0.0033856113 -0.012710057
0002a0 dc 7e e2 39 88 85 b7 bb cf e2 96 3c bf 3a 6a b8
       0.00043200597 -0.005600635 0.018418698 -5.584466e-05
0002b0 9e 7a e2 ba ee b2 55 bc 4e c0 1d 3c b2 55 af bb
       -0.0017278974 -0.013043148 0.009628369 -0.005350792
0002c0 6c f6 32 bc 38 74 8e 3a 36 d0 bc 3c 6c fa 32 bb
       -0.010923009 0.0010868376 0.023048501 -0.0027309908
0002d0 4c 0b 3d 3c ec b5 d8 3c 78 af d9 3b c8 d3 ed 3b
       0.011538338 0.026453935 0.006643232 0.0072579123
0002e0 bf 4e 3b bc b7 1d e2 bb 09 5a 47 3c d5 03 93 bb
       -0.011432349 -0.006900515 0.012167462 -0.004486541
0002f0 df 14 22 bc 50 65 11 bb 3b 94 1a bc ba 5d 86 3b
       -0.009892671 -0.002218563 -0.009434755 0.0041005285
000300 4e 48 e4 3b 70 6d b5 3b 43 48 88 bb 2f bd 75 3c
       0.006966627 0.0055367276 -0.004159005 0.014998718
000310 20 80 90 3c 25 63 c0 3b b1 b9 21 3c e7 e1 f4 bb
       0.01763922 0.005871194 0.009870932 -0.0074732187
000320 df 27 18 bb e6 72 81 bb d2 a8 93 39 41 9d 3e 3c
       -0.0023217124 -0.0039504645 0.00028163806 0.011634172
000330 52 32 30 bc 19 d3 90 bc 25 bd 29 3c d2 b9 08 bc
       -0.010754185 -0.017678784 0.010360037 -0.008345084
000340 01 39 8f 3c 40 14 8d 3b 41 ef 00 3c 45 47 d4 3b
       0.017483236 0.0043053925 0.007869543 0.0064782226
000350 f6 d6 5f bb aa fd 08 b9 21 dd f6 3b 3b 9b a5 bb
       -0.0034155226 -0.00013064468 0.007533685 -0.0050539053
000360 77 c6 99 3c 64 9c 66 bc 6c 9e 1c bb f6 b1 2b 3a
       0.018771393 -0.014075372 -0.0023898138 0.00065496506
000370 5f 5c 00 3c 78 b3 4a 3b 78 b6 26 3c 19 94 20 3c
       0.007834523 0.0030929726 0.01017534 0.009800934
000380 c4 f4 b2 3c 87 ea 0b 3c c0 0b 20 bc 5b 79 a3 bc
       0.021845229 0.008539802 -0.009768426 -0.019955328
000390 ea 52 2c 3b 6e b0 12 3c 02 08 2f 3c 5b a9 2f bb
       0.0026294538 0.008953197 0.010683062 -0.0026803825
0003a0 e2 00 04 bc 9e a4 39 b7 db 16 2a bc f0 c1 b2 bc
       -0.008056851 -1.1065187e-05 -0.010381426 -0.021820992
0003b0 36 3e c9 3b 5c 4a c1 3b 06 2d 0d bc 5e 07 a7 bb
       0.0061414493 0.005898757 -0.008616691 -0.005097314
0003c0 c4 b2 af 3c 22 f5 6c bb b6 af 90 bb 64 05 cc 3c
       0.021447547 -0.0036156853 -0.0044154776 0.024904914
0003d0 78 4d 1a 3c 4f 86 b2 bc de a5 83 bc 67 7c 82 3b
       0.009417884 -0.021792559 -0.016070303 0.003982115
0003e0 58 12 68 3a 5a 09 8b bc 93 e6 13 bc 19 e6 c9 bb
       0.0008852831 -0.016972233 -0.009027141 -0.006161463
0003f0 91 97 6e bc 2c 6a c0 bc ac d1 28 bc 9a 62 dc ba
       -0.014562503 -0.023488127 -0.010303896 -0.0016814054

network_body._body_endoder.seq_layers.2.weight f4 [256, 256]
000000 a6 4c d0 3b f7 03 87 3c a8 d2 4f bd 83 95 d4 bc
       0.0063567935 0.016481383 -0.050738007 -0.025950199
000010 78 ae 77 3d d8 2d 5c 3d 51 28 83 bd 6b bf 6c bd
       0.06046912 0.053754658 -0.06404174 -0.057799738
000020 15 10 8c 3d ff 4c 06 bb 78 30 55 3d ba 40 d0 bb
       0.06839005 -0.002049267 0.052048177 -0.0063553723
000030 e1 8a 34 b9 77 d0 d0 3c 07 89 e2 3d 9d f9 b8 bb
       -0.00017217874 0.025490029 0.11061292 -0.0056449906
000040 60 5f 02 3d 11 5a e9 bb 6c e0 a1 3d ae 85 50 3c
       0.031829238 -0.0071213325 0.07904133 0.012727184
000050 bc b0 8d bc 83 9d 97 bd 93 d8 b9 bc 7a 80 f8 3d
       -0.017296188 -0.0740309 -0.022686278 0.1213388
000060 a3 57 3a 3d 17 df 31 be 7a ef 11 3c 66 a3 09 be
       0.045493733 -0.17370258 0.008907193 -0.13441238
000070 2b df 59 3d a0 96 98 3c dc 74 a7 3d fc fd 11 be
       0.053191345 0.018626511 0.08176586 -0.14257044
000080 48 bc 06 3d 3c 62 70 3c 24 78 ca 3c c3 ad e5 bb
       0.032894403 0.014671858 0.02471549 -0.0070092394
000090 60 40 28 3d e5 68 9c 3d 8d 9d 37 bd df 0a 9c bc
       0.041077018 0.076371945 -0.044827987 -0.019048152
0000a0 22 65 1b 3e 7e c6 b1 bd 09 92 5d 3d f4 c9 9c bd
       0.15175298 -0.086804375 0.054094348 -0.07655707
0000b0 b8 c7 d5 3c 58 02 46 3d 24 14 66 bb 82 5b cd bc
       0.02609621 0.04834208 -0.003510722 -0.025068048
0000c0 5f db 86 3d 5e b7 be bc b8 a5 bf 3d 12 f7 a9 3d
       0.065848105 -0.023280796 0.0935778 0.08299078
0000d0 70 da f8 bc 5d f7 24 3c a5 6e c6 bc 07 62 24 bd
       -0.030377597 0.010068742 -0.024222681 -0.04013255
0000e0 20 76 b9 bd 84 f6 84 bb 2a 1c 46 bd 11 1b 4c 3d
       -0.09055734 -0.0040577073 -0.048366703 0.0498305
0000f0 0e ec 00 3d 07 7b 61 bd 33 7b 48 3d b0 6e c2 bb
       0.03147512 -0.05504897 0.048945617 -0.005933605
000100 17 26 a5 3d c7 5b 45 3d 6b d4 8c 3d f0 03 62 bd
       0.08063906 0.04818323 0.06876453 -0.055179536
000110 ca 98 03 bd da 69 cd bb 8e 96 a3 3d 8e 6a 83 3d
       -0.032128133 -0.006268722 0.079877004 0.06416808
000120 90 c8 eb bd 6e 59 cb bc d3 26 4b 3d a9 7d 4e 3d
       -0.11512864 -0.024822917 0.049597573 0.050412808
000130 fb e7 fb bc 78 86 2d 3d 50 99 9b bc 3d 7e 07 bd
       -0.030750265 0.042364568 -0.018994004 -0.033079375
000140 ba b6 07 bd 24 29 bc bd 98 5b 40 bd e6 b0 12 3d
       -0.033133246 -0.091875345 -0.04696235 0.035813235
000150 ca 9d d0 3c ae 13 c2 bc 01 e2 04 bd 26 5c a0 3d
       0.025465865 -0.023691025 -0.032442097 0.07830076
000160 3c 72 19 bd d7 46 33 bd ff 6a 78 bd 35 01 18 bd
       -0.037462458 -0.04376873 -0.060648914 -0.037110526
000170 c7 4a 4d 3d 9f 7e 91 3d c3 a2 51 bd 05 ad 06 bd
       0.05012014 0.07104229 -0.051180612 -0.032879848
000180 3c 6d 6b 3d 94 6b 55 bb 97 75 2b bc ac d1 01 be
       0.05747722 -0.0032565342 -0.010465047 -0.1267764
000190 ab 88 a4 bd c6 41 97 3c 8b 77 32 3d 8c be c3 bc
       -0.0803388 0.01846398 0.043571036 -0.02389457
0001a0 7a 80 95 bd 19 43 c1 3d 94 aa 7f 3d 9e a8 cd 3c
       -0.072998956 0.09436626 0.062418535 0.025104817
0001b0 d7 f0 c4 3c 7a 1b 27 3e 7c c6 46 bd cf 04 17 3e
       0.024040623 0.16319075 -0.048529133 0.14747928
0001c0 58 d5 74 3d 37 07 7a bc df 70 26 bd 34 01 0e 3e
       0.059773773 -0.015260509 -0.040634986 0.13867646
0001d0 97 b1 7d 3c 13 01 2a 3d 0b f3 90 bd 7c ff 8b 3d
       0.015484235 0.04150493 -0.07077607 0.06835839
0001e0 43 8a c8 3d de 76 10 bd cc 1a 4e 3d 2d 2c de bd
       0.09791996 -0.03526961 0.050318524 -0.108482696
0001f0 c2 2c ab bb 9c d5 25 bd 54 36 63 bd c3 88 20 bd
       -0.0052238414 -0.040486917 -0.055471733 -0.039192926
000200 5e 68 c6 3d 14 f8 f9 3d e3 7f 32 3c 5e fa 41 bd
       0.09687875 0.1220552 0.010894748 -0.04735791
000210 bb 1a 0e bc 21 7e 2e bd 41 a7 81 bd 87 4b 13 3d
       -0.008673365 -0.042600755 -0.06330729 0.0359607
000220 9f 5a 71 3d a8 f7 56 3d 11 02 69 bc be 91 50 bd
       0.058924314 0.052482277 -0.014221684 -0.05092024
000230 58 4c f2 3b 1e 3c 29 3d 42 8f 97 bd 50 90 c5 bd
       0.007394355 0.041317098 -0.07400371 -0.09646666
000240 8c 1a c0 bc c9 0c 15 3d 83 93 33 3c 02 c4 ac bd
       -0.023450159 0.036389146 0.0109604625 -0.08435823
000250 4b fc f1 bc 0f 70 93 bd 53 01 c2 3c a7 a3 99 3c
       -0.029539248 -0.07199108 0.023682272 0.018754793
000260 be 50 e4 bd 7b 53 c2 3a a0 31 b3 bb 68 b9 99 3c
       -0.11148213 0.0014825905 -0.0054685622 0.018765166
000270 15 a8 33 bd ca e2 98 bd ba b3 87 ba 47 77 2a bd
       -0.043861467 -0.074651316 -0.0010353245 -0.041617658
000280 5a 07 d7 3c 95 3c b0 bd 9e 77 b5 bb df 1b 36 3d
       0.026248623 -0.08605305 -0.005537941 0.044460174
000290 3a ea e3 3d e7 b0 af bc 66 db 62 bc 4a 61 ec 3d
       0.111286595 -0.021446658 -0.013846254 0.11541994
0002a0 25 70 22 bd 1a 17 4d 3d 61 47 30 3c e4 22 f8 bc
       -0.03965773 0.05007086 0.010759206 -0.030290075
0002b0 2c bd 14 be ec 6f f1 bd 32 16 0b 3e b1 9b b1 bd
       -0.14525288 -0.117889255 0.13582686 -0.08672274
0002c0 2e 23 10 3d 96 c5 4b 3c f9 d2 c9 3d b6 1d a9 bd
       0.0351898 0.012437245 0.09854693 -0.0825762
0002d0 d3 b1 09 3e 31 39 ea 3d a4 d7 bd 3d 5b 46 2c 3d
       0.13446741 0.1143669 0.09269646 0.042059284
0002e0 9a 43 db bb ac 31 7f bc 65 3f b1 3c c4 ab 2d 3c
       -0.0066914083 -0.015575808 0.021636674 0.010600034
0002f0 3e 32 a2 bd c7 cd 93 bc 27 c1 0b 3c cf e2 72 bc
       -0.07919739 -0.018042458 0.008529938 -0.014824583
000300 8b 83 9b 3d a6 f8 26 bd 54 5f cc bd a0 ab 22 3e
       0.07593449 -0.040764473 -0.0997912 0.15885782
000310 6f 82 46 39 57 69 58 bd 74 85 07 bd a8 4f 41 3d
       0.00018931342 -0.052834835 -0.033086255 0.047195107
000320 1b c9 a5 bd 74 59 ca 3c 1a 19 ba 39 81 54 bf 3c
       -0.080949984 0.024700858 0.00035495387 0.023355724
000330 65 81 05 be b2 07 0d 3d 2a 1c 0d bd ba 89 4f 3d
       -0.13037641 0.034431167 -0.034450687 0.050668456
000340 a0 05 0e 3d f6 36 86 3d 81 47 16 bb c0 35 39 3d
       0.034673333 0.06553452 -0.0022930803 0.045217276
000350 76 02 c4 bd 3e 7e 39 3c 68 b1 ff 3c 82 53 8a bd
       -0.09570782 0.011321602 0.031212524 -0.06754209
000360 a7 dc 2d 3c 72 02 b1 3c 3f 39 97 3b 68 dd 78 3d
       0.01061169 0.021607611 0.0046149786 0.060758024
000370 e8 a3 f3 3d 87 b2 85 3d 68 d9 f9 bd d7 3c 66 3d
       0.11896497 0.06528192 -0.1219967 0.056210365
000380 67 ea 6c 3d f9 ab 98 3d fb 6a a1 3d cc 7f ed bc
       0.05784073 0.07454676 0.07881733 -0.028991602
000390 13 84 ac 3d 1c c5 fc bd 80 a1 b9 bb ee c1 70 3d
       0.08423629 -0.12342283 -0.0056650043 0.058778696
0003a0 15 10 80 bd 02 42 7f bd 02 3a 95 3d d1 73 ba 3d
       -0.062530674 -0.06231881 0.07286455 0.091041215
0003b0 50 46 66 bd 96 43 46 3d 75 c6 e3 3d cd c1 14 3d
       -0.0562194 0.0484043 0.11121837 0.036317635
0003c0 33 23 6e bd 37 e7 07 bd fd 90 90 bd df 21 da bc
       -0.058139037 -0.033179488 -0.07058904 -0.02662748
0003d0 9a e8 6c bc e9 f5 84 bd c2 f5 17 be 2c 97 f9 3b
       -0.014459753 -0.06492216 -0.14839843 0.007616898
0003e0 a4 04 bc bc 4e 21 65 3c e6 b2 cb 3d 26 fe 11 be
       -0.022951432 0.013984991 0.099462315 -0.14257106
0003f0 ee 86 c3 bd 47 52 cf 3d fb 28 a3 3d 72 b8 ce 3d
       -0.0954722 0.10123115 0.07966801 0.10093774

network_body._body_endoder.seq_layers.2.bias f4 [256]
000000 75 24 28 bc 8e ef 39 bc aa 31 e7 3b 59 f6 03 bc
       -0.010262598 -0.011348618 0.007055481 -0.008054339
000010 0f 02 13 3b a0 71 e5 b9 b7 f4 8a bb 88 1f 3b 3c
       0.0022431647 -0.0004376294 -0.004240598 0.011421092
000020 40 25 8d 3b 68 43 f3 ba 50 28 8f 3c e3 41 7d bc
       0.004307419 -0.0018559517 0.017475277 -0.015457603
000030 5f 58 83 3c e3 83 dc bb a0 2a a5 3c 63 e4 7f 3b
       0.01603335 -0.0067295893 0.020161927 0.0039046041
000040 f9 aa b2 3b 6c f0 25 3b 9a 25 ad 3c bc 9f bc 3c
       0.0054525104 0.0025320305 0.021136094 0.023025386
000050 5f 68 1b bc 95 eb 86 3c 20 8b 2d 3c 2c e4 4e bc
       -0.009485333 0.016469756 0.010592252 -0.012627643
000060 39 ad 1a bc 2f 88 f9 3b 2f 09 17 3c 1d 1f fd 3b
       -0.009440714 0.0076151113 0.009218498 0.0077246563
000070 63 54 25 3c c6 1e 69 bc 60 00 09 bc a3 3c 32 bc
       0.01009092 -0.014228528 -0.008361906 -0.010878715
000080 ba 77 28 bc 1a 66 03 3c 89 c5 6a 3c 24 85 83 3c
       -0.010282451 0.008019948 0.014329323 0.016054697
000090 9a 87 fa 3b 06 4a 71 39 95 12 8d 3b 60 e2 c1 3b
       0.0076455595 0.00023011127 0.0043051937 0.0059168786
0000a0 7f 12 b1 ba 70 f7 1f bc 91 5a a4 bb 9a 3e a1 3c
       -0.0013509541 -0.009763584 -0.005015679 0.019683171
0000b0 c1 e4 7f bc 44 9e 00 bb fe 51 4c bc 36 6c db 39
       -0.015618504 -0.0019625584 -0.01247072 0.00041851558
0000c0 e5 89 17 bc c4 60 85 3c e7 27 0a 3b 4c 41 3e bc
       -0.009249185 0.016281493 0.0021080913 -0.011612248
0000d0 1a cc cf 3b 80 44 51 bb c8 58 5e 3c 8b ec e7 3c
       0.0063414695 -0.0031931698 0.013570972 0.028311035
0000e0 20 25 5c 3c e6 aa 30 bc c6 a9 b5 3b e3 b5 c9 bb
       0.013436586 -0.010782933 0.00554392 -0.006155716
0000f0 b7 04 de 3b 3c 94 fc bb 03 2b fe 3b 4b f4 03 bc
       0.0067754644 -0.0077081006 0.0077565922 -0.008053849
000100 16 4e 2a 3c 9f 34 e5 3b 73 f1 c2 3a 05 de b4 3b
       0.010394594 0.0069947983 0.0014872983 0.005519631
000110 29 93 7d bb 2e 8c 91 bb f2 ae 3d 3c ee 59 14 3b
       -0.003869245 -0.0044417595 0.011577355 0.002263661
000120 4c af a4 bc 5a cb ba 3b b1 a9 53 bb dd 50 1f bc
       -0.02010312 0.005700511 -0.003229719 -0.009723869
000130 e1 4b 1a bc 75 45 49 3c 94 5c 83 bb 7b f4 5d bb
       -0.009417505 0.012284626 -0.004008839 -0.0033867646
000140 fa 70 fb bb c4 bb 0a bc 3c 05 a9 ba 24 3b 62 bc
       -0.00767338 -0.008467618 -0.0012895237 -0.013808046
000150 9f df 84 3c 85 f7 33 bc 1b 57 0a 3c c6 6f 4a bc
       0.016219912 -0.010984306 0.008443619 -0.01235575
000160 77 55 9f bc 2f 35 04 bc c4 aa 93 3b 59 fd f4 3b
       -0.019449933 -0.008069321 0.004506441 0.0074764905
000170 55 c6 8f 3b 5e b5 eb 3b 0b c3 fb 3b e9 72 79 bc
       0.0043876567 0.0071932515 0.007683163 -0.015225151
000180 4c 00 05 3c 31 8d ff 3b 88 31 9f bb 8b 98 9a bb
       0.008117747 0.0077988137 -0.0048581995 -0.0047178916
000190 34 76 6c 3c bc 41 43 bb b9 07 de 3b 2e 45 6c bc
       0.014432479 -0.002979382 0.006775823 -0.014420791
0001a0 65 ad 58 3c 40 27 96 bc d7 02 8f 3c 85 9f 2e bc
       0.013224934 -0.018329263 0.017457409 -0.01065815
0001b0 9f f8 e7 3b 85 a7 d1 bb d8 1c 7a bb f6 54 71 3b
       0.0070791985 -0.0063981437 -0.0038164165 0.0036824322
0001c0 fb 9a 43 3c 03 1c 58 3c 4c 32 e4 3b 36 02 1d 3b
       0.011938806 0.013190272 0.0069640037 0.0023957617
0001d0 8f 9c 56 3c 7e 01 ad bb d5 ca f3 bb 20 1c f4 bb
       0.01309885 -0.005279719 -0.007439951 -0.007449642
0001e0 9c 7c 93 bc f4 da 4a 3c cf 85 52 3b 15 80 be bb
       -0.018003754 0.012381304 0.0032123213 -0.0058136084
0001f0 1d a7 20 3c 30 e2 f7 bc 7e 2a d5 38 76 46 22 bc
       0.009805468 -0.030259222 0.00010164546 -0.0099044945
000200 d6 c8 6b bc fe ad 9c ba b3 b2 73 bb de 0f 63 bc
       -0.014391145 -0.0011953709 -0.003718537 -0.0138587635
000210 4f 37 b9 3c 1c 90 a5 3b 3f 11 30 3c b2 b8 d8 ba
       0.022609381 0.0050525796 0.010746299 -0.0016534536
000220 f1 7d 4a bb cd 53 18 3c 32 2d c6 3b af ea 2e 3c
       -0.003089782 0.009297323 0.006047868 0.01067607
000230 dc 10 40 3c 6e 14 a4 bb e3 d2 8c bb 6d d8 65 3c
       0.01172277 -0.005007318 -0.0042976006 0.014028651
000240 ba a6 9a bc f1 46 f4 bb d6 49 30 bc 19 90 1d bb
       -0.01887833 -0.007454746 -0.010759791 -0.0024042188
000250 86 b7 76 3b c1 1b 23 bc 53 33 88 bc e3 9b 4a bb
       0.003764601 -0.0099553475 -0.016626036 -0.003091567
000260 be b7 89 bb d7 5f 13 bc a0 f3 c5 bb 3b c8 50 39
       -0.004202812 -0.008995018 -0.0060410053 0.00019911017
000270 7c 46 8f bb 8a 34 31 bc 89 8a ad 3c e8 15 72 bb
       -0.004372416 -0.010815749 0.021184223 -0.0036939327
000280 48 4a 6d bc e8 38 14 3c 2a e7 b7 3c 17 8d 51 bb
       -0.014483042 0.009046771 0.022449095 -0.0031974965
000290 4c 59 b6 bb c3 ed 3b bc 1b 96 96 39 e2 d1 10 bb
       -0.0055648442 -0.011470261 0.00028722067 -0.0022097756
0002a0 f7 c0 2c bc a6 d5 62 bb 93 ce e3 bb 52 66 8a 3c
       -0.010544053 -0.0034612208 -0.006952116 0.016894493
0002b0 0f 70 65 3c de a2 9f 3c eb 14 e3 bb cf ba 85 bc
       0.014003768 0.01948684 -0.006929984 -0.016324429
0002c0 5b 4f 07 3c 1f 84 a4 3c fd 05 66 ba 70 1d 0e 3c
       0.008258666 0.020082531 -0.0008774696 0.008674011
0002d0 e4 00 0c bc ae 72 38 bc 90 be a9 3b 8a 91 bb bb
       -0.008545134 -0.0112578105 0.0051801875 -0.0057241367
0002e0 60 31 01 bc f4 1d 2f 3c ba fc 8c 3b 26 9c c0 3c
       -0.007885307 0.010688294 0.0043025883 0.023511957
0002f0 68 bd b5 bb d9 0a 08 bc ab 08 af 3b 19 e5 69 bb
       -0.0055462606 -0.0083033675 0.0053416095 -0.0035689531
000300 72 54 30 bc 5f 3c 72 bc 69 03 66 bc ca 38 92 bb
       -0.010762321 -0.014784901 -0.014038899 -0.004462336
000310 51 bb b7 ba 45 a5 bc b9 04 a2 11 3c 53 0e 14 3b
       -0.0014017617 -0.0003598129 0.008888725 0.0022591546
000320 27 8f 4d 3c 11 86 01 bc 98 23 6a 3c 13 8a da ba
       0.012546337 -0.007905499 0.014290713 -0.0016673229
000330 57 68 d4 3a a9 93 9a 3b d1 b2 81 3c 03 b5 8b 3b
       0.0016205412 0.0047173095 0.015832337 0.0042635216
000340 ff 5d 59 3b 06 35 61 bc 40 d1 bd bb e4 ac 8b 3c
       0.0033167598 -0.013745552 -0.005792767 0.017050214
000350 f1 a4 2c 3c e9 50 8c bb db 7d fe 3b 58 6d 31 3c
       0.010537372 -0.004282106 0.007766468 0.010829292
000360 d1 0c a2 bc c9 59 51 3a 6c b7 34 bc 6a 21 7e bb
       -0.019781502 0.00079860963 -0.011030059 -0.003877724
000370 f9 4b 08 3c 7d 53 8e bc c0 64 cf 3b 1a 71 69 bc
       0.008318895 -0.017373795 0.006329149 -0.014248157
000380 b2 02 28 bb ce ba bd bb e9 52 cc 3b 91 79 28 3c
       -0.0025636372 -0.005790091 0.0062354696 0.01028289
000390 de 44 05 3d db 82 9f 3c 67 57 aa 3b fd de 99 ba
       0.03253638 0.019471576 0.0051984075 -0.0011739429
0003a0 73 f5 ce ba 17 dc 74 3c f4 c2 16 3c 81 3e 57 bc
       -0.0015789702 0.014945052 0.009201754 -0.013137461
0003b0 06 6c 11 3b 64 67 3f 3c c7 ef 0b 3b 2d f2 1c 3c
       0.002218963 0.011682365 0.0021352635 0.009579224
0003c0 46 3c bb ba 70 c9 36 3c e9 58 0d 3c c9 58 52 bc
       -0.0014284931 0.011156425 0.008627155 -0.012838551
0003d0 fc fe 5f bb 8e 85 ac bb 8d 61 51 bb 5e 56 04 bc
       -0.0034179082 -0.0052649444 -0.0031949014 -0.008077232
0003e0 d5 0d 05 bb 57 37 17 bc 25 74 ae 3a 04 a7 b4 3b
       -0.0020302434 -0.009229503 0.001330976 0.005513074
0003f0 69 73 a7 ba a1 e4 09 bc 5c 6a b7 3a 8f e7 8f ba
       -0.0012775484 -0.008416326 0.001399349 -0.0010979044

network_body._body_endoder.seq_layers.4.weight f4 [256, 256]
000000 bf b4 3d 3d 0f b8 f6 bc 78 05 54 bd c9 9d bb bc
       0.04631495 -0.030117063 -0.051763028 -0.022902386
000010 5e ff c5 bb 9e 5c 8a 3c 39 bc 06 bd d7 9d 3d bd
       -0.006042405 0.016889866 -0.032894347 -0.046293106
000020 ee a4 18 3d f0 21 e3 3d b9 7c 06 3d 35 59 18 3d
       0.037266664 0.110904574 0.03283379 0.03719445
000030 2f 89 d4 3d f3 fe d1 bd 6e d6 22 3d 7f d2 a8 bd
       0.10377728 -0.10253706 0.039755277 -0.08243274
000040 13 57 1c 3e 0e 9a b1 bb 32 a2 82 bd 0c b2 89 3d
       0.15267591 -0.005419976 -0.063785926 0.06723413
000050 f3 ae 02 be 87 8b 77 3d fb 2a 5a 3c 8d 3c 55 bc
       -0.1276205 0.060435798 0.013315911 -0.013014925
000060 e3 bf df bd 8c 67 74 3d 4b 92 96 bc f8 24 98 3d
       -0.10925271 0.059669062 -0.018380305 0.07428926
000070 9f 6c 6a 3c fd 40 09 bd 13 e5 ff bb 18 67 b7 bd
       0.014308124 -0.033509243 -0.00780929 -0.089552104
000080 37 c0 a2 3b 33 93 81 bd a4 fc ad 3b 45 0f 8a 3d
       0.0049667615 -0.06326904 0.005309658 0.06741194
000090 6f 11 e6 bd 0c ea 81 3d d2 99 df bc 91 bd 6c 3d
       -0.11233794 0.06343469 -0.027295027 0.057797972
0000a0 55 70 31 3c 4a 3d 8a be f1 9f 8b bd b0 bb 89 bc
       0.010830005 -0.26999885 -0.06817616 -0.01681313
0000b0 e5 e3 9d bd 83 54 bc 3c c3 b8 49 3d 77 9a 98 3d
       -0.07709483 0.022989517 0.049248468 0.07451337
0000c0 d7 5e 64 bc 85 59 43 3a 20 e4 74 3b 36 64 e8 3c
       -0.013938627 0.0007451999 0.0037367418 0.028368097
0000d0 82 ff 6e 3d 59 64 d4 3d 73 7a 81 bd 82 af 0d be
       0.05834914 0.10370702 -0.063221835 -0.13836482
0000e0 95 4f 98 bc d3 fa 0a bd 23 76 94 bd 5b 7e c7 bc
       -0.018592635 -0.03393061 -0.07249095 -0.024352243
0000f0 aa df d6 3d de bb 0e 3d f6 9a e4 3c 10 7d 11 3d
       0.10491879 0.034847133 0.027905922 0.03551966
000100 7c c3 13 3d a2 fc fb 3d 65 6c 48 bd 28 3f d0 3c
       0.0360751 0.12304045 -0.048931498 0.02542074
000110 fd 74 ce bd 22 2c 7e 3d c4 8f ae bb 68 50 bb bd
       -0.100809075 0.062053807 -0.005327197 -0.09146196
000120 6f 30 8a bc ef 9d 26 bd 01 52 1e bd 7e 31 aa bd
       -0.016868798 -0.04067796 -0.038652424 -0.08310221
000130 1e 8c a3 3d a6 e5 3a bc da 70 d6 3d 56 c0 9f bd
       0.079857096 -0.0114072915 0.104707435 -0.07800357
000140 ed c8 2c bc ce 36 89 3d 9e 97 0d bd 92 ff 22 3c
       -0.010545951 0.06699906 -0.03456842 0.009948628
000150 ca d3 33 3c 42 63 cc bb e6 8e c4 3d d1 12 8d 3d
       0.010975787 -0.0062374184 0.09597568 0.068883546
000160 88 03 98 3d 7e 4b 4b ba a5 14 7b bc c6 02 4b bc
       0.074225485 -0.00077550847 -0.015324746 -0.012390798
000170 a8 79 fb 3d c1 de 3a 3d 48 f5 38 bd dc ec 9c 3d
       0.122790635 0.04562259 -0.045155793 0.07662365
000180 9a 3f 10 bd 23 81 82 bd f0 72 e4 ba 30 7d 1f ba
       -0.035216905 -0.06372287 -0.0017429274 -0.0006084023
000190 1c 8b 92 3d 2e 4a e5 3c 33 ee e1 b7 14 f9 09 bb
       0.07155439 0.027989473 -2.693301e-05 -0.0021053003
0001a0 30 a4 b2 bc af cf cf bc 8d ec 04 bd 6a 73 14 bd
       -0.021806806 -0.025367586 -0.032452155 -0.03624288
0001b0 c9 0e 09 3d 7b 1c 45 3c a2 19 ba 3c 41 93 fe bc
       0.033461366 0.012030716 0.0227173 -0.031076076
0001c0 f3 3a cb 3d 88 c2 fc 3b 10 65 c9 bd 61 f4 10 bc
       0.09923353 0.0077136196 -0.09833729 -0.008847327
0001d0 b9 40 34 3c 84 9d 10 be d0 34 e1 bd 24 d2 29 bd
       0.011001759 -0.14122587 -0.10996401 -0.04146017
0001e0 82 2b b0 bb 99 f5 67 3d 4e ec 6b 3d 90 34 40 3c
       -0.0053762803 0.056630705 0.057598405 0.011731282
0001f0 ed 8b 8a bc 1c c0 2d 3d 9f 7d bc 3d d6 1b 00 bd
       -0.016912425 0.042419538 0.09203648 -0.031276546
000200 71 05 31 bb 64 f4 c3 bc c6 74 22 3d 93 9b 84 3c
       -0.00270113 -0.023920245 0.039662145 0.016187465
000210 45 e6 23 bd fc ff 16 bd af 2d 11 3e 97 38 c5 3c
       -0.040014524 -0.03686522 0.14177583 0.024074836
000220 f1 5d a5 bc 09 1c 48 3d 0a 69 c2 bc 7c ab 92 bd
       -0.020186396 0.04885486 -0.023731727 -0.07161614
000230 82 9c 39 be 87 56 81 bc 2e 74 a0 3b 9e e0 61 bd
       -0.18126109 -0.01578833 0.004896662 -0.055145852
000240 7b fd ba bc 79 f8 64 bd 88 a1 83 bd c0 58 df bc
       -0.022825947 -0.055901024 -0.06427294 -0.027263999
000250 d3 c3 f7 3d 67 f4 c2 3c a5 07 e4 3d f4 38 eb 3c
       0.120978974 0.02379818 0.111342706 0.02871368
000260 f3 5e cc bd 59 ed 9c bc b5 69 f4 bc e2 97 d7 3c
       -0.099790476 -0.019156145 -0.029835561 0.02631754
000270 e5 f8 77 bd 1d 4e 80 3c 6a 50 18 3d 43 c8 80 bd
       -0.0605401 0.015662247 0.037186064 -0.06288197
000280 97 6b 73 3c 86 9e ae 3c fa c5 90 3d 0f 9c 68 3d
       0.014857194 0.021315824 0.07069011 0.056789454
000290 0e fe 2c bd 78 97 d9 bd cb 63 19 3d a0 8d 0f bd
       -0.042234473 -0.106245935 0.037448686 -0.035047174
0002a0 fa 4b c1 bd 1a 78 da 3c 14 bc 66 3d b0 59 c8 3d
       -0.094383195 0.026668597 0.05633171 0.097827315
0002b0 d3 cb d8 3c 40 ca 8e 3d 8c 8a 4f bd 01 06 05 be
       0.026464378 0.0697217 -0.050669238 -0.12990572
0002c0 30 2a e8 bb 1e 1b 99 3d da 54 72 bd ef 32 c7 3c
       -0.0070851073 0.07475875 -0.059162952 0.02431628
0002d0 3c 32 b5 3c 20 ca bd bd 5a b2 70 bd c0 56 6a bd
       0.02211868 -0.09267068 -0.05876384 -0.057211637
0002e0 b3 28 b7 bc 53 78 be bb ad be eb 3b 11 02 8c 3d
       -0.022358274 -0.0058126836 0.007194361 0.06836332
0002f0 27 7e ce bc 2d 70 1a be 9a c4 6c 3c e4 5f 7b bd
       -0.025206639 -0.15081854 0.01445117 -0.061370745
000300 45 08 3e be f1 ea 86 bd a0 68 20 bd 76 06 77 bd
       -0.18557842 -0.0658778 -0.03916228 -0.060308896
000310 c8 01 c0 3b c1 9c 80 bd 0f 3f 81 bd 07 b6 a3 bd
       0.0058595873 -0.062798984 -0.063108556 -0.07993703
000320 0c b2 96 3d 19 79 e4 bc 92 a9 9b 3d 64 a1 a1 bd
       0.073581785 -0.027889775 0.07600702 -0.07892111
000330 94 56 a4 bd 4c a7 ac bc cf 02 ae bd 54 50 31 bd
       -0.08024326 -0.021075867 -0.084966294 -0.043289497
000340 fd 14 64 3d ab 40 e2 3c 2f 6c 16 be c5 90 5a bd
       0.05568408 0.027618727 -0.14689706 -0.05336072
000350 2a 3f 76 3d ad 42 46 3a 6a 97 0f bc e2 32 e5 ba
       0.06011883 0.0007563036 -0.008764127 -0.0017486478
000360 73 18 48 bc 6d 89 16 bd 96 59 10 3b 5e 78 80 bd
       -0.01221286 -0.036752153 0.0022026054 -0.06272958
000370 73 85 e6 bd 9b 80 f3 3d d7 45 a2 bb fa 48 ef bc
       -0.11255922 0.11889764 -0.004952173 -0.029209603
000380 f5 8f df ba f1 03 f5 3d 87 25 13 3c 17 b1 e8 bd
       -0.0017056452 0.119636424 0.008981115 -0.11361902
000390 ea 55 02 3d 42 7b b3 3c d9 29 52 bc 5f bc 0f bd
       0.031820215 0.02190936 -0.01282736 -0.035091754
0003a0 87 7b 6a bd 1b 27 aa bd cf b1 aa bd 31 1e 45 bd
       -0.05724671 -0.0830824 -0.083346955 -0.048124496
0003b0 c3 0d 14 3c 0b 9a 45 3d 9e f1 01 be 8f 3b 2c 3d
       0.009036484 0.04824261 -0.12689826 0.042048987
0003c0 6e 83 40 bd 0f e4 b5 3d de a0 fc 3d f0 77 b9 3b
       -0.04700034 0.08881389 0.123353705 0.0056600496
0003d0 04 6b 34 3d 8a d0 a7 bb 67 5b aa 3d 2c a8 94 3d
       0.04404737 -0.0051212953 0.08318215 0.07258639
0003e0 8e 4c 10 3d e1 c5 01 3d f9 b1 88 bd 16 c4 19 be
       0.03522926 0.031682853 -0.066745706 -0.15016207
0003f0 35 fd 83 bd b4 ca 6c 3d 60 cb 4d bd 37 79 cc 3c
       -0.0644478 0.0578105 -0.05024278 0.024960143

network_body._body_endoder.seq_layers.4.bias f4 [256]
000000 d0 6e 19 3c c7 2e d4 3b d7 ac 3f 3c 78 7e 33 bc
       0.009364799 0.006475303 0.011698923 -0.0109554455
000010 a1 1e 8e 3c bf 01 4b bb 40 4c b7 3a 9a b9 36 bc
       0.01734859 -0.0030976383 0.0013984516 -0.011152649
000020 7b e0 f6 3b c2 e8 41 bb 38 37 1d bc c2 c0 7a 3a
       0.0075340844 -0.0029588197 -0.009595685 0.00095654663
000030 24 af 71 bb ec 38 ea bb 9f c9 2d bb ce 72 6f 39
       -0.0036878074 -0.007147899 -0.002651788 0.00022835584
000040 86 ce a1 bb 65 0e 8b 3c 7d a0 ff bb 0e 1c 39 bc
       -0.0049379496 0.016974637 -0.007801114 -0.011298193
000050 65 ce 1f bc 31 88 95 3c 4e 38 74 bc a0 9f 9c bc
       -0.009753798 0.018253418 -0.014906002 -0.019119084
000060 a3 aa 3a 3b b4 98 80 3c 68 53 e5 ba a9 0a 06 3b
       0.0028483055 0.015697815 -0.001749617 0.0020453131
000070 6c e2 af bb 1d b4 4f 3b 93 86 f1 37 69 9b f6 bb
       -0.0053675678 0.003169305 2.8792105e-05 -0.0075258506
000080 72 6a 2c bc ab 3d 43 3b f9 be e8 3a bc ee ab 3b
       -0.010523425 0.0029791396 0.001775711 0.005246965
000090 f1 07 58 3a 9d 86 59 bb 23 8b 38 bc e3 5e 9a 3a
       0.00082409295 -0.0033191808 -0.0112636415 0.0011777546
0000a0 3f 76 e3 bb ba 62 cc 3b 0c 91 86 bb 05 b1 ba ba
       -0.0069415863 0.006237355 -0.0041066464 -0.001424343
0000b0 ef e0 5d 3c c5 69 0d 3c 22 40 67 bb a5 01 bf 38
       0.013542398 0.008631174 -0.003528603 9.107896e-05
0000c0 f9 ee 8b 3b 44 96 08 bc bf 78 e5 b9 5b 1d 2c bb
       0.004270431 -0.008336607 -0.00043768247 -0.0026262614
0000d0 93 86 21 ba a3 45 4c 3b 3a d9 2a bc 0c 31 ad bb
       -0.0006161716 0.0031169436 -0.010427767 -0.005285388
0000e0 4a dc 94 3c 61 48 db bb 52 6e df 3b 63 18 20 3c
       0.018171448 -0.006691978 0.006818571 0.009771439
0000f0 f6 d8 e7 3b f0 c6 04 bb e3 45 a9 3b 38 ef 13 bc
       0.0070754243 -0.0020260178 0.005165802 -0.009029202
000100 55 05 8d 3c 9e ce 78 3c 43 e6 cf ba f7 52 12 bc
       0.017214457 0.01518598 -0.001586147 -0.008930913
000110 b2 51 6e 3b f2 2e e2 bb 48 0f 05 bc 5e c4 43 bc
       0.0036364612 -0.006902569 -0.008121319 -0.011948673
000120 c0 ff 0a 3c 8c 28 3e 3c c9 14 4f bb b2 76 22 3b
       0.008483827 0.011606347 -0.0031598082 0.0024789986
000130 52 ca 0f bc 83 a6 08 3b 42 a8 7b 3c 8b 15 e7 3a
       -0.008776264 0.0020851202 0.01535994 0.0017630322
000140 43 0a 80 3c 5f 4d 4e bc cb 03 1b 3c 9d 69 30 3c
       0.015629893 -0.012591689 0.0094613535 0.010767368
000150 bc 96 92 39 d4 f4 17 bc a5 f7 10 bb 0c cd a7 3c
       0.00027959596 -0.00927468 -0.0022120264 0.020483516
000160 7a 21 0b 3c 39 5c 37 bc cc 25 58 3b 56 96 a2 bb
       0.008491868 -0.011191421 0.0032981513 -0.004961769
000170 f6 ae 70 3b 9a b6 b3 bb fd 06 2b ba d2 19 0d 3c
       0.0036725379 -0.0054844143 -0.00065241737 0.008612113
000180 44 d1 4a 3c 67 c2 71 39 18 9a ad bb c3 b7 f4 bb
       0.012378994 0.00023055972 -0.0052979104 -0.007468195
000190 17 e9 2b bb 51 20 93 ba f9 a7 20 ba 09 4e 1e 3c
       -0.0026231462 -0.0011224841 -0.00061285455 0.00966216
0001a0 26 43 aa 3b 41 e3 49 3c d8 81 cf bb b0 12 c8 bb
       0.005195993 0.012322248 -0.0063326173 -0.0061057433
0001b0 51 48 ef 3b ad 07 6d 3c 69 9a e0 3b 66 78 80 3b
       0.007302322 0.014467162 0.0068543446 0.0039206026
0001c0 53 61 55 bb 64 44 76 3c cb 0f f4 bb 7a 30 d9 39
       -0.003255923 0.015030954 -0.0074481717 0.00041425583
0001d0 8f da 1f 3c 1f d1 e8 3b f4 35 8b 3c 5b bb 1b ba
       0.009756698 0.0071050073 0.0169935 -0.0005940699
0001e0 05 69 56 bc 15 73 ef bb 18 1c 1c 3c 35 8b e2 bb
       -0.013086562 -0.00730742 0.009528182 -0.0069135674
0001f0 4f bb ab 3c 4c 5e 09 3b 69 8b de 3b f5 e6 6e 3c
       0.02096334 0.0020960746 0.0067915213 0.014581432
000200 e6 b8 1b bb 8a 0f 37 3c da 40 89 3a b8 11 4b bc
       -0.002376133 0.011173138 0.0010471598 -0.012394361
000210 63 14 95 3b af 63 19 3c 04 f6 f2 bb 3d b6 b5 bb
       0.0045495494 0.009362145 -0.0074145813 -0.005545406
000220 d6 5d 90 3c 39 ba 64 ba f5 a3 f1 bb e0 41 a9 bb
       0.01762287 -0.0008725259 -0.0073742815 -0.0051653236
000230 e0 3c 55 37 94 5c 3c bc 5e b0 42 3c ff fa 47 3b
       1.2709963e-05 -0.011496682 0.0118828695 0.0030514596
000240 ce 31 78 ba e4 11 06 bb 4e 33 1c bc ed 41 b3 bb
       -0.00094678707 -0.002045744 -0.009533716 -0.0054705054
000250 75 1d f9 bb 21 f3 5c 3b fa 3a 99 3a 1c 08 1f bb
       -0.0076023885 0.0033714252 0.001169055 -0.0024266308
000260 14 27 18 bc eb 18 19 bb ea d4 42 3c bd ec 7a 3b
       -0.009286661 -0.00233608 0.011891583 0.003828808
000270 5f c1 d7 39 9e 81 ca 3b 9f fa ab bb 3f ec e9 3a
       0.00041152068 0.0061800024 -0.005248382 0.0017846896
000280 bd a6 b0 bb 12 35 7f 3c 58 aa 18 bc d4 30 4c bb
       -0.0053909705 0.015576618 -0.009317957 -0.0031157034
000290 fe 4f b1 3b c1 24 46 bb 65 7d 1c bc 0f 75 18 bc
       0.005411147 -0.003023431 -0.009551381 -0.009305253
0002a0 e6 fb ae bb 4e d1 b9 3b 3b b2 e8 bb 8d 7a 17 3c
       -0.005340087 0.005670703 -0.007101325 0.009245527
0002b0 bd 5c 08 bc de 96 2d bc ea 83 59 3b 21 ca 21 3b
       -0.008322892 -0.010595052 0.00331902 0.0024687129
0002c0 c4 d1 90 3b 96 fc 21 bb a7 a8 67 3a 3b e0 12 3c
       0.0044195373 -0.0024717203 0.0008837082 0.0089645935
0002d0 45 09 49 bb 16 65 ac b9 f7 f0 0a 3b 42 ef 1e bc
       -0.003067569 -0.0003288171 0.0021200755 -0.009700598
0002e0 81 0a d3 bb 8e 49 5d bc 11 a9 14 bc 20 68 92 bb
       -0.006440461 -0.013506306 -0.009073512 -0.004467979
0002f0 92 45 a0 3c 19 06 92 3a 7d da ff 38 44 8b 33 3c
       0.019564424 0.0011140733 0.00012200044 0.0109584965
000300 a9 78 07 3c 40 24 32 bc b7 0d 2b ba 4d 86 3e 3c
       0.008268514 -0.0108729005 -0.0006525176 0.0116286995
000310 3f 3c ef bb e6 42 ec bb 85 e0 e8 bb f3 c9 19 3c
       -0.007300883 -0.0072101234 -0.007106843 0.009386527
000320 36 52 8c 3a b1 6a 29 3a 5e 1c 83 3b 8e 84 6e bc
       0.0010705653 0.00064627366 0.0040011844 -0.014557971
000330 98 52 72 bc 3d 70 e9 39 94 31 53 3c 4e 48 33 bc
       -0.0147902 0.00044524847 0.012890238 -0.010942532
000340 97 0f 2d 3b e0 19 47 ba d1 3e 9f 3b 0c f4 2f 3c
       0.0026406997 -0.0007595103 0.004859783 0.010739338
000350 23 c1 23 bc d3 5a db ba fe 7c 61 3b 57 ad 14 ba
       -0.009994778 -0.0016735442 0.0034406777 -0.00056715816
000360 71 a4 22 bc f3 5e 4a 3c 57 8b e4 3b fe ca 97 3c
       -0.009926901 0.012351739 0.0069746184 0.018529411
000370 75 63 a9 bb 6d f9 60 3c e3 90 6d 3c 4e c5 87 3a
       -0.005169327 0.013731343 0.014499876 0.0010358484
000380 e2 ee a1 3b c4 1b c7 ba 65 b7 87 3b 65 44 86 3c
       0.004941807 -0.001519077 0.0041417354 0.016390035
000390 c2 10 06 3c 52 2b 84 3c 42 de 5e bb 9f 29 51 bc
       0.008182706 0.016133938 -0.0034006988 -0.012766271
0003a0 bd e4 af 3b 19 9b 4d bc a8 8b 53 3c 31 29 15 bc
       0.005367844 -0.012549185 0.012911715 -0.009104059
0003b0 e7 0e b5 3b 68 a0 45 ba 61 12 d5 bb f5 a3 95 3b
       0.005525458 -0.0007538856 -0.006502435 0.0045666643
0003c0 1e 25 15 bc 5a 47 e9 bb 60 5e 58 3a 64 c9 ab 3b
       -0.009103088 -0.0071191015 0.0008253809 0.0052425135
0003d0 25 f3 6d bc df cb 15 bc 10 e0 bd b9 73 ff ac 3b
       -0.014523302 -0.009142845 -0.0003621583 0.0052794754
0003e0 a3 92 11 bc 5e db 81 bb cc 1a 0d bc af bf ca 3b
       -0.008885059 -0.003962918 -0.008612346 0.0061874012
0003f0 d7 97 7b 3a 5e 2a b2 bb 91 ba 6a bb 8c f8 b7 bb
       0.0009597516 -0.0054371795 -0.0035816769 -0.005614346

action_model._continuous_distribution.log_sigma f4 [1, 2]
000000 31 93 4b bd 76 00 9f bd
       -0.04970092 -0.0776376
