results/test5_solo/Collector.onnx (onnx, 604427 bytes, 9 tensors)

network_body._body_endoder.seq_layers.0.weight f4 [256, 68]
00000000: eef8 94bc 49cf d33d 5c53 88bd 3ee9 0dbd
00000010: dc97 3e3d 684b d63b d3a8 213e 25df 1dbb
00000020: 9cdc 733e ec1b 713d e02a 63be dfc2 8d3e
00000030: 6ac1 663e aa6d 7fbd 44a0 1c3e d401 613e
00000040: 4cba 763d 7b97 86be e2bf 9d3d a0f8 bd3d
00000050: 9bfa 393d 110c 8bbe a1cc 643e cefa 313e
00000060: 8573 1cbe 0f21 edbd e9c2 04bd 7f45 0ebe
00000070: c553 18be ac2d ae3d c168 09be 80b1 fc3c
00000080: 1189 0dbd e690 2f3d dbb3 173e 613c 51bd
00000090: 67eb 653c 60f5 77bd 1e21 e2bd e853 b73c
000000a0: ad57 223d c1bc 43be 2f57 0d3c 3aa9 aa3d
000000b0: b16d 2cbe 67e0 11be 2f1a 093e ca0d 30bd
000000c0: 7392 21bb 36ed 96bd 69f6 23be 313f 543c
000000d0: 9afa d83d d10f c2bd 018c 1f3e e153 93bb
000000e0: 4cdb 603c 6603 333e b365 8f3d 1da3 6e3a
000000f0: 7660 01be edc3 7e3d 2951 b03c b2c7 2bbe
00000100: b2ae 433d 5a4e 22be 486a 7d3c ac0b 343e
00000110: 19a1 a03c 41b2 18be 834f 83bd 37e9 9ebd
00000120: 285c b9bd 2c73 fabc 5538 cdbb c94d 103e
00000130: 0f3c a13d 2674 0dbe d980 4a3e 8845 e03d
00000140: 2728 713d 5fe2 76bd d043 18be 02be febc
00000150: ccb6 e3bd e4da 3f3e 6ce7 6cbc 918a e8bd
00000160: 728f 893d 0b50 83bd 2734 bf3d 4182 943d
00000170: 2bcd cc3d 401f 07bc 6422 6dbd afb8 acbd
00000180: 5f4a 6f3e 6091 77be e5cb a93d 0d4b 7b3c
00000190: 1451 233e f3a3 9d3b 36a2 7bbe 2893 35bd
000001a0: 9396 d63d cf7a ffbc 551e e43d c229 a93d
000001b0: 6d12 1dbe 682c 07be 546d cdbd 7eb1 5d3d
000001c0: 701c c53d 5f18 49be d6eb 3f3e aa9d e93c
000001d0: 9ab1 f73c 620f c13d 6606 13be 881b 343e
000001e0: 40b0 173e b30a 20be 95d7 163d 0132 f23d
000001f0: ed43 1a3d c7fa 9bbc 0dab 89bc 24a8 14be
00000200: 086f da3d 1fd9 a3bd 1e21 44be 2a03 2bbe
00000210: 67b8 623e a250 bcbd 75ba e6bd 2100 7a3d
00000220: 68a4 a9bd a36a 993c 8270 ec3c bb82 05be
00000230: 7670 eb3c 880b 1fbe de61 503c c7bf 2cbd
00000240: 62f1 80bd 3207 56be eb58 b3bd a362 613d
00000250: d199 03bd 3a79 36bd a471 c8bd 43ab 8bbe
00000260: 58b0 ad3d f147 d4bb 04a3 383d 801c 2b3e
00000270: 1d8e 023d 3115 90bd 1772 04be 6e20 a7bc
00000280: 43c5 6abc 87b1 cc3c bf9a 683b df0c fc3d
00000290: 18c9 e8bc 854a a63d 2a80 a0bd 84f5 843c
000002a0: b7a0 fd3d 183f c93c 935c ae3e 04a4 16bd
000002b0: abb3 37be 2113 00be 29df 8ebe e40e 47bd
000002c0: 2ddd 75be 2a28 f83d 2e22 d7bd 3266 cbbd
000002d0: 6d91 293c 8c1b 083e 0ab9 37be a581 813d
000002e0: acfb cabc 3bcc 25bc 9004 39be 9a64 b8bd
000002f0: d692 d03d 8572 b1bd 49de 813e 3886 a3bb
00000300: 1fd2 5bbd ff97 603c 3afe 3dbe 987e 433b
00000310: a324 8bbd f1e3 37bd 4d9a 70bd 0ef3 1abe
00000320: de0b 83be db90 503d f2a5 53be 6bcb d63d
00000330: 6bcc d23d e3c2 f33c 305f 1b3d 2cb9 c63d
00000340: 1c09 c0bc 527d bbbc 0d29 3dbe e1ca 363d
00000350: 8a02 18be 47ca 03bd 45fe 4bbc 1a72 16be
00000360: 24b9 fd3d d686 7fbd 5657 0d3d 189b 02be
00000370: 54b6 03be fffd 063d 1602 c53d 2e87 83bd
00000380: 8934 dd3d 0f6c 533e 2b50 163d 244f 4bbd
00000390: 5b68 22be 87cd 1cbe 81e6 87bd 3bd8 793d
000003a0: 1a80 f73d 2c9f 7a3b 29af 363d f794 01be
000003b0: 54d0 b13d 7d01 8b3d f648 23be e3dd 1dbe
000003c0: 3847 873d ef9c 81bc c94e 1dbe 06df 853e
000003d0: 9633 02bd 95a9 08be e273 08bd ed56 8bb8
000003e0: 7e6f ba3d 0410 693e 6028 f63c d559 573d
000003f0: 5e90 bdbd 4beb d83d 3ce1 afbd f228 efbc
-0.018185105 0.10342271 -0.066565245 -0.034646265 0.046531543 0.006539751 0.15787058 -0.0024089303
0.23814625 0.05886452 -0.22184324 0.27687737 0.22534719 -0.062360443 0.15295511 0.21973354
0.06023626 -0.26287445 0.07702614 0.09275937 0.04540501 -0.27157643 0.22343685 0.1738083
-0.15278442 -0.11578571 -0.032412443 -0.13893698 -0.14875706 0.08504805 -0.13418867 0.030846357
-0.034554545 0.042862795 0.14814703 -0.051082972 0.014033175 -0.060536742 -0.11041473 0.022378877
0.039634395 -0.19114973 0.008626743 0.08333059 -0.16838719 -0.14245759 0.13388894 -0.0429819
-0.002465394 -0.07369463 -0.16011967 0.012954519 0.105946735 -0.09475673 0.15580751 -0.004496083
0.013724159 0.17481765 0.070018195 0.0009103285 -0.12634453 0.062198568 0.021523075 -0.16775396
0.047774024 -0.15850201 0.015467234 0.17582577 0.019608067 -0.14911748 -0.0641165 -0.07759326
-0.090507805 -0.030572496 -0.006262819 0.14092173 0.078727834 -0.13813838 0.19775714 0.10950762
0.058876183 -0.060274478 -0.14869618 -0.031096462 -0.1111885 0.18735844 -0.014459472 -0.113545544
0.06716813 -0.06411751 0.09336119 0.072514065 0.1000007 -0.008247197 -0.057894126 -0.08433663
0.23368214 -0.2417655 0.08290843 0.015337718 0.15948898 0.004810804 -0.24573597 -0.044329792
0.104779385 -0.03118649 0.11138598 0.08259918 -0.1533906 -0.13200533 -0.10030618 0.054124348
0.09624565 -0.19638203 0.18742308 0.028517563 0.030236054 0.09426762 -0.1435791 0.17588627
0.14813328 -0.15629081 0.03682669 0.11825944 0.037662435 -0.019040478 -0.016805196 -0.14517266
0.10665709 -0.08000397 -0.19153258 -0.16700426 0.22140656 -0.09195067 -0.112660326 0.06103528
-0.08283311 0.018727606 0.028862242 -0.13038151 0.028740149 -0.15531743 0.012718646 -0.04217508
-0.0629604 -0.20901182 -0.08757194 0.055025708 -0.032129113 -0.044549204 -0.097873 -0.272791
0.084809005 -0.0064783026 0.04507734 0.1671009 0.03187381 -0.07035292 -0.12934147 -0.020401206
-0.014329257 0.024986995 0.0035492626 0.123071425 -0.028416201 0.08119682 -0.07836945 0.016230352
0.123841695 0.024566218 0.34055004 -0.03677751 -0.17939632 -0.12507297 -0.27904633 -0.048598185
-0.24010153 0.12117036 -0.10504566 -0.099316016 0.010349614 0.13291758 -0.1794168 0.06323556
-0.02477821 -0.010119493 -0.18068147 -0.09003563 0.10184257 -0.08664421 0.25364903 -0.0049903654
-0.053667184 0.013708114 -0.18554011 0.0029830094 -0.06794097 -0.044895116 -0.058740903 -0.1513178
-0.2559499 0.050919395 -0.20668772 0.10488018 0.10292896 0.029756015 0.037932575 0.097032875
-0.023441844 -0.022886906 -0.18472691 0.044627074 -0.14844719 -0.03217533 -0.012450759 -0.14691964
0.123888284 -0.06238445 0.03450712 -0.12754476 -0.12862521 0.032957073 0.096195385 -0.06422268
0.10801036 0.2064669 0.036697548 -0.04963602 -0.15860121 -0.15312777 -0.06635762 0.06099723
0.1208498 0.0038241846 0.04460064 -0.12654482 0.086823136 0.06787393 -0.15945801 -0.15416674
0.06605381 -0.015821902 -0.15362085 0.26146716 -0.031787477 -0.1334594 -0.03331364 -6.644228e-05
0.09103297 0.22760016 0.03004855 0.052575905 -0.092560515 0.105917536 -0.08587882 -0.029194329

network_body._body_endoder.seq_layers.0.bias f4 [256]
00000000: 7923 563b 7705 afba 411a c0ba ea42 3f3c
00000010: 331e 7fba 7196 ce3c 25ea a33c 26e9 12bb
00000020: 94de 51bc 4c4b d4bb 46f3 833b 9bb8 183c
00000030: 924d 19bc 7844 c73b 44fd 623c dffb ddba
00000040: 6aef e8ba e32f 3dbc 25d5 debb 399a 46bb
00000050: 2f00 3bbb db33 483b 2760 543b b530 213c
00000060: 2bf0 a1bb e6b2 29bb 124d 9a3b 3d7c 42bb
00000070: 5e78 a137 bb04 57bb 9de7 0ebc 5978 993b
00000080: 511f a03c 225b 30bc 2652 b8bb 0621 0c3c
00000090: 99be 5a3a af38 273c 9509 4b3c 3c23 48bb
000000a0: 85eb ec3c 31da c1bb 6dc3 d6bb 1852 903c
000000b0: 4a50 973b e142 8abc 4786 af3a 8301 463c
000000c0: 016d a43b b245 85bc bcf2 043b 3ebe 7e3c
000000d0: 719a 22ba 0fcc b23b ea44 023b 3755 e239
000000e0: a032 05bc 9396 283c 1237 11bc 5c12 513c
000000f0: 20b0 4abb f89f d53b 1bca ebbc 98e5 0e3d
00000100: ab17 a2bb dc90 c03b a1c5 4e3c f967 c73b
00000110: efdb ff3b 9164 96bb b972 013c 5386 d9bb
00000120: 7003 ce3b 9e06 513b e2d7 8dbc a70e 1ebb
00000130: e604 a53a c579 123a d420 4dbc df26 b73c
00000140: 67e2 5fbc 023e 14bc dad2 9c3c 5019 31ba
00000150: fa4e 28ba 0e77 fb3a b91f 75bb 23f3 543b
00000160: 07dd 593b 86d3 afba 58e4 0f3c 5188 0e3c
00000170: 047d a13a ae5c ecbc fea3 a8bb 8851 863b
00000180: 98e5 9d3b e890 d53b 9c4d 0dbb cb5c 223a
00000190: cc84 a93b 8407 f7b9 712a 863c 8d32 8e3c
000001a0: fe6b 1ebc 37a5 2abb 9e3c 9c3b 730a edbb
000001b0: 69cd 133c 8445 ca3b 3be6 28bb 2dae 373c
000001c0: 3c9c 18bc 4c4f 1e3c 81f8 c5bb 0fd6 2cbb
000001d0: 9c91 48bc 7f0c 8b3a 851b 1abc f4dd 72bc
000001e0: 0593 fb3b 8c7a 303b 14d1 bf3a 40dd 853c
000001f0: a25c 38bc 0179 52bc 9c07 4dbc e868 35bc
00000200: 5890 cf3c f30e 1d3b bde4 b53a 9c69 2238
00000210: bf44 8b3b d0c1 53bb 21e9 d8b9 c813 36bc
00000220: 5d6d 893c b43e 443c 5110 963b 9a4a 04bc
00000230: fafa c6bb c9b6 72bc a232 9abc a0eb a83c
00000240: a43a 823c 9c19 6c3b d198 d2bb cc99 7e3c
00000250: b945 82bb 1b4e 32bc 17bc 583c 20e1 b83b
00000260: 2b7a 293c 667e c43b e21f 603c d6e0 343c
00000270: da86 adbb bb71 0fbb 1888 9d3b 0f35 cf3a
00000280: 5e80 93bc 582b c1bc 51a8 13bc 46e4 653c
00000290: 3445 ad3a 2df8 83bc b99d 18bb 13d1 5dbc
000002a0: 5007 873a d826 01bc 8806 873c 38bb 533a
000002b0: 44d3 ba3b 9428 26bc 4f40 0c3c 5221 d1bb
000002c0: 58d8 19bc 95df f0b7 3b0d b53c 16c3 0abb
000002d0: a833 3a3c 3eca dd3c 8a7a ae3b 0d42 da3b
000002e0: f277 50bc b22a f1bb 2538 8a3c 0606 83bb
000002f0: 034d 30bc a6cd 96bb 757f 29bc aa1d 843b
00000300: 5d98 453c d9f2 f33b ffb7 9cbb ff75 863c
00000310: 33f0 6d3c 943f aa3b eed4 6f3c 2a55 c2bb
00000320: 721e b0bb 7e33 27bc 6858 7a3b f066 5a3c
00000330: 2c99 35bc b272 6ebc b61a 263c 85a7 e1bb
00000340: 696c 813c ab1c a03b 65bb fb3b efd1 9a3b
00000350: 5e01 25bb af21 68bb 897e e63b 214b a4bb
00000360: 3062 b03c e5e5 48bc 1c77 97ba 595f 043c
00000370: 9b55 053c 5c95 393b 0f7f 423c fae1 333c
00000380: 06fe ab3c b0c6 283c ce9b 35bc 0c0b b3bc
00000390: 57fa 053b 9cf0 dc3b 325b 2a3c 23c4 4a3a
000003a0: cb35 f1bb 5c58 caba 96dd 1ebc 5125 c8bc
000003b0: 36da 3d3c 659c 053c a72e 0bbc effd 5cbb
000003c0: d846 9c3c 1c29 53bb a3be 93bb 08b3 d13c
000003d0: 1f0a 8d3c 3357 efbc 5ef8 a4bc 1384 a83a
000003e0: 5131 343b 6ada a3bc 3787 10bc 54d2 a9bb
000003f0: 8091 5fbc 899d c5bc 0b35 37bc 9934 7bba
0.0032674952 -0.0013353069 -0.0014656262 0.011673668 -0.0009731978 0.02521822 0.02000911 -0.00224168
-0.012809414 -0.0064787026 0.004026803 0.009321357 -0.009356873 0.00608116 0.013854329 -0.0016936025
-0.0017771546 -0.011547062 -0.006800311 -0.0030304326 -0.0028534045 0.0030548486 0.0032405944 0.009838273
-0.0049419603 -0.0025893985 0.0047088945 -0.0029676103 1.9248746e-05 -0.0032809216 -0.008722213 0.004683536
0.019546183 -0.010763915 -0.005625027 0.008552795 0.00083444413 0.0102063855 0.012392421 -0.003053858
0.028920898 -0.005915903 -0.0065540583 0.01761727 0.0046177255 -0.016877593 0.0013391458 0.012085321
0.005017877 -0.016268585 0.0020286283 0.015548287 -0.0006202823 0.0054564546 0.0019877502 0.0004316957
-0.008129746 0.010289806 -0.008863227 0.012760725 -0.0030927733 0.006519314 -0.028782895 0.034886926
-0.004946669 0.0058766436 0.012620361 0.0060853926 0.0078082005 -0.004589625 0.007900887 -0.006638327
0.006287031 0.0031894813 -0.017314855 -0.002411762 0.0012589961 0.0005587603 -0.012520034 0.022357402
-0.013664818 -0.009047987 0.01914351 -0.0006755786 -0.000642046 0.0019185261 -0.0037402941 0.0032493554
0.0033243315 -0.0013414479 0.008782469 0.008699493 0.0012320583 -0.028852787 -0.0051465025 0.0040990748
0.0048186295 0.0065175183 -0.0021561151 0.0006193637 0.0051733013 -0.0004711711 0.01637766 0.017358089
-0.009669302 -0.0026038417 0.0047679683 -0.0072339117 0.009021142 0.0061728377 -0.0025771994 0.01121096
-0.009314593 0.009662461 -0.006041587 -0.0026372706 -0.012241747 0.0010608583 -0.009405975 -0.014823426
0.007677438 0.0026928512 0.0014634454 0.016340852 -0.011252554 -0.012846232 -0.012514021 -0.011072375
0.025337383 0.002396521 0.0013877373 3.8722166e-05 0.0042501385 -0.0032311566 -0.00041372425 -0.011113115
0.016775781 0.01197784 0.004579582 -0.008074427 -0.006072399 -0.014814087 -0.018822972 0.020620167
0.015897103 0.0036026007 -0.0064269085 0.015539598 -0.0039755967 -0.01088288 0.013228438 0.0056420714
0.0103440685 0.005996513 0.013679476 0.011039933 -0.0052956166 -0.0021887857 0.0048074834 0.0015808659
-0.018005546 -0.023580238 -0.009012298 0.014031475 0.0013219477 -0.01610955 -0.002328737 -0.013538617
0.0010301862 -0.007882796 0.016482607 0.0008076909 0.0057014544 -0.0101415105 0.008560254 -0.006382146
-0.009389959 -2.8714343e-05 0.022101035 -0.002117341 0.011364855 0.027073976 0.0053246664 0.006660706
-0.01272391 -0.007359826 0.016872475 -0.003998521 -0.0107605485 -0.004602152 -0.0103453295 0.0040318565
0.012060252 0.007444721 -0.004782676 0.016413687 0.0145226 0.0051955674 0.014638169 -0.0059305625
-0.005374723 -0.010205148 0.0038199667 0.013330206 -0.011083882 -0.014553713 0.010138204 -0.006886425
0.015798764 0.00488623 0.0076822513 0.004724733 -0.0025177817 -0.0035420468 0.007034127 -0.005013839
0.021531194 -0.012261842 -0.0011555883 0.008079373 0.008138086 0.0028317785 0.011871113 0.01097917
0.020995151 0.010301277 -0.01108451 -0.021855853 0.0020443404 0.00674255 0.010397719 0.0007734915
-0.007361149 -0.001543771 -0.009696385 -0.024431856 0.01158767 0.008154963 -0.0084950095 -0.0033720692
0.01907675 -0.0032220548 -0.0045088097 0.025598064 0.01721674 -0.029216385 -0.020137962 0.0012856744
0.0027495215 -0.020001609 -0.0088213 -0.005182544 -0.01364553 -0.02412297 -0.01118208 -0.0009582728

network_body._body_endoder.seq_layers.2.weight f4 [256, 256]
00000000: c5d8 2c3c 0423 a53c 2d86 26bd df3b 0bbd
00000010: 9cd6 9f3d af64 743d ffaf 8fbd 7456 84bd
00000020: c79f ac3d 71a2 b23b c494 3a3d 62e2 41bc
00000030: daf0 debb 9d2d ad3c 1a8b ca3d 336f 56bc
00000040: dfd1 3e3d 802b a8bc 8ac7 983d 3020 d43a
00000050: d90a b8bc f4ea a3bd 2e41 f2bc 6657 f13d
00000060: 8fd1 2b3d 76c6 3abe 61df a0bb 511d 17be
00000070: 09c0 443d 12d2 763c 0b26 b93d a489 0fbe
00000080: eb88 413d 1fca d33c 2063 003d f100 89bc
00000090: 4690 e43c cec3 c53d c932 5fbd 53f0 d7bc
000000a0: 91fd 253e caa4 c6bd a71b 7c3d 384c 96bd
000000b0: e8c8 9f3c 1f7a 4a3d 5240 bd3b f300 10bc
000000c0: 5365 b53d b09e 66bc dc37 b33d 3703 bc3d
000000d0: 7943 79bc 8905 c33c f741 14bd f142 5cbd
000000e0: 8437 d0bd 8148 ea3a 7346 41bd 8a16 1b3d
000000f0: dead 313d 9a27 a7bd 05fa 873d b17d 50bc
00000100: 7664 b13d 9c72 903d 3ada 8a3d f574 8cbd
00000110: 34b3 bfbc 154a 74bc 5675 a53d 25ba 8e3d
00000120: ce00 fcbd dba8 adbc 27a0 823d 4376 413d
00000130: e9c3 1fbd 6cd0 5d3d 895d e9bc d07f 0fbd
00000140: cd9c 28bd f2dc a7bd 3b32 2dbd 286c 373d
00000150: c9a8 003d ce87 46bc eeb1 1ebd b9b3 cf3d
00000160: fe4e 41bd 3914 0fbd 480c 8fbd f389 d7bc
00000170: d507 2a3d 8a56 7a3d 7cb2 3fbd cb53 5bbc
00000180: 0803 883d b322 313c 7bc0 64bc 3c0e 09be
00000190: 09ac 9cbd 2b84 e93c 9a2f 723d b71f 0ebd
000001a0: 0b08 90bd 7714 c43d 73ff 643d b434 ee3c
000001b0: 3e03 983c 574b 073e 91f1 7bbd a870 0c3e
000001c0: 2d0f 903d 91f6 d2bc 2501 fbbc 7dcc 013e
000001d0: 93e9 b33b 4ddc 153d a4bf a7bd ba16 953d
000001e0: 416c bd3d 7300 04bd 57a8 8c3d 61b8 e4bd
000001f0: dc4b 93ba ceff 60bd 1a9c 86bc 1c08 14bd
00000200: ba36 ba3d 2d9d 0d3e e23e a9bc 94b9 70bd
00000210: a716 8dbc 0b3b 2dbd 003e 74bd f74f 263d
00000220: e109 823d d199 183d c678 2bbc 06d7 28bd
00000230: 16fd 6c3c 6f50 033d 6c60 8bbd ba24 dabd
00000240: 9355 12bd 6af1 bf3c f9db e53c 8255 c3bd
00000250: add7 0fbd ab7f 90bd f793 253d 563b f43c
00000260: 3d91 c9bd 80b4 ff3b 7dc5 94bb cadc 363d
00000270: f2be 5abd 0684 9fbd 1231 82bc 8f6c 45bd
00000280: b3e8 d23c 5b84 c3bd 8ed4 89bc 0ba4 463d
00000290: 0df5 0d3e b905 44bb 6137 31bb c2ae 043e
000002a0: e0dc 02bd e955 9e3d c9a4 723b fdb3 9fbc
000002b0: cbec fdbd f9f8 0dbe 76e3 033e 3468 aabd
000002c0: 0c48 6e3d ed62 dd3b 0a94 e23d 0192 98bd
000002d0: c799 0f3e f717 f93d f0c6 c73d deff 033d
000002e0: f612 81bc 5408 7cbc d7ff 463c 2102 7eba
000002f0: 530e 93bd 5aba 42bc b96e 8b3a 6cc6 afbc
00000300: 4fb0 cc3d 2ac0 35bd c91d b0bd 5d18 143e
00000310: 89f6 39bc 4b46 62bd cf48 51bd 1ddf 223d
00000320: 3287 9bbd 4a25 053d 3db1 1bbc f60a d43c
00000330: 48c6 0ebe 7dcc cc3c f73a 23bd 562e 573d
00000340: 72ae 5f3c 8be8 9e3d 516e 203b 4a00 6d3d
00000350: a83c e3bd 36a2 303c 9a8c 2a3d df7b 9ebd
00000360: 7216 123b e429 0e3c 6e3e 9abb 12de 303d
00000370: 76bb 123e e706 723d 3c40 08be a34a 343d
00000380: 7a0e 3c3d cdfc 793d 7a3f 9e3d b459 c4bc
00000390: ffc0 ce3d 4fa5 00be d9e2 9bbc 5ee9 8e3d
000003a0: 874e 88bd ee31 88bd ddb4 733d 6152 d33d
000003b0: 6e26 10bd 4f30 603d 060f f13d 2e77 c23c
000003c0: 4879 88bd c183 dcbc 8e10 a2bd 2022 e0bc
000003d0: 4e82 2abc 46c5 64bd 17ca 11be 824e 893c
000003e0: a04c 17bd 681d cf3c bb14 c13d a329 1bbe
000003f0: dda7 d6bd 6b80 ca3d 354d c43d 3466 b83d
0.010549729 0.020158298 -0.040655304 -0.033992644 0.07804605 0.05966633 -0.070159905 -0.06461802
0.084289126 0.0054514934 0.04555203 -0.011833759 -0.006803614 0.021139914 0.09889813 -0.013088035
0.046586867 -0.020528555 0.07459934 0.0016183909 -0.02246611 -0.08003798 -0.029572096 0.11784248
0.041947898 -0.1823977 -0.0049094413 -0.14757277 0.0480347 0.015064733 0.09040459 -0.1401735
0.047249716 0.025853215 0.031344533 -0.016724082 0.027900826 0.096564874 -0.054491792 -0.026359713
0.16210009 -0.096994 0.06154981 -0.07338756 0.01950498 0.04943287 0.00577549 -0.008789289
0.08857217 -0.01407592 0.08750889 0.09180301 -0.015213841 0.02380635 -0.03619572 -0.053774778
-0.10166839 0.0017874391 -0.047186326 0.03786329 0.043378703 -0.0816185 0.06639484 -0.01272528
0.086617395 0.0705311 0.06779905 -0.06858245 -0.02340088 -0.014910241 0.08079021 0.06969098
-0.12304841 -0.02119868 0.06378203 0.047231924 -0.039005194 0.054153845 -0.028486984 -0.035034
-0.041165162 -0.08196439 -0.04228423 0.04478088 0.031410966 -0.012117339 -0.038743906 0.10141701
-0.047194473 -0.034931395 -0.06984764 -0.026310897 0.041511375 0.061117686 -0.046801075 -0.013386677
0.06641203 0.010811496 -0.013961907 -0.13384336 -0.076500006 0.028505405 0.059127428 -0.034698214
-0.07032784 0.09574216 0.055907678 0.029077865 0.018556233 0.13212334 -0.061509673 0.1371485
0.070341446 -0.025752338 -0.030640194 0.12675662 0.0054904907 0.03658705 -0.081908494 0.072797254
0.092491634 -0.03222699 0.06868046 -0.1116798 -0.0011237818 -0.054931454 -0.016431857 -0.036140546
0.090924695 0.13829489 -0.020659868 -0.05877073 -0.017222716 -0.042292636 -0.05962944 0.040603604
0.063495405 0.037256066 -0.010465806 -0.041220687 0.014464637 0.03205913 -0.068055004 -0.10651536
-0.03572614 0.023430545 0.028058993 -0.09537794 -0.035117794 -0.07055601 0.040424313 0.02981345
-0.09842155 0.0078034997 -0.004540144 0.044644155 -0.053404756 -0.07788853 -0.01589254 -0.048199233
0.025745725 -0.09546729 -0.016824987 0.048496287 0.1386301 -0.0029910638 -0.0027041065 0.1295729
-0.031948924 0.0773123 0.003702449 -0.019495005 -0.1239868 -0.13864507 0.12879738 -0.083206564
0.058174178 0.0067561776 0.110633925 -0.07449723 0.14023505 0.12162774 0.09754741 0.032226436
-0.015756112 -0.015382845 0.012145958 -0.0009689648 -0.071804665 -0.01188525 0.0010637856 -0.02145692
0.09994566 -0.044372715 -0.08599431 0.14462419 -0.0113502825 -0.055242818 -0.051094826 0.03976356
-0.07594146 0.032506265 -0.009502706 0.025884133 -0.13942826 0.024999851 -0.039851155 0.052534424
0.013652431 0.07759198 0.0024479816 0.057861604 -0.11095554 0.010780862 0.041637994 -0.0773847
0.002229121 0.00867698 -0.004707149 0.043180533 0.14329323 0.059088614 -0.13305753 0.04401649
0.045912243 0.061032105 0.07726951 -0.023968555 0.10095405 -0.1256306 -0.019029068 0.06978105
-0.06655603 -0.06650148 0.059498657 0.10318447 -0.0351929 0.05473357 0.117704436 0.02373847
-0.066637576 -0.026918294 -0.07913314 -0.027360022 -0.010407044 -0.055852197 -0.14237247 0.016761068
-0.03693831 0.025282577 0.09427782 -0.15152602 -0.10481236 0.09887775 0.095850386 0.09003869

network_body._body_endoder.seq_layers.2.bias f4 [256]
00000000: 49a7 37ba d2f3 7fbc e43b d73b 9a55 61bc
00000010: 2bdc f03a f7e0 8739 c238 89bb ac92 683c
00000020: 979a 703b 9cc0 59ba 433e 8c3c 51c3 61bc
00000030: 618d 5c3c 714a 54bb e790 b83c e5f7 053c
00000040: 5751 183b aa1e 333b d805 9e3c 2ed4 c93c
00000050: 7960 34bc 5b40 813c b73b 2b3c 0190 3dbc
00000060: 1b5a 2bbc c9a0 053c 4fad 013c 3544 cc3b
00000070: e91f d53b 609b 6fbc b6c2 81bb b0ee 2cbc
00000080: 2a00 2abc 2546 0d3c 8b9f 663c 5bc1 823c
00000090: 3548 4d3c eca7 42bb e279 963b 9f91 ad3b
000000a0: 6e48 35bb f6f5 00bc c504 ccbb 0fc6 923c
000000b0: 2c72 4dbc 264f 1d3a e8c6 d33b 6d8d f3ba
000000c0: 68d5 25bc 285e 883c d690 90ba d13d 1bbc
000000d0: 1b24 253c 3e7a ccbb 8ebc 4f3c 9b71 ea3c
000000e0: 25c0 633c 1c5f babb b174 ca3b 2545 c7ba
000000f0: 8387 db3b 060f 21bc c982 273c 8136 b1bb
00000100: dc7c 1e3c 4996 293c aa7d 02ba 6d4a a63b
00000110: 3a1a e23a d32b 1dbb 81ec 553c 2bf9 25bb
00000120: fb41 75bc d071 1b3b 3bee 19bb 5ec7 d3bb
00000130: 9422 2dbc 311b 8f3c 23d0 0dbb e195 8cbb
00000140: 39dd 1fbc e521 31bc e277 9b3a 6b19 4ebc
00000150: 37fa 813c 59f6 eeb9 6645 cf3b 78af 0abc
00000160: f97e a2bc d458 16bc d17d 413b 9cda ad3b
00000170: d920 d93b 5239 e93b a42f ad3b 4134 2fbc
00000180: c2d3 203c d38f 753b 727e 82bb c09d 56bb
00000190: 2792 673c 3ab3 8ebb f244 933b c3fe 65bc
000001a0: 52f1 653c 2bed 89bc d074 813c 485f 77bc
000001b0: ac49 6a3b d9ea 31bc e5d5 03bb 6f6b 283c
000001c0: 9213 9b3c c1c8 453c bc41 bd3b 2b49 283b
000001d0: d91a 4f3c 6c6c 57bb c2c2 debb 27a5 4cbc
000001e0: 443c 8cbc b272 da3b bcc0 873b e0e2 a53a
000001f0: e6b1 063c 7ac8 e9bc f30a b93b 255c c1bb
00000200: 0014 39bc 3b2b 56bb bd6e c8bb fb9a 11bc
00000210: 3822 a53c 9004 b03b beac d93b 5368 15bb
00000220: d6d2 dbbb 5fa9 f13b 95f9 163c 1e5f 633c
00000230: 41ef 553c eba2 d9bb 0d15 d4bb 12c7 7d3c
00000240: 4ec2 68bc 77cc d8bb 7d52 46bc 79d0 91bb
00000250: 8926 9d3b 5c9a 38bc 7c33 2dbc 005d 143b
00000260: 3fbd c1bb dd90 42bc 379b 12bc 7727 ec3b
00000270: 4c7f ddbb 6697 0dbc 8faf a43c f40a 28bb
00000280: b027 84bc 0ac9 373c a8cb ad3c 731e 1fbb
00000290: 021b 83bb e93a 5bbb 1e39 06bb d57b c0bb
000002a0: 3519 83bc 4d04 d6bb e584 30bc bdc1 8f3c
000002b0: 5030 4d3c 1396 a33c 3821 14bc ee0e 6fbc
000002c0: 1c16 133c 601a a43c 083b b538 4695 5a3c
000002d0: 14b4 3ebc 4bee 52bc 8206 ea3a aaa3 06bc
000002e0: bc2f 06bc 5dac a23b 1f04 1b39 c364 bf3c
000002f0: bea7 e2bb 5920 12bc 7bb9 493b 160d dfbb
00000300: 7682 1fbc 3a90 85bc 5c67 86bc 974f e9bb
00000310: bff2 2bba aff1 333a db42 bf3b 3b0a c039
00000320: 58b1 5a3c 7810 40bc a319 903c 612b 3739
00000330: 91e3 ac3a 0dc4 c03b 10f0 883c ac0c de3a
00000340: ee98 473a db54 31bc 7eb5 51bb b9e5 883c
00000350: 53d0 453c d2c6 933b c93a e13b 2c3f 403c
00000360: 6049 abbc d5bc f93a 667c 6cbc fc75 81bb
00000370: 0cfb f73b 550b 99bc 5bfd 493b beb2 20bc
00000380: 46af 10bb 5943 03bc 0988 b13b d6fe 323c
00000390: 373d fd3c a258 983c e3ea 6a3b 2973 0abb
000003a0: fdbf 10bb f94e 5a3c b0c3 023c 37dd 3abc
000003b0: bdd3 7fba fb61 3e3c 3fc8 563b 916d a83b
000003c0: 6d31 5b3b cd28 273c f72c 063c e625 30bc
000003d0: b704 1cbb f7ab 8abb 5e89 9eba e2e1 dabb
000003e0: 3068 6f37 a5dc 22bc 4b5c 613b 0fd1 cd3b
000003f0: e4e3 cbba 92c7 1ebc 4585 91ba e150 3fbb
-0.00070058234 -0.015622096 0.006568419 -0.013753319 0.0018376162 0.00025916818 -0.0041876743 0.014195126
0.0036713236 -0.0008306594 0.017119532 -0.013779477 0.013461442 -0.0032393003 0.022530032 0.008176778
0.0023241842 0.002733151 0.019289896 0.024637308 -0.011009329 0.015777757 0.010451249 -0.011569978
-0.010458495 0.00815601 0.007914855 0.006233717 0.006504048 -0.014624447 -0.003959979 -0.010554954
-0.010376016 0.008622681 0.014076124 0.01596134 0.0125294225 -0.002970214 0.0045921663 0.0052969004
-0.002766158 -0.007871142 -0.0062261545 0.017916707 -0.012539428 0.0006000869 0.0064629205 -0.0018581577
-0.010121681 0.01664646 -0.0011029493 -0.009475187 0.010079409 -0.0062401583 0.012679232 0.028618624
0.013900791 -0.0056876075 0.0061784615 -0.0015203102 0.006699504 -0.009830242 0.010224053 -0.0054081087
0.0096733235 0.010350772 -0.0004977832 0.00507479 0.0017250248 -0.002398242 0.013056875 -0.0025325518
-0.014969344 0.002371896 -0.0023487944 -0.0064629754 -0.010567326 0.01746902 -0.0021638952 -0.004290328
-0.009757333 -0.010811304 0.0011861289 -0.012579302 0.015866382 -0.0004557844 0.0063254116 -0.008464687
-0.019835936 -0.009176452 0.0029524455 0.0053056013 0.00662623 0.007117429 0.00528522 -0.010693611
0.009816112 0.003746976 -0.0039823586 -0.0032747835 0.0141339665 -0.0043548616 0.004494303 -0.014037791
0.014034586 -0.016836723 0.01580277 -0.0150984 0.0035749478 -0.010859215 -0.0020116505 0.01027952
0.01893023 0.012071789 0.0057756584 0.0025678377 0.012640678 -0.003287102 -0.0067981193 -0.012490547
-0.01711858 0.006666505 0.004142849 0.0012656115 0.008221125 -0.028537977 0.005647057 -0.005900877
-0.011296272 -0.0032679576 -0.0061167167 -0.008887048 0.020157918 0.0053716376 0.006642907 -0.0022797778
-0.006708483 0.007374927 0.009214778 0.013877658 0.013057531 -0.006641736 -0.006472236 0.015489357
-0.014206482 -0.006616171 -0.012104628 -0.0044499007 0.0047958535 -0.011267271 -0.010571357 0.002263844
-0.0059124525 -0.011875358 -0.008948139 0.007206853 -0.0067595597 -0.008642053 0.020103244 -0.0025641294
-0.016132206 0.011217365 0.021215275 -0.0024279624 -0.0040010223 -0.0033451861 -0.0020480822 -0.005874137
-0.01600323 -0.0065312744 -0.010773872 0.017548436 0.012523726 0.019969022 -0.009041123 -0.014590962
0.008977439 0.020032108 8.641748e-05 0.013341254 -0.011639614 -0.012874196 0.0017854723 -0.0082177315
-0.008190092 0.004964395 0.00014783487 0.023363477 -0.006916969 -0.008918845 0.003078072 -0.00680698
-0.009735694 -0.016304124 -0.016406707 -0.0071200836 -0.00065593043 0.0006864322 0.005836827 0.00036628716
0.013347946 -0.011722676 0.01759035 0.000174684 0.0013190379 0.005882746 0.016716033 0.0016941032
0.0007614036 -0.010823454 -0.0031999047 0.016711103 0.012073594 0.004509785 0.006873463 0.011733811
-0.020909011 0.0019053469 -0.014433956 -0.0039508324 0.007567769 -0.018682161 0.0030821178 -0.00980824
-0.0022077127 -0.008011662 0.005417828 0.010925015 0.030912979 0.01859695 0.003584557 -0.002112577
-0.002208709 0.013324493 0.007981226 -0.011405281 -0.00097590295 0.01162004 0.0032773165 0.0051400145
0.0033446208 0.010202599 0.008189431 -0.010751223 -0.0023806521 -0.0042319256 -0.0012095382 -0.0066797594
1.4269768e-05 -0.009940301 0.0034387286 0.0062810252 -0.0015555588 -0.009691136 -0.001110234 -0.0029192495

network_body._body_endoder.seq_layers.4.weight f4 [256, 256]
00000000: b851 533d ea7b 06bd 5515 4dbd 5a11 bfbc
00000010: b0a7 0dbc 7673 3f3c 9f81 06bd 0916 2fbd
00000020: dcc1 0e3d 8f62 d13d 8577 0b3d 9b1b 0f3d
00000030: 8ea8 bf3d 33d5 d7bd f891 1b3d 9542 9fbd
00000040: 4e12 183e 33bc 9fbb bdc8 85bd bbce 8e3d
00000050: 4c93 05be 3609 683d 8cb8 613c 4428 3dbc
00000060: 09c7 d4bd e715 883d f9a4 c6bc 5f9c 8d3d
00000070: 0094 323c b186 16bd 7656 9bbb 90f3 c0bd
00000080: baef 963b a3b2 87bd 6a0a 0d3b 29f6 7b3d
00000090: 2a5e f7bd 6ed5 893d c847 1abd 9a68 793d
000000a0: 8c09 8a3c 1f97 8bbe 33af 94bd 609d 8ebc
000000b0: aa5a a7bd c124 083d 110f 953d 8fe1 8d3d
000000c0: 279e 9cbc 5845 b03a 7cfc c13b 5da0 db3c
000000d0: 67ed 7c3d 1e3a c53d a922 84bd fddc 0fbe
000000e0: e177 97bc 2e92 0abd e616 abbd 7f79 efbc
000000f0: 503b d43d f30a 043d 4e83 da3c ef46 1b3d
00000100: 3f97 163d 0e78 ec3d a56b 2ebd 36e9 c73c
00000110: e918 d1bd aac7 823d e8a4 f7bb 908d c7bd
00000120: 0084 d6bc 6779 1dbd 61f7 32bd a591 adbd
00000130: b64b 963d 3133 adbc 7cf3 cc3d f013 aabd
00000140: 9b42 78bc 0844 8d3d e8c3 13bd 40b7 063c
00000150: 4fea 773c 82bb 883b 1605 bc3d 2235 973d
00000160: 8592 913d dfed 03bc c5d0 6fbc 791a 7cbc
00000170: 2cfc 073e 9fed 383d e07c 4dbd cf6e 953d
00000180: a96f b0bc 8979 89bd 8a69 c8bb e82f 1fbc
00000190: 20b8 923d f6c3 e03c adf6 0cbb 9478 8b3b
000001a0: 562e d8bc 6931 f5bc 22d3 11bd 5e6e 44bd
000001b0: 04b6 143d 3c8e 6d3c 4fb8 9b3c 359b 37bc
000001c0: 0257 b73d 37f9 543b cf2f c1bd d8cc 4fbc
000001d0: 70db 893b 6620 15be d3aa e8bd 0c27 39bd
000001e0: 8f04 a8bc 0a16 5c3d 86e3 5a3d dc67 6b3c
000001f0: eb56 5abc 34a6 2a3d 33c0 cf3d 16f2 27bd
00000200: 8549 87bb 6cc9 a1bc c60d 023d 84dd 7a3c
00000210: 77a4 1ebd 088b 07bd f801 0c3e 0097 d83c
00000220: af86 c7bc f1bd 523d 4bec 81bc 7413 94bd
00000230: 380b 3dbe f1b0 89bc 2754 fe3b 3539 82bd
00000240: 32cd 25bd 25aa 7dbd c193 8bbd bbf0 cabc
00000250: 558d 013e 2eea b63c 4ca9 053e afa7 083d
00000260: 1f52 c3bd 4a11 47bc b1c5 01bd d027 323d
00000270: b1fa 7dbd 5bb1 4b3c 0b79 153d b1be 8dbd
00000280: a6f1 813c 7368 7b3c 511e 713d ec19 793d
00000290: 2473 51bd 1601 bcbd e01e fe3c d09f fbbc
000002a0: 9724 bfbd 57dc bb3c c372 513d 1b7c b43d
000002b0: b71f 913c c45a 9b3d e1b2 4ebd 6420 f2bd
000002c0: cd5c 60bc 33e3 983d 4df7 8cbd 9503 da3c
000002d0: 5eb3 9a3c bee7 c4bd 544e 72bd 46b8 5abd
000002e0: 22c7 bdbc a007 17bc 1892 b83b 2d42 903d
000002f0: 7e84 d4bc f787 11be c9d0 393c b144 8dbd
00000300: ea06 41be b51c 8fbd b569 2abd 7476 6ebd
00000310: d063 583a c30a 88bd ce84 90bd e0de a3bd
00000320: 288e 9d3d 7c49 dfbc c756 9e3d 0649 b4bd
00000330: 14fb aabd f0bb 7ebc 01ee b5bd 5d70 16bd
00000340: a5bb 573d a057 ed3c 6731 19be 4204 54bd
00000350: e2da 903d 7ce6 b23c f6d9 36bc 7467 2dbc
00000360: eff0 68bc 8b2e 1bbd ca9a 20ba 6caf 84bd
00000370: 58b7 edbd 21f0 ea3d e2db 90bb 6ce5 cdbc
00000380: fdcc 96bb cad4 f03d 3988 543b a1a9 ebbd
00000390: 3781 063d 287c 903c e1c6 6ebc fe29 0dbd
000003a0: 9d2d 42bd af9b b4bd 03bc b3bd b0e4 3fbd
000003b0: 28dc 383c 30a9 143d e7a8 13be f405 203d
000003c0: 3cd5 63bd c474 ba3d f09f 003e 9ec6 453a
000003d0: ff02 3a3d cc22 28bc 480e a03d 23bf 893d
000003e0: 72b6 343d 6813 073d 46b3 93bd 85ed 1dbe
000003f0: ed59 98bd a6ec 623d 9ab7 5fbd 530d d53c
0.051591605 -0.032833017 -0.050069172 -0.023323704 -0.008645937 0.011685243 -0.03283846 -0.042745624
0.034852847 0.10223877 0.03404953 0.034938436 0.09358321 -0.105387114 0.037981004 -0.077763714
0.14850733 -0.00487473 -0.065324284 0.069730245 -0.1304447 0.05664941 0.01377691 -0.011545245
-0.103895254 0.066448025 -0.024248587 0.06914591 0.010899544 -0.036749545 -0.0047405316 -0.09421456
0.0046062144 -0.06625869 0.00215211 0.061514053 -0.12078507 0.067301616 -0.037666112 0.06089077
0.016850255 -0.27263734 -0.07259979 -0.017409027 -0.0817159 0.033238176 0.07278264 0.069277875
-0.019118382 0.00134484 0.005919991 0.026809866 0.061749842 0.096302256 -0.064519234 -0.14049144
-0.01848978 -0.033830814 -0.08353977 -0.029232739 0.103628755 0.032237004 0.02667394 0.037909444
0.036765333 0.11546336 -0.042583127 0.024403196 -0.10209829 0.06385739 -0.0075575 -0.09743798
-0.02618599 -0.038445856 -0.04369295 -0.08475045 0.073386595 -0.021142574 0.100073785 -0.08304584
-0.015152599 0.068977416 -0.036075503 0.008222401 0.015131547 0.0041727433 0.091806576 0.07383181
0.071080245 -0.008052318 -0.014637177 -0.015387171 0.1327979 0.045148488 -0.05016792 0.07296526
-0.021537619 -0.06712634 -0.006116097 -0.009716012 0.07164025 0.027437191 -0.0021509335 0.0042563174
-0.026389282 -0.029930787 -0.035601743 -0.047956817 0.036306396 0.014499243 0.019008784 -0.011206438
0.08952142 0.0032497176 -0.09432947 -0.012683116 0.004207067 -0.1456314 -0.11360707 -0.045203254
-0.020509986 0.053731956 0.05343964 0.014368024 -0.013326387 0.04166241 0.10144081 -0.041002356
-0.0041286373 -0.019749366 0.031751417 0.0153116025 -0.038731065 -0.033091575 0.13672626 0.02643919
-0.024356214 0.051450673 -0.015859744 -0.07230273 -0.18461311 -0.016808005 0.0077614966 -0.063585676
-0.040478893 -0.06192984 -0.06815291 -0.024772992 0.1265157 0.022328462 0.13052863 0.03336304
-0.09537148 -0.012150118 -0.031682674 0.043495 -0.062006656 0.012432422 0.03649239 -0.06921137
0.015862297 0.015344727 0.058866803 0.060815737 -0.051135197 -0.091798946 0.031020582 -0.030715853
-0.09333151 0.022932215 0.051134836 0.08812734 0.017715318 0.075856715 -0.05046356 -0.11822584
-0.013694 0.0746521 -0.068831064 0.026613036 0.018884357 -0.09614514 -0.05915673 -0.053398393
-0.023166243 -0.009218127 0.00563265 0.07043872 -0.025942083 -0.14212023 0.011341282 -0.068978675
-0.18850294 -0.06987897 -0.041604716 -0.058218434 0.00082546193 -0.06642678 -0.070565805 -0.080014944
0.0769313 -0.02725672 0.07731395 -0.088029906 -0.083486706 -0.0155477375 -0.08883286 -0.03672825
0.052669186 0.028972447 -0.14960252 -0.051761873 0.070729986 0.02183842 -0.011160364 -0.010583747
-0.014217599 -0.037886184 -0.0006126581 -0.064787716 -0.11607236 0.11471582 -0.0044207433 -0.025133811
-0.004602073 0.11759336 0.0032429828 -0.115069635 0.032838073 0.017637327 -0.014573784 -0.034463875
-0.04740678 -0.08818757 -0.08776095 -0.046848953 0.011282958 0.036294162 -0.144199 0.039068177
-0.055623278 0.091043025 0.12561011 0.000754455 0.045413014 -0.0102622025 0.07815224 0.067259096
0.044119306 0.03297749 -0.07211928 -0.15422638 -0.07439027 0.055401467 -0.054618455 0.02600733

network_body._body_endoder.seq_layers.4.bias f4 [256]
00000000: fdb6 363c 90a5 5d3b 303a 6e3c c451 e0bb
00000010: e4c2 a83c 186e 39bb 3dc1 183c 0f52 60bc
00000020: 238d 2c3c f049 5cbb 8140 d0bb a382 79ba
00000030: d0b3 f7bb a4e4 a3bb 2b70 45ba 4662 b439
00000040: 8cb5 0cbc be0a 8f3c 0bc6 38bc 660f 45bc
00000050: b791 0dbc e2f8 923c 6b7d 8abc 4f16 b2bc
00000060: 3774 f03a 5cd0 893c 8f52 55bb 4ca5 ac3b
00000070: 0247 15bc 9d58 2d3a aa78 0a3b 562d 32bc
00000080: 9bc7 6bbc c98c 4f3b e6cb a33b 51f6 393b
00000090: 4c93 63ba 9d27 06bc 1b1a 17bc f55b df3b
000000a0: cc67 0fbc 9028 de3b 4293 ee39 f249 843a
000000b0: ec9f a13c 9c0d f33b ee56 b9bb 6a63 83ba
000000c0: b998 953b f328 44bc 7e6d 54bb 0564 133a
000000d0: 8a74 eb3b b8f1 013b 990e 36bc 4fb5 e9bb
000000e0: c0b4 853c 1cf4 e9bb 0b80 b53b cb89 133c
000000f0: a922 253b 4fb4 453a c9c3 8d3b c5cf 3fbc
00000100: 4310 a03c eb7e 663c d85a de39 8001 3cbc
00000110: 0e88 26ba 4dfd 69bb 76b6 22bc 9ca1 79bc
00000120: 8b41 113c 860c 2f3c 8412 fa3a ddc0 b73b
00000130: 3f49 ebbb 6f2b 01bb 930a 8a3c efb1 fb3b
00000140: adbe 8b3c 35e9 3ebc ffd2 553c d75b 2a3c
00000150: e3cc 743b 42a9 42bc ad9b 86ba 54b9 ac3c
00000160: f403 0f3c f12e 5bbc 303f 0b3c 69d9 d3bb
00000170: 019a 3c3b 7b78 1bbc f61f 75bb f18c 2c3c
00000180: d106 163c f20e 5ebb 828c 06bc e338 28bc
00000190: 98e8 d0bb 3e93 32bb 80b3 8c3a cfb2 353c
000001a0: 5b48 343c 915e 293c 989b 54bb 5bd3 e7bb
000001b0: 5cb5 963b 76d7 583c 223f ad3b 49e2 d13b
000001c0: 8202 f3bb 3288 8d3c 2a24 08bc 6198 823b
000001d0: 3c3d 2e3c 54b0 e53b fb37 da3c d8ce 0a3b
000001e0: 19f5 54bc b9ab 31bc d77c 1b3c b7eb 2ebc
000001f0: a973 963c 4895 5f3b f364 a83b 7e63 633c
00000200: 1500 68bb dfe7 193c 52b0 bf3a 63a6 74bc
00000210: da1d 973b 57ef 593c a4cc 42bc d91f a2bb
00000220: 90f7 ca3c 03c1 10b9 05de 1cbc f310 b63b
00000230: 2ff9 7eba 39e5 87bc bae8 943c c4f3 073c
00000240: 9805 25ba 8e63 8dbb a37c cabb a6db a2bb
00000250: 1b65 d7bb d330 7a3b e85d 063b 135e f1ba
00000260: acc0 18bc b8e5 8b3b fad4 563c 96a7 023c
00000270: 1874 0bbb 4534 bc3b fb9a c9bb 1eae 883a
00000280: 8c53 00bc 8c3a 6c3c 6a6d 27bc d158 f4bb
00000290: edea b23b 93a5 c9ba 33c6 29bc 8ad2 45bc
000002a0: ec21 96bb df77 223b 506c 20bc 7709 023c
000002b0: f0a9 cbbb 0d1c 58bc 297a 0c3b 4ac5 873b
000002c0: 67a6 563b 388b af3b 66d3 d73a 685a f93b
000002d0: 522b 84bb cfb6 343b 13ee 363c bac4 e3bb
000002e0: ace8 aabb df5a 8dbc 2a18 08bc 7999 03bc
000002f0: 5476 923c 0889 bb3b b1c8 2439 5c58 663c
00000300: 1161 3b3c d0fa 5ebc b514 5d3b df58 393c
00000310: 6467 20bc 0a6c 05bc 880b 4fbc 6ed1 0e3c
00000320: 4ffd 6abb 499d 54bb 029f c53b 8943 63bc
00000330: 16a8 8dbc b9fa a137 1a05 a83c fc96 6cbc
00000340: 6bf7 2bbb 9a8c 603c 328b 013c c8c3 843c
00000350: 3c8e 52bc ba0a b3bb 7031 a03a 7e42 3fbb
00000360: c49e 5cbc d6be 323c ebb0 d13b 94f5 b83c
00000370: 3352 28bc 87d1 633c 23a9 563c 5c00 c9b9
00000380: df66 ef3b 9da0 5d3a 1943 963b 0a19 743c
00000390: c651 1d3c cd75 7c3c b5d7 93bb 6464 84bc
000003a0: edf9 943b 5fec 59bc a3fb 413c bb15 4bbc
000003b0: a8a3 4b3c 787d 09bb d417 30bc 888c 123b
000003c0: 04d2 3cbc 20a8 37bc d0de 0cbb 2d76 d13b
000003d0: 3ffd 2bbc 4a76 1abc e77d 59ba e5b1 173c
000003e0: 3eee 5bbc 77c5 f9bb 66cc 2abc 5da5 343c
000003f0: 7f1a 3c3a 2b64 e7bb 90ad 11bb ffcd dbbb
0.011152026 0.0033820607 0.01454024 -0.0068456847 0.020600744 -0.002829438 0.009323415 -0.013691439
0.0105316965 -0.0033613406 -0.0063553457 -0.00095180626 -0.007559277 -0.0050016213 -0.0007531668 0.00034405495
-0.008588206 0.017461177 -0.011277686 -0.012027597 -0.008640698 0.017940942 -0.016905507 -0.021739153
0.0018345182 0.016822986 -0.003255043 0.0052687284 -0.009111168 0.00066126307 0.002112905 -0.010875067
-0.014390851 0.0031669608 0.004998672 0.0028375576 -0.0008681312 -0.0081881555 -0.009222533 0.006816382
-0.008752774 0.006779738 0.00045504613 0.0010092838 0.019729577 0.007417394 -0.005656115 -0.0010024135
0.004565325 -0.011972654 -0.0032413895 0.0005622509 0.0071855234 0.0019827913 -0.011111879 -0.0071322094
0.01632154 -0.007139696 0.0055389456 0.00900502 0.002519766 0.00075418217 0.004326318 -0.011707251
0.019539004 0.014068346 0.00042410824 -0.011474967 -0.0006352671 -0.0035703958 -0.009931197 -0.015236285
0.008865724 0.010684138 0.0019079004 0.005607708 -0.0071803625 -0.0019709726 0.016850745 0.0076811234
0.017058695 -0.011652281 0.013050794 0.010397873 0.0037353567 -0.0118811745 -0.0010269784 0.021084465
0.00872897 -0.013377891 0.008498952 -0.0064651263 0.0028778317 -0.009489174 -0.0037403083 0.01053165
0.009156899 -0.003388342 -0.008212211 -0.010267469 -0.0063753836 -0.0027248408 0.0010734648 0.011089995
0.011003579 0.010337488 -0.0032441374 -0.007074756 0.0045992564 0.013234964 0.005287067 0.006405149
-0.0074160704 0.017276857 -0.008309403 0.00398545 0.010634717 0.0070095453 0.026638022 0.0021180417
-0.012997889 -0.0108441645 0.009490213 -0.010676316 0.018365698 0.0034116078 0.005138987 0.013878701
-0.003540044 0.009393661 0.0014624691 -0.014932248 0.004611713 0.013301692 -0.01188961 -0.004947644
0.02477625 -0.00013804813 -0.009574418 0.0055562197 -0.00097264623 -0.016588794 0.018177379 0.008297864
-0.0006295084 -0.0043148464 -0.0061794086 -0.004970032 -0.006573332 0.0038176074 0.002050275 -0.0018414877
-0.00932328 0.004269328 0.013112301 0.007974526 -0.0021278914 0.0057435357 -0.0061525083 0.0010427868
-0.007832419 0.014418256 -0.010218957 -0.007456877 0.0054601342 -0.0015384428 -0.010362196 -0.012074122
-0.0045816805 0.0024790687 -0.009791449 0.007936827 -0.0062153265 -0.013190282 0.0021435118 0.0041433917
0.0032752992 0.0053571723 0.00164662 0.007609654 -0.0040334845 0.0027574783 0.01116516 -0.006950942
-0.005215725 -0.017255245 -0.008306542 -0.008032196 0.017878689 0.0057231225 0.00015715022 0.014059152
0.011436717 -0.013609603 0.0033734266 0.011312692 -0.009790275 -0.008143434 -0.012637027 0.008716924
-0.003585655 -0.0032442382 0.006030918 -0.013871082 -0.017292064 1.9309447e-05 0.020510245 -0.014440294
-0.0026240002 0.013705397 0.007906722 0.016206637 -0.012851294 -0.005463925 0.0012221765 -0.002918392
-0.013465587 0.010909757 0.006399264 0.022578038 -0.010273504 0.013904936 0.013101849 -0.00038337975
0.0073059644 0.0008454414 0.0045856354 0.014898548 0.009602016 0.015408945 -0.0045117983 -0.016161151
0.004546395 -0.013300984 0.01183978 -0.012395318 0.012429155 -0.0020979326 -0.010747869 0.0022361595
-0.011524681 -0.011209518 -0.0021495111 0.0063922615 -0.01049739 -0.009427616 -0.0008296654 0.009258722
-0.013423501 -0.0076224166 -0.010424709 0.011025754 0.0007175579 -0.0070615015 -0.0022228695 -0.0067079063

action_model._continuous_distribution.log_sigma f4 [1, 2]
00000000: abcc 79bd 88ab edbd
-0.060986202 -0.116049826

action_model._continuous_distribution.mu.weight f4 [2, 256]
00000000: 34ec f43c d54b fe3c be79 9f3b dd32 a6bc
00000010: e4b5 e83b 4d8d 183b 9816 b4ba 3b80 62ba
00000020: 8659 31bd 1105 83bc b185 b7bc 66d5 943c
00000030: 98ea da3c 9be2 943c bd1b 31bd 2e07 b8bb
00000040: a026 773c 7c1e 8f3b fbdd c73c 5b1a ddbb
00000050: b6f6 853c 93c7 c5bb b8f9 1cbb 03ce 3c3c
00000060: 3ff0 c93c 660d 84bc b7fc b63c 6940 063c
00000070: ece9 173c 5e7b f03c 1aee 6dbc 8624 803c
00000080: edf0 afbb f05d 003b ab3b cb3b 952d b63c
00000090: 5f0d ad3c 98f3 7a3b a245 0eba a7b3 9dbc
000000a0: a033 64bb 712d 40ba 6498 c5bc 65a6 00bd
000000b0: 394f a23a 6d82 403d 308a dc3c f70b c03c
000000c0: 9afa d5bb 2812 073c d0cb 8a3c c8d7 20bd
000000d0: 2a6b 8ebc 215f 70bc ef39 593b 37cd 85bc
000000e0: 8d5c 193d 90d4 82bc f6a9 27ba 39bf 98bc
000000f0: f188 883b 559e 81bc 80b8 c13c e13e 8ebb
00000100: ea1f f63c 0625 eb3c 80a0 23bc 41ea e3bb
00000110: a82e 263c da60 abbc a337 46bc 1778 f93a
00000120: 7167 c73c 5ded 1fbc d8aa d5bc 8013 21bc
00000130: 5f6e 84bc 6d59 a63c 927e 323c de5e 37bc
00000140: 85c9 c43c a482 09bb 9d50 28ba 9aa1 c13c
00000150: 1833 dcbc 2906 89bb 5def cabc 36e0 0e3d
00000160: f288 debb 82e7 cfbb db9b 11bc 7b9d 16bc
00000170: e6ca 333c 01fc fb3a f170 2f3c dd63 763c
00000180: d2b4 903c a1ee 183d 2c6c 473c 0a2a d939
00000190: af52 d73c bd98 e5bc ca42 66bc 1e6b c13b
000001a0: 275e a3bc 8c57 243c 589e b0bc bdf4 95bc
000001b0: 568d 213d e071 0dbd 9ca0 153d eca6 fdbc
000001c0: 7c92 db3c 1491 38ba fa70 c2bb 5584 62bb
000001d0: 188c 663c 7f98 ec3b 7f71 82bb c884 f4bc
000001e0: e64e 47bc 419d 24bc ac97 a2bc d8a0 8ebb
000001f0: 3e62 a93c f558 29bc 21c9 103c fb16 dd3c
00000200: 6aee febc d0c4 1bbc c166 e0bc 6037 4cbb
00000210: c0d4 463c 64b4 323c 3592 493c f277 1cbc
00000220: 527a 9e38 3dd4 f7bc 9d0f c7bc ceba 86bc
00000230: 6d9c 6f3c 75e9 823c d5ae 3c3a f52b 22bd
00000240: 16d0 323c 027d 3d3c 2681 d8bc a794 1e3a
00000250: 61d5 9dbc 5d9f d73b f622 8a3b 3120 03bd
00000260: 5a8f 9abc 6cf7 b3bc ff27 36bd 6305 7cbb
00000270: b637 4e3c 86c0 3cbd e326 eb3c 7cc4 c53a
00000280: 4c5b 253c 554e 9e3c 4d18 803b 341e a93c
00000290: ce54 0e3c 2234 0bbc cd32 b5bc 3b73 6abc
000002a0: 74e7 e4bc 16e1 b03c 4f2b 17bc c6fa c83c
000002b0: f36a d6ba cad1 abbb c190 103d e12d 3c3c
000002c0: aee6 093d 9807 4b3a 8779 87bc 676c 953c
000002d0: 3c39 01bc 2298 38bd 6f01 a7bc 2478 0abc
000002e0: cec9 f6bb f429 af3b d47c 7dbc c374 a63c
000002f0: d916 a33c 2ff1 53bc e89a 98bc b8f7 543c
00000300: 8ba7 7bbc 6f03 a7b6 684e 083c 5e74 76bc
00000310: 7c12 e13b b9a0 aabc 89c9 913c a873 863c
00000320: 95f9 1f3d a97f 5d3c 8828 083d 62b8 95bb
00000330: 2f1b 16b9 c88d d8bb ffc5 88bc 6758 13bb
00000340: eb7f 533d 771a 46bc b1dc 0cbd a78f 33bc
00000350: 2b67 c03b ad68 823c 49ad 583c 65c9 b33c
00000360: 26d3 90ba 5bb8 673c f072 5a3d 6776 133c
00000370: 0026 8a3c bce5 9f3c 59f8 92bc cdd7 9e3b
00000380: 00f0 c8bb f8f2 c1bc f7fd 3d3b 8e85 973c
00000390: ad7a e73c e5bf 023d 5140 503c 0739 05bb
000003a0: aac2 013d 5068 deba 727b 7e3c 5c5e 54ba
000003b0: eff4 b0bb 5ba5 033c 84be b839 dbc4 6b3c
000003c0: e701 553a 711f 8f3b d283 e23c 7887 21bd
000003d0: 4bef a6bb fe8b 663b 453b 883c 7405 0cbd
000003e0: e048 a83b 8d5c 353c 2944 71bb 3ede b0bc
000003f0: 7c58 57bc d55f abbc fd31 87bc cef4 aebc
0.029897787 0.031042019 0.0048668077 -0.020287925 0.007101761 0.0023277581 -0.0013739644 -0.00086403236
-0.043298267 -0.015993627 -0.022402616 0.018168163 0.026723191 0.01817446 -0.043239344 -0.0056160903
0.0150848925 0.0043676477 0.02439784 -0.0067475266 0.016352993 -0.006035754 -0.0023952555 0.011523726
0.024650691 -0.01611967 0.0223373 0.0081940675 0.00927208 0.029355701 -0.0145221 0.015642416
-0.0053692968 0.001958724 0.0062021813 0.022238532 0.02112454 0.0038292166 -0.0005427246 -0.019250704
-0.003482081 -0.000733099 -0.024120517 -0.031408686 0.0012383229 0.046999384 0.026921362 0.023443205
-0.006530118 0.008244075 0.016942888 -0.039268285 -0.017385084 -0.014671118 0.0033146103 -0.016333206
0.03744178 -0.015970498 -0.00063958706 -0.01864587 0.0041667153 -0.015822569 0.023647547 -0.004340992
0.030044515 0.028704178 -0.009986997 -0.0069554155 0.01014296 -0.020920206 -0.012098226 0.0019032982
0.024341317 -0.009761182 -0.026082441 -0.009831309 -0.01616591 0.020306313 0.0108944345 -0.011192052
0.024021873 -0.002098241 -0.0006420704 0.023636628 -0.026879832 -0.0041816426 -0.02477234 0.034881793
-0.0067912275 -0.0063447366 -0.0088872565 -0.00919282 0.010973668 0.0019224883 0.01070808 0.015038458
0.017664347 0.03733695 0.012171786 0.00041420787 0.026284544 -0.028026933 -0.01405401 0.005902662
-0.019942356 0.010030638 -0.02155988 -0.018305177 0.03944143 -0.034532428 0.036530122 -0.030963384
0.026803248 -0.00070406613 -0.005933878 -0.003456374 0.014071487 0.0072203274 -0.003980815 -0.029848471
-0.012164807 -0.010047258 -0.019847713 -0.00435267 0.020676728 -0.01033615 0.008837015 0.026988497
-0.031119544 -0.009507373 -0.027392747 -0.0031160936 0.0121356845 0.010907266 0.012302925 -0.009550082
7.556811e-05 -0.03025257 -0.024299437 -0.016446497 0.014624697 0.015980462 0.0007197683 -0.039592702
0.010913869 0.011565449 -0.02642877 0.00060493726 -0.019266786 0.006580277 0.0042155934 -0.032013122
-0.018867183 -0.021968566 -0.044471737 -0.003845536 0.012586525 -0.046082042 0.028705066 0.0015088464
0.010092568 0.019324461 0.003909147 0.020644285 0.008687211 -0.008496316 -0.02211895 -0.0143097
-0.027942397 0.021591704 -0.009226634 0.02453364 -0.0016358778 -0.0052435147 0.035294298 0.011485548
0.03366726 0.0007744967 -0.016537441 0.018240167 -0.007887181 -0.04506696 -0.020386426 -0.008451495
-0.007531381 0.0053455774 -0.015471656 0.020319348 0.019908356 -0.012935921 -0.018628553 0.012998514
-0.01535977 -4.9773876e-06 0.008319475 -0.015042393 0.0068686586 -0.020828592 0.017796295 0.016412571
0.03905638 0.013519206 0.03324178 -0.0045690993 -0.00014315241 -0.0066086985 -0.016695974 -0.0022483112
0.051635664 -0.012091271 -0.034390155 -0.010959542 0.0058716736 0.015919054 0.013224908 0.021946618
-0.0011049255 0.014143075 0.05333227 0.009000397 0.016863823 0.019518726 -0.017940687 0.004847503
-0.006132126 -0.023675427 0.0028990486 0.018496301 0.028256739 0.031921286 0.012710647 -0.002032818
0.031679787 -0.0016968343 0.015532361 -0.0008101219 -0.005400292 0.008035029 0.0003523716 0.014390196
0.00081255886 0.004367762 0.027650747 -0.039435834 -0.005094444 0.0035178657 0.016629824 -0.034184888
0.0051356405 0.011069429 -0.0036814308 -0.021590348 -0.013143655 -0.02091972 -0.016503328 -0.021356966

action_model._continuous_distribution.mu.bias f4 [2]
00000000: 996d b4ba e52a 5ebc
-0.0013765573 -0.013560032
