results/test3_noConfig/Collector/Collector-500048.onnx (onnx, 106846 bytes, 7 tensors)

network_body._body_endoder.seq_layers.0.weight f4 [128, 68]
-0.019567803 -0.20896734 -0.1966808 -0.06469894 -0.056183092 0.06162909 0.026131866 -0.1217551
0.061362885 0.13575266 -0.012750956 0.09011637 0.011184641 -0.17819421 0.2859461 0.16356988
-0.09078835 -0.0005225242 0.0065095844 -0.15627244 0.1061163 0.060500525 -0.035190754 0.29858622
-0.1266614 0.022625221 -0.21459351 0.17012748 0.119533435 -0.043837834 0.008685319 0.11434907
0.06470775 -0.09780743 0.010197102 -0.10483099 -0.27618137 0.033918314 -0.14039128 -0.16880403
0.22620232 -0.111508265 0.28991932 -0.029302126 -0.009033975 -0.039319575 0.18441701 0.28104582
-0.10932154 0.066617854 -0.1764898 0.054178495 -0.023351591 0.025261223 -0.15251133 0.07274199
0.12387973 0.09363551 -0.032529734 -0.058178727 -0.052605655 -0.09499576 -0.05628533 -0.050886568
-0.039372247 0.13990074 0.10597954 0.066623844 0.019955477 -0.11261844 -0.044754382 -0.15161774
-0.07301785 -0.083360516 0.111944005 -0.056826998 -0.13158779 0.055390373 -0.097856335 0.05284545
0.020789305 -0.013253979 -0.08136367 -0.07960741 0.1235731 -0.046073575 0.21313389 -0.15244684
0.03644869 0.09860494 0.09349781 -0.105365105 0.023063248 -0.044326056 0.0781567 -0.26642618
0.09611162 -0.07071437 -0.17209949 0.11536859 -0.084315024 -0.14830203 0.2869545 0.08414178
-0.06583 0.07263153 -0.08784313 0.04897959 0.056930836 -0.06363737 -0.12395941 -0.052695535
-0.10451119 -0.14751191 0.104232304 -0.17988308 -0.17512749 -0.34714064 0.10275575 -0.095993124
0.19794308 -0.06778896 0.052461866 -0.050625276 -0.18098727 -0.12327186 0.28554967 0.18716434
0.0652456 -0.036035094 -0.09869564 -0.09910187 0.10152405 -0.17732291 -0.12629278 -0.017670497
-0.09917409 0.14721024 -0.049090695 -0.011560824 0.2024247 -0.03651083 -0.19759893 0.07395446
-0.029270278 -0.17506053 0.124356814 0.050380427 0.074378416 -0.1435855 -0.003203649 -0.029247517
0.13347222 -0.043944865 -0.06639492 -0.11244034 0.028421097 0.057151657 0.115278795 -0.14418226
-0.08859063 -0.032767367 -0.083079435 -0.3875556 -0.05197603 -0.018186763 0.13257395 0.14020625
0.055309273 -0.052093774 -0.11687391 0.04787483 -0.17810428 -0.16279 -0.0060584913 -0.24851714
0.06687229 -0.1403603 -0.041118357 0.06091447 0.11375744 -0.052699905 0.045116764 -0.03394579
0.055605274 0.05096729 0.1265167 -0.02803314 0.06041306 0.0991466 0.077903494 -0.06340069
-0.06203985 0.020279048 -0.08820714 -0.17409988 -0.22931269 0.11149461 -0.09847881 -0.16471739
-0.19108969 -0.047748312 0.09744758 -0.05821376 -0.044860523 -0.13733804 0.095977776 0.07355656
-0.04148409 0.023516065 -0.13710244 -0.036213428 -0.17516787 0.11917802 -0.2459117 0.1791036
0.12636034 -0.06503084 0.048662484 0.17304382 -0.23167899 0.22684819 0.012956394 0.17934504
0.111314796 -0.06770682 -0.049860105 0.14961442 0.005233848 -0.04888444 -0.24457085 0.18386735
0.16121833 0.25232694 0.021420399 0.081511945 0.07871 0.24554628 0.09504122 -0.12042001
-0.001785298 0.30605012 -0.014604848 0.13735618 0.020430982 0.12566371 0.05287278 -0.07604381
0.05411622 0.15468255 0.1583941 0.19230999 0.19285703 0.13660978 0.17896092 -0.08723358
00000000: a84c a0bc 89fb 55be b166 49be e180 84bd
00000010: 3e20 66bd c96e 7c3d 7f12 d63c bd5a f9bd
00000020: a657 7b3d bf02 0b3e 63e9 50bc ee8e b83d
00000030: c93f 373c 8b78 36be 8767 923e dd7e 273e
00000040: 3eef b9bd 01fa 08ba 5a4e d53b e205 20be
00000050: 8153 d93d 66cf 773d 2e24 10bd 4be0 983e
00000060: 87b3 01be 8758 b93c 67be 5bbe e635 2e3e
00000070: f2cd f43d 4d8f 33bd de4c 0e3c d82f ea3d
00000080: 7f85 843d 434f c8bd bf11 273c a1b1 d6bd
00000090: a567 8dbe eeed 0a3d bbc2 0fbe f7da 2cbe
000000a0: 95a1 673e 725e e4bd 4e70 943e 030b f0bc
000000b0: 3d03 14bc 900d 21bd d0d7 3c3e 3de5 8f3e
000000c0: f9e3 dfbd f16e 883d beb9 34be 45ea 5d3d
000000d0: d64b bfbc a0f0 ce3c ee2b 1cbe c1f9 943d
000000e0: a8b4 fd3d f9c3 bf3d e63d 05bd d14c 6ebd
000000f0: 0779 57bd 238d c2bd 728b 66bd 6f6e 50bd
00000100: cb44 21bd 2442 0f3e cd0b d93d 1572 883d
00000110: ab79 a33c 7fa4 e6bd 5f50 37bd ae41 1bbe
00000120: 628a 95bd ebb8 aabd e642 e53d 6dc3 68bd
00000130: f3be 06be 04e1 623d e768 c8bd 7874 583d
00000140: 554e aa3c 3827 59bc ffa1 a6bd 3609 a3bd
00000150: e513 fd3d a5b7 3cbd c53f 5a3e 061b 1cbe
00000160: 394b 153d 63f1 c93d c87b bf3d a9c9 d7bd
00000170: 23ef bc3c 3d8f 35bd 9f10 a03d 0369 88be
00000180: 2bd6 c43d b2d2 90bd d93a 30be 5e46 ec3d
00000190: 5bad acbd 7ddc 17be b3eb 923e 8752 ac3d
000001a0: e1d1 86bd d7bf 943d 19e7 b3bd d39e 483d
000001b0: 4f30 693d 4f54 82bd 6ede fdbd 46d7 57bd
000001c0: f609 d6bd 5d0d 17be bf77 d53d 4533 38be
000001d0: 9f54 33be 6bbc b1be 9b71 d23d 0b98 c4bd
000001e0: 97b1 4a3e f0d4 8abd 41e2 563d 735c 4fbd
000001f0: ba54 39be f575 fcbd 9133 923e 02a8 3f3e
00000200: 7c9f 853d 8999 13bd f120 cabd ecf5 cabd
00000210: d7eb cf3d 2394 35be e552 01be b8c1 90bc
00000220: c91b cbbd 48be 163e 5313 49bd 9c69 3dbc
00000230: 6c48 4f3e 618c 15bd 6057 4abe 7075 973d
00000240: 39c8 efbc 1143 33be c9ae fe3d b55b 4e3d
00000250: b653 983d 1408 13be 50f4 51bb 7d98 efbc
00000260: f1ac 083e 88ff 33bd 0ffa 87bd 1f47 e6bd
00000270: 5cd3 e83c db17 6a3d 4a17 ec3d 84a4 13be
00000280: 016f b5bd 1337 06bd 8d25 aabd b06d c6be
00000290: d1e4 54bd 68fc 94bc 77c1 073e 3a92 0f3e
000002a0: fa8b 623d 4860 55bd 975b efbd 6618 443d
000002b0: f860 36be 6cb2 26be 4f86 c6bb 477b 7ebe
000002c0: 57f4 883d 9cba 0fbe b96b 28bd 7481 793d
000002d0: a9f9 e83d dbdb 57bd 5bcc 383d be0a 0bbd
000002e0: 5bc2 633d 14c3 503d 988d 013e c1a5 e5bc
000002f0: af73 773d 5f0d cb3d de8b 9f3d 39d8 81bd
00000300: 7f1d 7ebd 3f20 a63c f2a5 b4bd 3d47 32be
00000310: f2d0 6abe 4957 e43d 42af c9bd adab 28be
00000320: 04ad 43be bc93 43bd 9992 c73d 8d71 6ebd
00000330: abbf 37bd 58a2 0cbe ff8f c43d d2a4 963d
00000340: 39eb 29bd c3a4 c03c 9564 0cbe 8854 14bd
00000350: 355f 33be 9b13 f43d 47d0 7bbe ef66 373e
00000360: 9b64 013e e42e 85bd 5052 473d 6632 313e
00000370: 423d 6dbe e44a 683e 0e47 543c 3aa6 373e
00000380: 03f9 e33d e0a9 8abd 1c3a 4cbd 8634 193e
00000390: b380 ab3b 0d3b 48bd c870 7abe b947 3c3e
000003a0: 6b16 253e ff30 813e d579 af3c bcef a63d
000003b0: b532 a13d 7c70 7b3e f9a4 c23d c49e f6bd
000003c0: a900 eaba 9ab2 9c3e 2c49 6fbc 19a7 0c3e
000003d0: e05e a73c fdad 003e 2191 583d dbbc 9bbd
000003e0: f8a8 5d3d 1a65 1e3e 1032 223e e9ec 443e
000003f0: 507c 453e 6fe3 0b3e 8841 373e 85a7 b2bd

network_body._body_endoder.seq_layers.0.bias f4 [128]
0.008091256 0.015207862 -0.004144806 0.0038163904 0.02000594 0.0046396432 -0.005368256 0.0065024258
0.002617683 -0.02274744 -0.007069295 -0.0040632817 -0.008372744 0.0100785615 -0.010990743 -0.010578726
0.010402622 0.005714742 0.016363688 0.018838448 0.013042835 0.0039424133 -0.011169089 -0.0043019885
0.03151669 0.007438538 -0.0027673366 -0.006156065 0.0031969808 -0.0049096243 0.005857217 -0.0142816575
0.008632938 0.004514748 0.005149073 -0.006219132 -0.002511499 0.006790662 -0.0001974536 -0.018387927
-0.001547558 0.0010286316 0.015622123 -0.0022896577 -0.00012244903 -0.02649397 0.0036162485 -0.0037504742
0.0033337148 -0.005371091 0.008998652 0.008573146 0.0026076722 0.013215057 0.011915534 0.005197724
-0.0042167976 0.0027043833 0.0030967514 -0.0049626296 0.013636663 -0.00019059435 -0.004474512 -0.0044475542
-0.011169758 -0.010554648 -0.007175233 -0.0018666112 -0.0023829201 -0.014580161 0.008066569 -0.0050070942
0.005416167 0.0055643227 0.006829577 0.0049586976 -0.0009824368 -0.0069710133 -0.010559401 -0.0018557431
0.005067018 -0.0028205444 0.0033574975 -0.011550935 0.004147087 -0.024929184 0.0017808672 -0.006091103
0.011096102 0.012348037 -0.01952512 0.009405344 -0.0046420167 0.002573991 -0.010755307 -0.0049323877
0.008009393 0.0057513546 -0.020136166 -0.0077706864 -0.0042486056 -0.0032749006 -5.9357582e-05 0.005429336
0.008828768 0.0017745602 -0.017223625 -0.00032757243 0.008146662 0.010171865 -0.001860861 0.0075608334
0.0043225074 -0.005312778 -0.012099657 -0.0058200434 -0.0026487072 0.006555978 -0.00457182 0.017780906
-0.0077965246 -3.5802368e-06 -0.0012293314 0.020406347 0.0017884349 0.0054251603 -0.018918324 -0.008063251
00000000: 3091 043c 652a 793c 27d1 87bb 681c 7a3b
00000010: 7fe3 a33c 2608 983b 32e8 afbb 4d12 d53b
00000020: 6f8d 2b3b d758 babc 8ba5 e7bb 4725 85bb
00000030: d52d 09bc 8d20 253c 8412 34bc 6552 2dbc
00000040: c26f 2a3c bb42 bb3b 240d 863c 1753 9a3c
00000050: 9db1 553c 5c2f 813b 8efe 36bc b2f7 8cbb
00000060: a517 013d fbbe f33b 345c 35bb d1b8 c9bb
00000070: 7084 513b eae0 a0bb e6ed bf3b 9dfd 69bc
00000080: 2b71 0d3c 74f0 933b 8eb9 a83b dcc9 cbbb
00000090: f697 24bb 3484 de3b 8c0b 4fb9 47a2 96bc
000000a0: 6ed7 caba 26d3 863a eff3 7f3c 150e 16bb
000000b0: a965 00b9 e209 d9bc 95fe 6c3b 84ca 75bb
000000c0: 747a 5a3b faff afbb 156f 133c 6176 0c3c
000000d0: 7be5 2a3b f783 583c 5f39 433c ab51 aa3b
000000e0: 102d 8abb 063c 313b def2 4a3b 8e9d a2bb
000000f0: 4f6c 5f3c 48da 47b9 ed9e 92bb cabc 91bb
00000100: 5c01 37bc 67ed 2cbc 381e ebbb 14a9 f4ba
00000110: c42a 1cbb a1e1 6ebc a529 043c 8d12 a4bb
00000120: 1a7a b13b ec54 b63b a5ca df3b 927c a23b
00000130: 1cc5 80ba 196d e4bb 5601 2dbc 683c f3ba
00000140: 3a09 a63b e2d8 38bb 7609 5c3b 2240 3dbc
00000150: 4ae4 873b 4a38 ccbc fd6b e93a e097 c7bb
00000160: 6dcc 353c 6c4f 4a3c 25f3 9fbc df18 1a3c
00000170: 0f1c 98bb 67b0 283b 0737 30bc de9f a1bb
00000180: d439 033c dc75 bc3b 9af4 a4bc 3ea1 febb
00000190: e337 8bbb b79f 56bb b8f6 78b8 92e8 b13b
000001a0: 89a6 103c 5c98 e83a 8f18 8dbc 07be abb9
000001b0: 9479 053c e5a7 263c 22e8 f3ba dec0 f73b
000001c0: d2a3 8d3b d016 aebb a43d 46bc 10b6 bebb
000001d0: ef95 2dbb 88d3 d63b 35cf 95bb 43a9 913c
000001e0: fd79 ffbb 0044 70b6 8421 a1ba 362b a73c
000001f0: eb69 ea3a 8bc5 b13b 9afa 9abc ba1b 04bc

network_body._body_endoder.seq_layers.2.weight f4 [128, 128]
0.017776277 0.026250996 0.13680196 -0.01342756 0.026073653 0.08801467 0.018325303 0.15330364
-0.08763832 0.1058112 0.047410674 0.019575385 0.0010019719 0.062964536 -0.12276396 0.1344775
-0.10489113 -0.023310255 0.06828442 -0.005429701 -0.02332086 -0.018219909 -0.015996102 -0.14284746
-0.048595723 -0.070434466 -0.21361317 -0.02885676 -0.1554467 0.054723762 0.028083662 -0.15321761
0.07394051 -0.080026366 -0.061288107 -0.04439155 -0.0047787908 -0.08699583 0.14386564 0.046246555
0.19817936 -0.060187154 0.013246952 -0.014191469 0.042110674 -0.13330732 -0.25279835 0.11099837
-0.14398901 0.037150636 -0.051515803 -0.124046974 -0.10023968 -0.03593666 -0.02679116 0.069271356
0.11803317 -0.088845804 0.09348499 -0.009890605 0.0077225757 -0.08595839 0.0060880277 0.03308541
0.0014937265 -0.074505545 0.050464444 -0.14965372 -0.115298145 0.087860376 -0.04568668 0.05809209
-0.048315372 0.13868767 -0.07294591 -0.038836263 -0.0541295 -0.11998017 0.13797222 -0.060655262
0.04636317 -0.035855122 -0.08674653 -0.23534767 0.059176005 0.101151526 0.04387261 -0.10390047
-0.06133293 0.058458608 -0.019306036 -0.008686287 0.08054372 0.072399534 0.028296953 -0.15677918
0.0101994155 -0.01578685 -0.016023165 0.099002756 0.05269604 0.024370829 -0.12337307 -0.09894233
0.16694494 -0.0027445713 0.0844123 0.018691577 0.03411361 -0.081251696 0.061668508 0.11270515
-0.10710813 -0.11635734 -0.05933916 -0.04551642 -0.18554182 -0.03692146 -0.014217758 -0.1968168
0.07372584 -0.060819145 -0.0858915 0.15260343 -0.050474193 0.085175686 -0.04444457 -0.095705934
-0.017983451 -0.023416815 0.14761776 -0.03536055 0.023150481 -0.031125158 0.13987492 -0.041333754
-0.14034313 0.00524166 0.086251505 -0.13331659 0.008723297 0.054032303 -0.027016696 0.17747314
0.0023885393 0.06384429 -0.12262546 0.22388576 -0.096771725 -0.11240696 -0.0030563257 0.024826137
0.009303165 0.013090824 -0.06926084 0.039925806 0.034517046 -0.056939602 -0.108144365 -0.18780015
-0.16027552 -0.037309166 -0.023703659 0.09885004 0.031748746 -0.03500459 -0.03514492 -0.025462328
-0.0139345955 -0.01758819 0.08649847 0.15841535 0.019048613 -0.07973298 0.0023648376 -0.072448544
-0.005796171 0.13073513 0.10443424 -0.07567416 0.052224234 0.011717682 0.05510197 0.13801052
-0.070449375 -0.012862087 -0.060140904 0.07200682 0.107656725 -0.039803408 -0.025663197 -0.066866495
-0.045000464 -0.14244308 0.029832775 0.1568285 -0.04915832 0.06865772 0.022308858 0.025703475
-0.116264805 0.049186785 0.08909112 0.06994916 -0.033995394 0.03597931 -0.0674888 -0.069854066
0.06718311 -0.08590939 0.015945531 -0.055360373 -0.10968888 -0.06620024 -0.06500677 -0.025762273
0.15469748 -0.010734992 0.02663189 0.050027035 -0.14533591 0.11646945 -0.034035325 -0.10271323
0.05750033 0.061812133 0.04438952 -0.032807324 -0.09033944 0.09184573 0.112269126 -0.052376054
-0.020341668 0.09780342 0.0065227654 -0.062228736 0.056500994 -0.09213597 0.10375842 -0.060506385
0.034712967 -0.06936911 0.03220633 -0.1064324 -0.097000994 -0.16403411 0.039989516 0.014187641
-0.09697224 0.17041673 0.013987461 0.043132897 0.09780985 0.04670761 0.014232601 0.040778216
00000000: 8e9f 913c 540c d73c d015 0c3e 45ff 5bbc
00000010: 6a98 d53c 0941 b43d f21e 963c a1fb 1c3e
00000020: b87b b3bd 8bb3 d83d b231 423d 8f5c a03c
00000030: 9954 833a 8df3 803d ac6b fbbd 78b4 093e
00000040: 29d1 d6bd 26f5 bebc b4d8 8b3d a2eb b1bb
00000050: 630b bfbc eb41 95bc 420a 83bc 9b46 12be
00000060: 4f0c 47bd f23f 90bd 69bd 5abe 0365 ecbc
00000070: 6b2d 1fbe 0626 603d b50f e63c 14e5 1cbe
00000080: 1f6e 973d dde4 a3bd 3d09 7bbd ead3 35bd
00000090: 6797 9cbb df2a b2bd 8451 133e 076d 3d3d
000000a0: 88ef 4a3e ce86 76bd be09 593c 5683 68bc
000000b0: 3e7c 2c3d b781 08be c96e 81be 1d53 e33d
000000c0: db71 13be 442b 183d 3c02 53bd 570c febd
000000d0: 764a cdbd 5232 13bd 2379 dbbc 24de 8d3d
000000e0: 60bb f13d caf4 b5bd 0f75 bf3d 340c 22bc
000000f0: a90d fd3b f40a b0bd 147e c73b 9184 073d
00000100: 25c9 c33a 5d96 98bd ceb3 4e3d d33e 19be
00000110: 6f21 ecbd 24f0 b33d f521 3bbd f9f1 6d3d
00000120: 57e6 45bd 2404 0e3e aa64 95bd c612 1fbd
00000130: e5b6 5dbd 2ab8 f5bd 9748 0d3e a771 78bd
00000140: 4fe7 3d3d d2dc 12bd 2aa8 b1bd fbfe 70be
00000150: 8a62 723d 8828 cf3d c4b3 333d c5c9 d4bd
00000160: 3d38 7bbd 4b72 6f3d b127 9ebc ee50 0ebc
00000170: 1bf4 a43d 3546 943d 03cf e73c b98a 20be
00000180: 731b 273c 6d53 81bc 0343 83bc f5c1 ca3d
00000190: ced7 573d 55a5 c73c 05ab fcbd 47a2 cabd
000001a0: 9df3 2a3e 44de 33bb 5be0 ac3d 141f 993c
000001b0: b6ba 0b3d 4a67 a6bd 1e98 7c3d f5d1 e63d
000001c0: 825b dbbd c24c eebd 9e0d 73bd 6d6f 3abd
000001d0: adfe 3dbe f53a 17bd 99f1 68bc 588a 49be
000001e0: 93fd 963d 7f1d 79bd e2e7 afbd 1344 1c3e
000001f0: 07be 4ebd 9770 ae3d 820b 36bd 7901 c4bd
00000200: 0852 93bc 9fd4 bfbc 1c29 173e 39d6 10bd
00000210: 14a6 bd3c 30fa febc 5f3b 0f3e 954d 29bd
00000220: 1cb6 0fbe 3bc2 ab3b a1a4 b03d 2584 08be
00000230: 29ec 0e3c fa50 5d3d 1e52 ddbc 85bb 353e
00000240: 0a89 1c3b ccc0 823d 0f23 fbbd 4f42 653e
00000250: 4130 c6bd 9f35 e6bd a34c 48bb 2f60 cb3c
00000260: 4d6c 183c e57a 563c a1d8 8dbd 3e89 233d
00000270: bf61 0d3d 8039 69bd cb7a ddbd af4e 40be
00000280: 441f 24be 7fd1 18bd 2d2e c2bc e471 ca3d
00000290: f90a 023d f960 0fbd 1ff4 0fbd 5f96 d0bc
000002a0: ee4d 64bc 1c15 90bc 1c26 b13d a237 223e
000002b0: d60b 9c3c 0b4b a3bd 64fb 1a3b e75f 94bd
000002c0: ceed bdbb 6edf 053e 9ee1 d53d 0efb 9abd
000002d0: 14e9 553d 85fb 3f3c 9ab2 613d a152 0d3e
000002e0: c347 90bd 81bb 52bc 4f56 76bd 5078 933d
000002f0: 217b dc3d e608 23bd a03b d2bc 4df1 88bd
00000300: 6852 38bd 99dc 11be dd63 f43c a697 203e
00000310: 3c5a 49bd 6b9c 8c3d 11c1 b63c 1890 d23c
00000320: 3e1c eebd 1578 493d 6875 b63d 8141 8f3d
00000330: c13e 0bbd 0a5f 133d 9137 8abd a60f 8fbd
00000340: 4c97 893d 43f1 afbd 34a0 823c 8fc1 62bd
00000350: 90a4 e0bd fe93 87bd 4522 85bd 670b d3bc
00000360: 0469 1e3e d2e1 2fbc 1f2b da3c 26e9 4c3d
00000370: f0d2 14be 8987 ee3d a068 0bbd 505b d2bd
00000380: 7785 6b3d b82e 7d3d c9d1 353d f960 06bd
00000390: e203 b9bd 9d19 bc3d 5bed e53d 4688 56bd
000003a0: 92a3 a6bc 294d c83d ecbc d53b 8fe3 7ebd
000003b0: 966d 673d c9b1 bcbd 4b7f d43d 8bd5 77bd
000003c0: 2f2f 0e3d 6411 8ebd c9ea 033d 3bf9 d9bd
000003d0: 75a8 c6bd 8ff8 27be 0ccc 233d 4873 683c
000003e0: 6299 c6bd b981 2e3e aa2b 653c 1fac 303d
000003f0: 8850 c83d 7b50 3f3d db2f 693c 0f07 273d

network_body._body_endoder.seq_layers.2.bias f4 [128]
0.0029115335 0.002914924 -0.008058056 0.0061109494 -0.0031582825 0.000707549 0.0044293376 -0.0010472441
-0.004544195 0.009047297 -0.0026369109 -0.006650034 0.0048949923 -0.0061885207 0.008163916 0.0023256158
-0.0007050912 0.00088411174 -0.0013255044 -0.011826025 -0.0037908512 0.004954885 -0.0031644518 0.0043041455
-0.005877277 0.00022653671 -0.0017296094 -0.0048761833 -0.00040532683 0.0032054991 -0.0061006276 0.0020083124
-0.0009701389 0.0062071495 0.008283119 0.0029315 0.006477629 -0.001383403 -0.0038166076 0.0047485405
-0.0072439355 -0.00057192193 -0.003344894 -0.011379177 -0.0013984996 -0.0057836375 -0.00045524494 -0.0016165773
0.0048718792 -0.010503011 -0.0030879264 -0.0069326116 0.00302284 -0.001566998 -0.0010702317 0.0063423296
0.0065791956 0.006655926 -0.0064430395 0.014630637 -0.0052186055 0.015664613 -0.009233086 -0.007517776
-0.0018904903 0.004511811 -0.0015849661 -0.0020289507 -0.0042766174 0.0047194487 -0.004184931 -0.004941413
0.0055562877 0.004524405 0.0044116294 -0.0041964706 -0.002053292 0.0046067582 0.0049529476 0.017868022
0.0030034701 0.003383839 -0.0037364732 -0.0006120485 -0.0065728514 -0.0007804282 -0.0031051687 -0.0033869853
-0.0038023528 0.0037037744 -0.0006133945 -0.0029797542 0.001915069 -0.006911017 -0.0100463545 -0.002079389
0.0049065026 -0.0028888658 0.0007965766 0.002698795 7.707676e-05 -0.0063935453 0.002957033 0.008370174
-0.01592218 -0.0048376033 0.006393832 0.0037986003 -0.002267212 0.0039271885 0.0067671 0.0014588258
0.00079571654 -0.0053733764 -0.0016800938 -0.007029798 -0.0049986895 0.0043517146 0.004624959 -0.0029471018
0.0151889725 0.002168429 -0.004958509 -0.008173901 0.0042082313 0.0027795292 0.0017845277 -0.007347319
00000000: 6dcf 3e3b 4f08 3f3b f005 04bc 5c3e c83b
00000010: 30fb 4ebb cf7a 393a fa23 913b ae43 89ba
00000020: 78e7 94bb 1d3b 143c 06d0 2cbb 87e8 d9bb
00000030: 2c66 a03b 13c9 cabb f2c1 053c 5c69 183b
00000040: dfd5 38ba bcc3 673a 8cbc adba f2c1 41bc
00000050: ee6f 78bb 975c a23b b162 4fbb ca09 8d3b
00000060: 2c96 c0bb 7c8a 6d39 10b4 e2ba 64c8 9fbb
00000070: 0c82 d4b9 5a13 523b c6e7 c7bb e49d 033b
00000080: eb50 7eba 5865 cb3b ebb5 073c 691e 403b
00000090: 4a42 d43b 4d53 b5ba 0d20 7abb a599 9b3b
000000a0: 895e edbb 08ed 15ba 0236 5bbb ba6f 3abc
000000b0: dc4d b7ba ab84 bdbb f1ad eeb9 55e3 d3ba
000000c0: 49a4 9f3b d214 2cbc cf5e 4abb f62a e3bb
000000d0: d71a 463b ba63 cdba 0447 8cba 51d3 cf3b
000000e0: 4b96 d73b f419 da3b 2220 d3bb 57b5 6f3c
000000f0: d600 abbb 1353 803c 5f46 17bc ad57 f6bb
00000100: 54ca f7ba d0d7 933b a3be cfba 25f8 04bb
00000110: de22 8cbb 9ba5 9a3b bf21 89bb 94eb a1bb
00000120: 8511 b63b 7641 943b 6e8f 903b 8c82 89bb
00000130: 8690 06bb 4af4 963b 564c a23b f55f 923c
00000140: ded5 443b 66c3 5d3b 9edf 74bb e171 20ba
00000150: 1361 d7bb a695 4cba 1680 4bbb 2ff8 5dbb
00000160: e530 79bb 06bb 723b 35cc 20ba fb47 43bb
00000170: 0d03 fb3a d075 e2bb 7799 24bc 5c46 08bb
00000180: bac6 a03b 2053 3dbb 5ad1 503a 44de 303b
00000190: 45a4 a138 f280 d1bb c8ca 413b 0e23 093c
000001a0: 3b6f 82bc c284 9ebb 5a83 d13b f0f1 783b
000001b0: 8195 14bb a5af 803b 8dbe dd3b 1236 bf3a
000001c0: a297 503a 2613 b0bb 9836 dcba 385a e6bb
000001d0: 0ccc a3bb d498 8e3b f88c 973b 2a24 41bb
000001e0: 2bdb 783c 341c 0e3b fd7a a2bb d3eb 05bc
000001f0: 34e5 893b c328 363b d0e6 e93a c7c1 f0bb

action_model._continuous_distribution.log_sigma f4 [1, 2]
-0.0023472046 0.040552985
00000000: 8fd3 19bb e31a 263d

action_model._continuous_distribution.mu.weight f4 [2, 128]
0.007614129 0.014232163 0.013436096 -0.04122474 0.00053462497 -0.008533491 -0.004636089 0.0068737227
0.004509911 0.008879308 0.010466233 -0.004161746 0.0073871384 0.008372728 -0.017694391 -0.012789384
-0.02724256 0.030474856 0.05709804 0.0062108804 -0.008890839 -0.0133807 -0.01150061 0.003114923
0.023080343 0.021627652 -0.0018294092 -0.030568218 0.0026177925 -0.032491874 -0.0019687966 0.0004246934
0.0093928315 -0.014509164 0.07300347 -0.024563096 0.0036274337 -0.008191537 0.035451286 -0.016249051
-0.012580116 0.016956275 0.018738626 -0.008461634 0.044711452 0.026244724 -0.032542177 -0.018534081
0.0010035665 0.016913328 0.03089884 0.017944722 -0.0055977246 -0.03479389 -0.014031398 0.050949153
-0.01391681 -0.013475741 0.022056941 0.028520977 -0.00043013913 -0.016460843 0.030601352 0.01425564
0.019176908 0.014789958 -0.010919363 -0.005030247 -0.010590584 -0.01055186 0.0073492858 -0.015026876
-0.026029726 0.041844264 0.0533119 -0.01799895 -0.022590889 0.011494389 -0.02851656 -0.03531675
-0.00426281 0.0039457427 0.015653862 0.00046734963 -0.0204005 -0.02213202 0.008972168 0.010035191
0.05875866 0.0065589477 -0.019817846 0.034688123 0.0015949337 0.0033852437 -0.0044314354 -0.026288923
0.05545893 0.0064293724 0.012439098 0.025216587 -0.017438982 -0.0051877955 0.019098409 0.015779082
-0.004735236 0.023203706 -0.030380066 0.017038193 -0.014002167 0.015123755 -0.01005695 -0.01048377
-0.016155284 0.01831814 0.004086373 0.035582624 -0.011005978 -0.03339606 -0.0058862437 -0.002904827
-0.026166815 0.014876219 -0.019714816 0.018747807 0.02478327 0.0042526396 0.026734564 0.025880154
0.019479003 0.015108529 -0.028032659 -0.0026050983 -0.00012791186 -0.0004410728 0.0035817984 0.0014196448
0.014531095 -0.012621913 0.000249037 -0.033008892 0.011862628 -0.014539939 0.029687492 0.027846955
0.04022471 -0.0056640203 -0.07477488 -0.004685168 -0.013568302 0.007924928 -0.010185804 0.0054787537
-0.025883684 0.018556595 -0.01795376 0.006705574 0.013752226 -0.0019247931 -0.001952306 0.0038067023
0.021687891 0.017589692 -0.014111371 0.009156195 0.046764437 -0.0026395805 -0.008622794 -0.014136856
-0.028894883 0.008395214 -0.0018457774 -0.035224777 -0.006887628 -0.0036776296 -0.010153717 -0.027932277
0.013403592 0.0049433215 -0.024225315 -0.022474498 0.0034457056 -0.016779851 -0.030829629 -0.03698121
0.017466256 0.017408358 -0.01252489 -0.03887938 -0.023410406 0.0135196615 -0.041095417 -0.016202537
0.003153736 0.022117846 -0.012903121 -0.0018568862 0.020803677 0.02626301 -0.0156167755 -0.009257529
0.019096088 -0.025944391 -0.018749168 0.010886586 -0.016441049 0.019428989 0.004857104 0.033128623
0.011494553 -0.04149846 0.01262015 -0.0036677055 -0.0018274522 0.010825262 -0.006196958 -0.034527555
-0.032425217 0.011744679 0.019798025 -0.03503988 0.0042110267 -0.035280533 -0.026998917 -0.012722372
-0.032862682 0.007379655 -0.01932437 -0.012029181 0.003063422 -0.025335426 0.031418465 -0.016508438
-0.021525027 -0.024257664 0.025502166 0.01801163 0.013697822 0.04146477 0.018990032 0.0022064266
-0.035506777 -0.01091251 0.005752037 -0.023193564 -0.0130129 0.004560749 0.03534005 -0.002128134
0.021869868 -0.008211346 -0.015815958 0.016048983 -0.027782863 0.0065405057 0.02233833 -0.023884702
00000000: f27f f93b 052e 693c 1223 5c3c 46db 28bd
00000010: 1326 0c3a 0ed0 0bbc 55ea 97bb f73c e13b
00000020: e0c7 933b 847a 113c 907a 2b3c 415f 88bb
00000030: cf0f f23b c42d 093c d4f3 90bc 918a 51bc
00000040: ca2b dfbc 68a6 f93c a2df 693d a484 cb3b
00000050: e2aa 11bc b93a 5bbc 0e6d 3cbc bc23 4c3b
00000060: fd12 bd3c 792c b13c c9c8 efba 336a fabc
00000070: 458f 2b3b 3316 05bd ed06 01bb 62a9 de39
00000080: 64e4 193c d8b7 6dbc d882 953d 8c38 c9bc
00000090: 3dba 6d3b cc35 06bc 5e35 113d bb1c 85bc
000000a0: d51c 4ebc e3e7 8a3c bf81 993c aaa2 0abc
000000b0: 5b23 373d 2dff d63c f24a 05bd c9d4 97bc
000000c0: 1b8a 833a d28d 8a3c 901f fd3c cf00 933c
000000d0: 1e6d b7bb 0a84 0ebd f3e3 65bc 0fb0 503d
000000e0: 5503 64bc 5bc9 5cbc c2b0 b43c d3a4 e93c
000000f0: 4c84 e1b9 e4d8 86bc b0af fa3c 7d90 693c
00000100: e418 9d3c 9451 723c 21e7 32bc c5d4 a4bb
00000110: 2184 2dbc b5e1 2cbc 47d2 f03b 4933 76bc
00000120: 4b3c d5bc e464 2b3d 945d 5a3d 8972 93bc
00000130: 8710 b9bc f652 3c3c 909b e9bc 4ca8 10bd
00000140: 0baf 8bbb 4a4b 813b 873c 803c 9b06 f539
00000150: f31e a7bc 364e b5bc 0000 133c a46a 243c
00000160: ecac 703d 71ec d63b 0959 a2bc 2215 0e3d
00000170: 180d d13a f7da 5d3b 9335 91bb de5b d7bc
00000180: e728 633d 7cad d23b 5ccd 4b3c 0493 ce3c
00000190: 32dc 8ebc 62fe a9bb 4474 9c3c 2243 813c
000001a0: 0a2a 9bbb b315 be3c 9edf f8bc ae93 8b3c
000001b0: 5869 65bc a0c9 773c e8c5 24bc 1ec4 2bbc
000001c0: 1658 84bc ed0f 963c fbe6 853b 16bf 113d
000001d0: 6b52 34bc 4fca 08bd 64e1 c0bb e95e 3ebb
000001e0: ca5b d6bc 63bb 733c f780 a1bc 0095 993c
000001f0: 4906 cb3c ba59 8b3b 7202 db3c 9e02 d43c
00000200: 6e92 9f3c c389 773c bfa4 e5bc 4cba 2abb
00000210: 1420 06b9 ca3f e7b9 9bbc 6a3b 6013 ba3a
00000220: d413 6e3c 24cc 4ebc 2e91 8239 5534 07bd
00000230: 785b 423c ed38 6ebc 2f33 f33c 4c1f e43c
00000240: aac2 243d 3f99 b9bb 9323 99bd 0a86 99bb
00000250: 954d 5ebc 8fd7 013c 5ce2 26bc 1e87 b33b
00000260: 050a d4bc 0004 983c c413 93bc 6fba db3b
00000270: 0451 613c 5749 fcba 85e4 ffba de79 793b
00000280: ceaa b13c 4218 903c 6133 67bc de03 163c
00000290: 118c 3f3d d0fc 2cbb 9f46 0dbc 469e 67bc
000002a0: f6b4 ecbc 148c 093c 03ee f1ba db47 10bd
000002b0: 9db1 e1bb 6304 71bb c75b 26bc 3bd2 e4bc
000002c0: bd9a 5b3c 96fb a13b 2b74 c6bc 701c b8bc
000002d0: 59d1 613b e675 89bc 6b8e fcbc 9c79 17bd
000002e0: 6515 8f3c f99b 8e3c 3235 4dbc fc3f 1fbd
000002f0: 2ec7 bfbc 9281 5d3c ab53 28bd 2fbb 84bc
00000300: e9ae 4e3b 7c30 b53c 9d67 53bc c362 f3ba
00000310: 796c aa3c 8625 d73c 81dd 7fbc e4ac 17bc
00000320: 666f 9c3c 5589 d4bc db97 99bc a75d 323c
00000330: 61af 86bc 8b29 9f3c 5728 9f3b e1b1 073d
00000340: a653 3c3c 4afa 29bd bfc4 4e3c e35d 70bb
00000350: 1f87 efba 715c 313c da0f cbbb c46c 0dbd
00000360: 4ed0 04bd c16c 403c 782f a23c fa85 0fbd
00000370: a7fc 893b 5282 10bd d52c ddbc 7f71 50bc
00000380: 059b 06bd 08d1 f13b 244e 9ebc 0b16 45bc
00000390: b1c3 483b 3d8c cfbc a6b0 003d b43c 87bc
000003a0: 4155 b0bc 02b8 c6bc ebe9 d03c 208d 933c
000003b0: d46c 603c f6d6 293d fc90 9b3c b299 103b
000003c0: 8e6f 11bd 62ca 32bc 957b bc3b 6e00 bebc
000003d0: 0f34 55bc 5672 953b bac0 103d 2a78 0bbb
000003e0: 7028 b33c e288 06bc 7890 81bc 2879 833c
000003f0: e398 e3bc bd51 d63b e0fe b63c daa9 c3bc

action_model._continuous_distribution.mu.bias f4 [2]
-0.0025830318 0.006954943
00000000: 1548 29bb 4ae6 e33b
